logs/simu1/eval/Drnet_tr_ckpt.pth.tar (torch, 79169 bytes, 29 tensors)

feature_weight.weight f4 [50, 6]
000000 48 b3 65 b9 0e 25 ad ba 8b 4d 4b ba 81 c8 56 b8
       -0.0002190593 -0.0013209896 -0.000775539 -5.120831e-05
000010 11 4a 33 ba 19 58 9f 3a 5b 05 f0 3b 02 de 27 bb
       -0.0006839345 0.0012156992 0.007324857 -0.0025614505
000020 f4 99 47 bb 1c 73 b5 3b 52 2d 20 3b 13 2c 49 3b
       -0.0030456753 0.0055374037 0.0024441076 0.0030696436
000030 47 64 01 ba d6 64 b2 39 32 f6 e7 ba 02 04 cf ba
       -0.0004935902 0.00034025934 -0.0017697273 -0.0015794041
000040 52 4e d8 39 56 59 1f 3a 6f 35 04 ba 5d 4b 1e b9
       0.00041257084 0.0006078681 -0.00050433626 -0.00015096129
000050 a7 52 73 ba 8a e3 32 ba 70 f5 08 3a 0f 18 16 b9
       -0.00092820305 -0.0006824067 0.00052245613 -0.00014314077
000060 2a f9 42 3b 71 24 c3 ba b7 90 88 b8 41 3d 1f 3a
       0.0029750564 -0.001488818 -6.5119406e-05 0.0006074496
000070 5b ce f6 39 ae 65 fc b8 a4 dd e0 3a b6 02 2e 3a
       0.00047074523 -0.00012035236 0.0017155898 0.0006637977
000080 94 fb 26 39 f9 26 06 bb 73 ec c0 3a b7 63 50 3b
       0.00015924714 -0.0020470007 0.0014718905 0.0031797716
000090 45 d0 7c 3b 42 2e f0 39 f8 c4 05 bb 05 39 be 3a
       0.0038576287 0.00045810832 -0.0020411592 0.0014512843
0000a0 0f 25 0b b6 b4 9c ba 3a f8 16 ac b8 7d 31 75 3a
       -2.0734185e-06 0.0014237375 -8.2058774e-05 0.00093533826
0000b0 c2 69 0f bb 0b d5 b9 ba c9 0f 64 ba 45 fa 02 ba
       -0.0021883105 -0.0014177872 -0.0008699862 -0.00049963995
0000c0 18 7f 7d 3a 70 44 66 ba b9 0e 91 ba 3d 48 26 bb
       0.00096701225 -0.00087840017 -0.001106701 -0.0025372647
0000d0 82 ca 0c 3a aa 31 98 3a 24 09 f6 b9 23 02 32 bb
       0.0005370752 0.0011611481 -0.00046927587 -0.0027161918
0000e0 21 35 66 3a aa 6c 22 ba 2b 08 5b ba ce 34 9e 3a
       0.00087817205 -0.0006196002 -0.0008355404 0.001207018
0000f0 ea ea 09 bb 93 d6 c3 b8 a8 6a c8 39 67 ae 79 ba
       -0.002104456 -9.338292e-05 0.00038226438 -0.0009524584
000100 bc a2 2b 3a e8 82 f6 39 5c 5a 3d ba 4b 7c 40 3a
       0.00065473816 0.0004701831 -0.00072232424 0.000734274
000110 d9 0c ce 3a fa 01 a0 39 02 32 3d 3b c8 ea c8 3a
       0.0015720382 0.0003051905 0.0028868918 0.0015328759
000120 a4 d3 f0 3a 78 ba dc b9 76 32 42 ba 7c 20 1c bb
       0.0018373621 -0.000421006 -0.0007408032 -0.0023823073
000130 9a b6 06 3b 5b af 23 ba d2 ea 8e ba f7 64 d3 3a
       0.0020555616 -0.00062440865 -0.0010903722 0.0016128112
000140 3d bc 6a 3a af f2 88 ba 6e 54 75 39 56 2b 80 3a
       0.00089544413 -0.0010448302 0.00023396473 0.000977854
000150 a6 05 3f 3b a1 26 81 ba 51 b1 cd ba 4c d6 1b 3b
       0.0029147654 -0.0009853431 -0.0015693103 0.0023778854
000160 98 06 38 ba 1c 0f 3f 39 93 77 a4 ba c4 01 29 3b
       -0.00070200255 0.00018220808 -0.0012547843 0.0025788406
000170 bc 16 9d 39 63 b0 df 38 94 63 e3 b9 c8 5d f2 ba
       0.00029962312 0.00010666323 -0.00043371005 -0.0018491084
000180 24 b0 30 3b 68 1e dd ba 8c 1c 28 ba 44 60 b8 3a
       0.0026960457 -0.0016870024 -0.0006412945 0.0014066775
000190 cc 75 09 bb c6 0a 21 3b c9 ed 49 3a ce 9c 10 3a
       -0.0020974753 0.0024573072 0.0007702974 0.000551653
0001a0 dc 3a 0e 3a d2 56 51 3b 95 c7 c5 ba 9c b6 d7 39
       0.0005425641 0.0031942618 -0.0015089387 0.0004114405
0001b0 95 47 5e 3b 07 7c 0c 3a 64 7b 3f 3a 4f 32 69 3a
       0.0033917178 0.00053590577 0.00073044584 0.0008895741
0001c0 f3 2b 73 ba cb 8c ac 38 15 95 c1 3b 82 ad 87 ba
       -0.00092762633 8.227824e-05 0.0059076645 -0.0010351392
0001d0 ed a4 88 b9 4e 10 b1 3a 6c d3 eb ba 66 f8 a8 3a
       -0.0002606282 0.0013508887 -0.0017992086 0.0012891411
0001e0 5b a0 e9 ba e9 32 29 ba 0d d1 dd 3a 9d 32 90 ba
       -0.0017824279 -0.00064544246 0.0016923264 -0.0011001412
0001f0 1d dd 23 3a 46 76 0e 39 b6 6c 12 b9 d6 a8 8d ba
       0.0006250905 0.00013586236 -0.00013964143 -0.0010807763
000200 92 e7 d8 3a fd a6 81 ba ff 88 98 3a c1 99 c1 ba
       0.0016548506 -0.0009891685 0.0011637508 -0.0014770554
000210 9b c1 c2 3a 0c 50 0c bb ed f8 e5 ba 29 1d 1f bb
       0.0014858724 -0.0021410016 -0.0017545499 -0.0024278855
000220 6c 60 52 3a 98 91 00 3a 99 97 d4 b9 79 c5 85 b8
       0.0008025232 0.00049045077 -0.0004054874 -6.378716e-05
000230 26 63 19 bb e1 18 e4 ba ed 6d 4b ba c9 88 79 b9
       -0.0023405044 -0.0017402434 -0.00077602157 -0.00023797447
000240 b2 7d 9a 3b 11 9b d2 ba 73 72 07 ba b3 ec 81 3b
       0.004714691 -0.0016067942 -0.00051668956 0.0039649843
000250 21 e3 c9 39 0c 7b 14 3b c8 fa c4 b9 b6 24 51 3b
       0.00038506932 0.002265635 -0.0003757088 0.003191275
000260 f4 c0 e2 ba 5b f6 83 ba 38 cc 21 3b e7 2e 1e 3b
       -0.0017299936 -0.0010067926 0.0024688374 0.0024136843
000270 c9 e6 d9 ba 0a 03 d5 b9 1b 83 8e 3a 94 29 0d bb
       -0.0016624565 -0.0004062879 0.0010872813 -0.0021539675
000280 b4 d9 b3 ba 8a f0 29 3a 94 92 1f 3b 78 91 09 bb
       -0.0013721497 0.00064826815 0.0024348842 -0.0020991247
000290 a2 b2 c5 3a bf b1 b8 3a 08 d8 2b 39 10 88 f7 3a
       0.0015083144 0.0014091058 0.00016388309 0.0018885154
0002a0 49 8d 01 bb 18 35 98 3a 28 3c 45 3b 29 43 99 b9
       -0.001976805 0.0011612503 0.003009567 -0.00029232472
0002b0 9d cf b6 b9 1f 7d 06 3a 7b dd 92 3a fc 2d 18 3a
       -0.0003486843 0.0005130339 0.0011204922 0.0005805192
0002c0 d0 02 a7 3a 04 3e a2 b9 e0 fd 46 bb 70 2a ce 38
       0.0012741927 -0.00030945253 -0.0030363724 9.83075e-05
0002d0 a4 9e 7f ba fa 0c 08 3b d2 5f 59 bb 67 3a 81 b9
       -0.00097511173 0.0020759688 -0.0033168686 -0.0002464831
0002e0 50 12 83 3a 72 3d c9 ba c7 eb c9 3a 83 c8 99 39
       0.0009999964 -0.0015353395 0.001540535 0.00029331827
0002f0 1a e4 ca ba 8d b6 f5 b7 f0 ce be 3a 2c f0 0c 3b
       -0.0015479357 -2.9291283e-05 0.0014557522 0.0021505458
000300 19 c2 88 3b 79 a0 3d bb b0 64 07 bb bd 82 2c 3b
       0.004173529 -0.002893476 -0.002065938 0.0026323043
000310 3a 50 97 b6 8f 72 83 3b ce ee c4 ba f2 d7 72 3a
       -4.5094903e-06 0.004011459 -0.0015024783 0.0009263746
000320 0c d7 48 3a 10 7c da b9 b1 af 09 bb f6 ae 3e ba
       0.0007661439 -0.00041672634 -0.0021009261 -0.0007273996
000330 85 0f 07 bb 3e a2 8a ba 9d 4b b6 3a 14 41 90 b9
       -0.0020608616 -0.0010576916 0.0013908033 -0.00027514307
000340 35 22 7a ba 83 18 b0 3a de ba d2 ba a9 78 31 b9
       -0.00095418404 0.001343504 -0.0016077419 -0.00016924985
000350 a3 97 87 ba c1 dd d0 36 05 e5 ff b9 d0 28 18 39
       -0.0010344874 6.2246986e-06 -0.00048808023 0.00014511053
000360 0b 0a 7b 3a 45 60 85 ba 19 74 9c ba 44 1c ad 3b
       0.00095763867 -0.0010175785 -0.0011936455 0.0052829105
000370 cc a0 7d ba 55 a6 8e b9 c9 19 86 39 6e 28 c3 b7
       -0.00096751447 -0.00027208278 0.00025577683 -2.3264638e-05
000380 23 db 7a b9 8e 31 9e 3a cd 63 13 ba d1 c8 31 b9
       -0.00023923493 0.0012069212 -0.00056224765 -0.00016954845
000390 73 6d 97 b8 4b 71 2b 3b 6f a8 13 bb 30 63 a9 b9
       -7.2206276e-05 0.0026160057 -0.0022530814 -0.00032308092
0003a0 61 61 08 3b ed ff 11 39 a1 3a 74 bb 2b 58 30 39
       0.0020809995 0.00013923617 -0.003726639 0.00016817513
0003b0 c3 cb 77 b9 a0 82 1b bb 05 1a 92 ba bb 19 67 3a
       -0.00023631663 -0.0023728982 -0.001114667 0.0008815785
0003c0 d9 3d 93 3a d3 9a 87 ba 3f 63 18 bb c6 e9 9e 39
       0.0011233642 -0.0010345824 -0.0023252515 0.00030310283
0003d0 ae 20 da ba 72 0d fe 3a 9e af 11 ba 5b 65 9a b9
       -0.0016641819 0.0019382669 -0.000555748 -0.00029448685
0003e0 aa 62 3b 3a 3e 20 a6 38 b1 30 e8 ba a8 1d e3 b9
       0.0007148186 7.9215024e-05 -0.0017714706 -0.0004331891
0003f0 94 23 2a bb 1b e9 08 ba cd b3 f3 39 fd 4a 76 3a
       -0.0025961148 -0.00052227237 0.00046482534 0.00093953294

feature_weight.bias f4 [50]
000000 0f 66 52 b9 61 fe 4e 3b 4e 12 1d b9 d6 0a e6 b7
       -0.0002006518 0.0031584727 -0.00014979506 -2.7423182e-05
000010 4e 5d 51 3a 18 ea 0d 39 00 0f 5b 3a 52 98 9e 37
       0.0007986621 0.00013534015 0.0008356422 1.8905997e-05
000020 e9 1d f9 39 8e 08 fa b9 93 26 8f b8 9a 11 d5 37
       0.00047515266 -0.0004769009 -6.8259564e-05 2.5399775e-05
000030 dc c4 8b 39 3b 14 98 39 f4 1c 89 3a 74 34 a5 39
       0.00026658818 0.00029006772 0.0010460899 0.00031510333
000040 5e 9a a9 3a 50 28 49 3a 95 31 19 3a d2 49 08 3b
       0.0012939682 0.00076735485 0.0005843875 0.0020795953
000050 6f 6d 87 b9 25 3b c3 b9 44 8f 1e ba 00 00 00 00
       -0.0002583074 -0.00037237364 -0.000604857 0.0
000060 59 12 dc 3a 3e 33 20 ba be c0 69 38 54 a9 92 3a
       0.0016790136 -0.00061111513 5.5731034e-05 0.001118938
000070 46 1b 5e 39 9a 40 d0 b7 43 55 81 b8 9e b8 95 39
       0.0002118173 -2.4825615e-05 -6.1670806e-05 0.00028557045
000080 bd 98 f3 3a 26 6d 05 b8 bf 72 29 36 00 00 00 00
       0.0018584948 -3.1811323e-05 2.5249753e-06 0.0
000090 e4 80 c7 38 b0 c8 06 39 16 fa 25 b9 fe ea ed 37
       9.513067e-05 0.00012853998 -0.0001582879 2.8362028e-05
0000a0 38 f1 be 39 fb 77 a5 b9 8f 52 e3 b9 0e 22 56 3a
       0.00036419346 -0.00031560645 -0.00043358325 0.00081685267
0000b0 55 15 31 3a 46 fb 09 38 1f bf 6b b8 6a 78 b2 37
       0.0006755193 3.2897362e-05 -5.620636e-05 2.1275326e-05
0000c0 b2 02 59 39 b7 b2 9a 3a
       0.00020695737 0.0011802529

hidden_features.0.weight f4 [50, 6]
000000 48 b3 65 b9 0e 25 ad ba 8b 4d 4b ba 81 c8 56 b8
       -0.0002190593 -0.0013209896 -0.000775539 -5.120831e-05
000010 11 4a 33 ba 19 58 9f 3a 5b 05 f0 3b 02 de 27 bb
       -0.0006839345 0.0012156992 0.007324857 -0.0025614505
000020 f4 99 47 bb 1c 73 b5 3b 52 2d 20 3b 13 2c 49 3b
       -0.0030456753 0.0055374037 0.0024441076 0.0030696436
000030 47 64 01 ba d6 64 b2 39 32 f6 e7 ba 02 04 cf ba
       -0.0004935902 0.00034025934 -0.0017697273 -0.0015794041
000040 52 4e d8 39 56 59 1f 3a 6f 35 04 ba 5d 4b 1e b9
       0.00041257084 0.0006078681 -0.00050433626 -0.00015096129
000050 a7 52 73 ba 8a e3 32 ba 70 f5 08 3a 0f 18 16 b9
       -0.00092820305 -0.0006824067 0.00052245613 -0.00014314077
000060 2a f9 42 3b 71 24 c3 ba b7 90 88 b8 41 3d 1f 3a
       0.0029750564 -0.001488818 -6.5119406e-05 0.0006074496
000070 5b ce f6 39 ae 65 fc b8 a4 dd e0 3a b6 02 2e 3a
       0.00047074523 -0.00012035236 0.0017155898 0.0006637977
000080 94 fb 26 39 f9 26 06 bb 73 ec c0 3a b7 63 50 3b
       0.00015924714 -0.0020470007 0.0014718905 0.0031797716
000090 45 d0 7c 3b 42 2e f0 39 f8 c4 05 bb 05 39 be 3a
       0.0038576287 0.00045810832 -0.0020411592 0.0014512843
0000a0 0f 25 0b b6 b4 9c ba 3a f8 16 ac b8 7d 31 75 3a
       -2.0734185e-06 0.0014237375 -8.2058774e-05 0.00093533826
0000b0 c2 69 0f bb 0b d5 b9 ba c9 0f 64 ba 45 fa 02 ba
       -0.0021883105 -0.0014177872 -0.0008699862 -0.00049963995
0000c0 18 7f 7d 3a 70 44 66 ba b9 0e 91 ba 3d 48 26 bb
       0.00096701225 -0.00087840017 -0.001106701 -0.0025372647
0000d0 82 ca 0c 3a aa 31 98 3a 24 09 f6 b9 23 02 32 bb
       0.0005370752 0.0011611481 -0.00046927587 -0.0027161918
0000e0 21 35 66 3a aa 6c 22 ba 2b 08 5b ba ce 34 9e 3a
       0.00087817205 -0.0006196002 -0.0008355404 0.001207018
0000f0 ea ea 09 bb 93 d6 c3 b8 a8 6a c8 39 67 ae 79 ba
       -0.002104456 -9.338292e-05 0.00038226438 -0.0009524584
000100 bc a2 2b 3a e8 82 f6 39 5c 5a 3d ba 4b 7c 40 3a
       0.00065473816 0.0004701831 -0.00072232424 0.000734274
000110 d9 0c ce 3a fa 01 a0 39 02 32 3d 3b c8 ea c8 3a
       0.0015720382 0.0003051905 0.0028868918 0.0015328759
000120 a4 d3 f0 3a 78 ba dc b9 76 32 42 ba 7c 20 1c bb
       0.0018373621 -0.000421006 -0.0007408032 -0.0023823073
000130 9a b6 06 3b 5b af 23 ba d2 ea 8e ba f7 64 d3 3a
       0.0020555616 -0.00062440865 -0.0010903722 0.0016128112
000140 3d bc 6a 3a af f2 88 ba 6e 54 75 39 56 2b 80 3a
       0.00089544413 -0.0010448302 0.00023396473 0.000977854
000150 a6 05 3f 3b a1 26 81 ba 51 b1 cd ba 4c d6 1b 3b
       0.0029147654 -0.0009853431 -0.0015693103 0.0023778854
000160 98 06 38 ba 1c 0f 3f 39 93 77 a4 ba c4 01 29 3b
       -0.00070200255 0.00018220808 -0.0012547843 0.0025788406
000170 bc 16 9d 39 63 b0 df 38 94 63 e3 b9 c8 5d f2 ba
       0.00029962312 0.00010666323 -0.00043371005 -0.0018491084
000180 24 b0 30 3b 68 1e dd ba 8c 1c 28 ba 44 60 b8 3a
       0.0026960457 -0.0016870024 -0.0006412945 0.0014066775
000190 cc 75 09 bb c6 0a 21 3b c9 ed 49 3a ce 9c 10 3a
       -0.0020974753 0.0024573072 0.0007702974 0.000551653
0001a0 dc 3a 0e 3a d2 56 51 3b 95 c7 c5 ba 9c b6 d7 39
       0.0005425641 0.0031942618 -0.0015089387 0.0004114405
0001b0 95 47 5e 3b 07 7c 0c 3a 64 7b 3f 3a 4f 32 69 3a
       0.0033917178 0.00053590577 0.00073044584 0.0008895741
0001c0 f3 2b 73 ba cb 8c ac 38 15 95 c1 3b 82 ad 87 ba
       -0.00092762633 8.227824e-05 0.0059076645 -0.0010351392
0001d0 ed a4 88 b9 4e 10 b1 3a 6c d3 eb ba 66 f8 a8 3a
       -0.0002606282 0.0013508887 -0.0017992086 0.0012891411
0001e0 5b a0 e9 ba e9 32 29 ba 0d d1 dd 3a 9d 32 90 ba
       -0.0017824279 -0.00064544246 0.0016923264 -0.0011001412
0001f0 1d dd 23 3a 46 76 0e 39 b6 6c 12 b9 d6 a8 8d ba
       0.0006250905 0.00013586236 -0.00013964143 -0.0010807763
000200 92 e7 d8 3a fd a6 81 ba ff 88 98 3a c1 99 c1 ba
       0.0016548506 -0.0009891685 0.0011637508 -0.0014770554
000210 9b c1 c2 3a 0c 50 0c bb ed f8 e5 ba 29 1d 1f bb
       0.0014858724 -0.0021410016 -0.0017545499 -0.0024278855
000220 6c 60 52 3a 98 91 00 3a 99 97 d4 b9 79 c5 85 b8
       0.0008025232 0.00049045077 -0.0004054874 -6.378716e-05
000230 26 63 19 bb e1 18 e4 ba ed 6d 4b ba c9 88 79 b9
       -0.0023405044 -0.0017402434 -0.00077602157 -0.00023797447
000240 b2 7d 9a 3b 11 9b d2 ba 73 72 07 ba b3 ec 81 3b
       0.004714691 -0.0016067942 -0.00051668956 0.0039649843
000250 21 e3 c9 39 0c 7b 14 3b c8 fa c4 b9 b6 24 51 3b
       0.00038506932 0.002265635 -0.0003757088 0.003191275
000260 f4 c0 e2 ba 5b f6 83 ba 38 cc 21 3b e7 2e 1e 3b
       -0.0017299936 -0.0010067926 0.0024688374 0.0024136843
000270 c9 e6 d9 ba 0a 03 d5 b9 1b 83 8e 3a 94 29 0d bb
       -0.0016624565 -0.0004062879 0.0010872813 -0.0021539675
000280 b4 d9 b3 ba 8a f0 29 3a 94 92 1f 3b 78 91 09 bb
       -0.0013721497 0.00064826815 0.0024348842 -0.0020991247
000290 a2 b2 c5 3a bf b1 b8 3a 08 d8 2b 39 10 88 f7 3a
       0.0015083144 0.0014091058 0.00016388309 0.0018885154
0002a0 49 8d 01 bb 18 35 98 3a 28 3c 45 3b 29 43 99 b9
       -0.001976805 0.0011612503 0.003009567 -0.00029232472
0002b0 9d cf b6 b9 1f 7d 06 3a 7b dd 92 3a fc 2d 18 3a
       -0.0003486843 0.0005130339 0.0011204922 0.0005805192
0002c0 d0 02 a7 3a 04 3e a2 b9 e0 fd 46 bb 70 2a ce 38
       0.0012741927 -0.00030945253 -0.0030363724 9.83075e-05
0002d0 a4 9e 7f ba fa 0c 08 3b d2 5f 59 bb 67 3a 81 b9
       -0.00097511173 0.0020759688 -0.0033168686 -0.0002464831
0002e0 50 12 83 3a 72 3d c9 ba c7 eb c9 3a 83 c8 99 39
       0.0009999964 -0.0015353395 0.001540535 0.00029331827
0002f0 1a e4 ca ba 8d b6 f5 b7 f0 ce be 3a 2c f0 0c 3b
       -0.0015479357 -2.9291283e-05 0.0014557522 0.0021505458
000300 19 c2 88 3b 79 a0 3d bb b0 64 07 bb bd 82 2c 3b
       0.004173529 -0.002893476 -0.002065938 0.0026323043
000310 3a 50 97 b6 8f 72 83 3b ce ee c4 ba f2 d7 72 3a
       -4.5094903e-06 0.004011459 -0.0015024783 0.0009263746
000320 0c d7 48 3a 10 7c da b9 b1 af 09 bb f6 ae 3e ba
       0.0007661439 -0.00041672634 -0.0021009261 -0.0007273996
000330 85 0f 07 bb 3e a2 8a ba 9d 4b b6 3a 14 41 90 b9
       -0.0020608616 -0.0010576916 0.0013908033 -0.00027514307
000340 35 22 7a ba 83 18 b0 3a de ba d2 ba a9 78 31 b9
       -0.00095418404 0.001343504 -0.0016077419 -0.00016924985
000350 a3 97 87 ba c1 dd d0 36 05 e5 ff b9 d0 28 18 39
       -0.0010344874 6.2246986e-06 -0.00048808023 0.00014511053
000360 0b 0a 7b 3a 45 60 85 ba 19 74 9c ba 44 1c ad 3b
       0.00095763867 -0.0010175785 -0.0011936455 0.0052829105
000370 cc a0 7d ba 55 a6 8e b9 c9 19 86 39 6e 28 c3 b7
       -0.00096751447 -0.00027208278 0.00025577683 -2.3264638e-05
000380 23 db 7a b9 8e 31 9e 3a cd 63 13 ba d1 c8 31 b9
       -0.00023923493 0.0012069212 -0.00056224765 -0.00016954845
000390 73 6d 97 b8 4b 71 2b 3b 6f a8 13 bb 30 63 a9 b9
       -7.2206276e-05 0.0026160057 -0.0022530814 -0.00032308092
0003a0 61 61 08 3b ed ff 11 39 a1 3a 74 bb 2b 58 30 39
       0.0020809995 0.00013923617 -0.003726639 0.00016817513
0003b0 c3 cb 77 b9 a0 82 1b bb 05 1a 92 ba bb 19 67 3a
       -0.00023631663 -0.0023728982 -0.001114667 0.0008815785
0003c0 d9 3d 93 3a d3 9a 87 ba 3f 63 18 bb c6 e9 9e 39
       0.0011233642 -0.0010345824 -0.0023252515 0.00030310283
0003d0 ae 20 da ba 72 0d fe 3a 9e af 11 ba 5b 65 9a b9
       -0.0016641819 0.0019382669 -0.000555748 -0.00029448685
0003e0 aa 62 3b 3a 3e 20 a6 38 b1 30 e8 ba a8 1d e3 b9
       0.0007148186 7.9215024e-05 -0.0017714706 -0.0004331891
0003f0 94 23 2a bb 1b e9 08 ba cd b3 f3 39 fd 4a 76 3a
       -0.0025961148 -0.00052227237 0.00046482534 0.00093953294

hidden_features.0.bias f4 [50]
000000 0f 66 52 b9 61 fe 4e 3b 4e 12 1d b9 d6 0a e6 b7
       -0.0002006518 0.0031584727 -0.00014979506 -2.7423182e-05
000010 4e 5d 51 3a 18 ea 0d 39 00 0f 5b 3a 52 98 9e 37
       0.0007986621 0.00013534015 0.0008356422 1.8905997e-05
000020 e9 1d f9 39 8e 08 fa b9 93 26 8f b8 9a 11 d5 37
       0.00047515266 -0.0004769009 -6.8259564e-05 2.5399775e-05
000030 dc c4 8b 39 3b 14 98 39 f4 1c 89 3a 74 34 a5 39
       0.00026658818 0.00029006772 0.0010460899 0.00031510333
000040 5e 9a a9 3a 50 28 49 3a 95 31 19 3a d2 49 08 3b
       0.0012939682 0.00076735485 0.0005843875 0.0020795953
000050 6f 6d 87 b9 25 3b c3 b9 44 8f 1e ba 00 00 00 00
       -0.0002583074 -0.00037237364 -0.000604857 0.0
000060 59 12 dc 3a 3e 33 20 ba be c0 69 38 54 a9 92 3a
       0.0016790136 -0.00061111513 5.5731034e-05 0.001118938
000070 46 1b 5e 39 9a 40 d0 b7 43 55 81 b8 9e b8 95 39
       0.0002118173 -2.4825615e-05 -6.1670806e-05 0.00028557045
000080 bd 98 f3 3a 26 6d 05 b8 bf 72 29 36 00 00 00 00
       0.0018584948 -3.1811323e-05 2.5249753e-06 0.0
000090 e4 80 c7 38 b0 c8 06 39 16 fa 25 b9 fe ea ed 37
       9.513067e-05 0.00012853998 -0.0001582879 2.8362028e-05
0000a0 38 f1 be 39 fb 77 a5 b9 8f 52 e3 b9 0e 22 56 3a
       0.00036419346 -0.00031560645 -0.00043358325 0.00081685267
0000b0 55 15 31 3a 46 fb 09 38 1f bf 6b b8 6a 78 b2 37
       0.0006755193 3.2897362e-05 -5.620636e-05 2.1275326e-05
0000c0 b2 02 59 39 b7 b2 9a 3a
       0.00020695737 0.0011802529

hidden_features.2.weight f4 [50, 50]
000000 ab b1 66 ba 28 e0 94 3a ab ca c1 3a 80 7e fe 3a
       -0.00088002783 0.0011358308 0.0014785131 0.0019416362
000010 ad d5 08 ba 9d 08 0e ba 8c 9a 76 ba ab b2 25 ba
       -0.00052198285 -0.00054181536 -0.00094071846 -0.0006320874
000020 8b c4 af ba ff 52 80 ba 6b fe ef 3a b0 5c 06 bb
       -0.0013410015 -0.000979036 0.0018310075 -0.0020502023
000030 8f 54 e3 ba d2 db bd b9 6e f4 e2 b8 5c 81 9b 3a
       -0.0017343926 -0.00036212668 -0.00010822048 0.0011864114
000040 cf fa 15 3b 0f 71 0e bb cb f3 02 3b 6b 0f 83 3a
       0.002288509 -0.0021734869 0.0019981738 0.0009999102
000050 b5 f0 45 3a a0 de 0d 39 a2 ff 0f bb 6d d6 04 bb
       0.0007550822 0.00013529742 -0.0021972437 -0.002026941
000060 5d 38 08 3b 18 1a 99 3b c2 39 3d bb b4 c9 48 ba
       0.0020785548 0.0046723 -0.0028873538 -0.00076594506
000070 4b 9d 04 3b 72 d2 a9 b9 a0 5d a1 3a bc ef 86 38
       0.0020235355 -0.00032390986 0.0012311228 6.434272e-05
000080 89 d9 b6 ba 75 df c6 ba a6 05 f5 b9 cc 73 84 b8
       -0.0013950329 -0.0015172797 -0.0004673425 -6.315819e-05
000090 8e 04 98 ba 47 9a 94 39 6b 45 9e ba ae af 7d ba
       -0.0011598037 0.00028343705 -0.0012075132 -0.00096773624
0000a0 82 06 d7 39 eb c5 76 3a ae 42 0c bb a9 b1 6d ba
       0.00041012844 0.00094136473 -0.002140205 -0.0009067306
0000b0 b6 2f 9e ba 3f 09 af 39 18 b8 92 b9 42 92 34 3b
       -0.0012068662 0.0003338549 -0.0002798445 0.0027552997
0000c0 c0 09 63 b9 8a 75 1f 3b 2c d4 bf 39 92 6d f0 3a
       -0.00021652039 0.0024331533 0.0003658844 0.0018343201
0000d0 ab 67 86 3a bc 71 cf 39 04 9d c8 ba f2 c7 54 39
       0.0010254284 0.00039566855 -0.0015305583 0.00020292381
0000e0 b4 fe 24 3b e0 8a 9a 3a 66 55 d4 ba 0a af a6 3a
       0.002517623 0.0011790656 -0.0016199767 0.0012716961
0000f0 1d 71 d1 ba 77 6f a8 38 35 8d 91 b9 cd d2 a0 ba
       -0.0015979145 8.031626e-05 -0.00027761763 -0.0012269855
000100 f4 3b 11 3a dc be 96 b9 5a 43 16 39 b1 87 1c 3b
       0.0005540245 -0.0002875243 0.00014330205 0.002388459
000110 1e 4c 5e ba 7f 08 4d ba a8 68 cb ba b7 c1 c7 3a
       -0.000847997 -0.00078213954 -0.0015518861 0.0015240227
000120 93 17 ac ba 92 c0 0a 3a 4a 31 0a b9 a0 02 00 ba
       -0.0013129584 0.00052929774 -0.00013179067 -0.00048832037
000130 1f 93 e4 ba 6f c3 f2 3a 51 8c 2d ba 8c 41 2a 3a
       -0.0017438865 0.0018521379 -0.0006620335 0.00064947526
000140 49 aa 0d 3a b4 be 22 bb 73 8c 25 bb 40 64 1a bb
       0.00054040976 -0.0024832906 -0.0025260716 -0.0023558289
000150 f5 18 2c 3b 3f 3a 6a 3b 18 37 08 3a d8 fb 2d 3a
       0.0026259993 0.0035740284 0.0005196198 0.0006636954
000160 69 84 84 ba ba 43 b6 ba 0f 80 f3 b9 dc bb 6e b7
       -0.0010110262 -0.0013905682 -0.00046443983 -1.4229645e-05
000170 8b 22 ce 3a 63 bb 1a 3a 95 4a 30 b9 7a d7 84 39
       0.0015726847 0.00059025566 -0.00016812452 0.00025337545
000180 d8 8e 53 ba 58 57 9b 39 da 19 9e 3a af 45 c4 b9
       -0.00080702966 0.0002962898 0.0012062148 -0.00037435952
000190 c0 4e 76 ba 14 fd 71 3a 3c 68 e2 ba 74 24 95 3a
       -0.000939589 0.0009231132 -0.0017273496 0.0011378662
0001a0 09 2e 02 3a b4 bd 58 ba ca ac 66 3a ed 5b 1e 3b
       0.0004965966 -0.0008268014 0.0008799551 0.0024163679
0001b0 e4 b9 cd ba 0c 5d 23 ba 4f ed 5d b9 bd 34 fb b8
       -0.0015695659 -0.00062318216 -0.00021164607 -0.00011978436
0001c0 30 5c bc ba 4f 31 4d b9 a1 6d 83 3b 49 48 cc 3a
       -0.0014370736 -0.00019568692 0.0040108715 0.0015585507
0001d0 86 db 68 3a 82 b6 99 3a 12 26 2c 38 76 2d 8a ba
       0.0008882809 0.0011727365 4.104345e-05 -0.0010542113
0001e0 b8 a8 e6 b9 97 42 8e 3a 1d 26 a4 ba 41 4b 46 ba
       -0.00043994724 0.0010853586 -0.0012523566 -0.00075643143
0001f0 01 d2 35 3a 20 5b 18 3b c7 96 f2 39 14 ed 48 3a
       0.0006935895 0.0023247674 0.00046270175 0.0007664722
000200 9b 32 89 38 9b f1 9c 3a c2 32 4b bb 66 f4 59 b9
       6.542095e-05 0.001197386 -0.0031005596 -0.00020785778
000210 8d 2c 48 ba 88 d9 68 3a 35 df 1d bb e0 fc 24 ba
       -0.0007636033 0.00088825123 -0.002408934 -0.0006293785
000220 f3 44 a6 ba 37 40 bd ba 9c 80 70 3b 0a 3a 8f ba
       -0.0012685343 -0.0014438693 0.003669775 -0.0010927331
000230 2e f8 63 38 71 a2 f2 3a 70 2f 03 bb a1 da 47 3b
       5.4352153e-05 0.0018511546 -0.0020017289 0.0030495303
000240 7a 97 5c 3a f7 5a 71 3a a1 f6 9b ba 08 65 0d 3b
       0.0008414906 0.0009206975 -0.0011899063 0.0021575112
000250 e5 a4 ce 3a 9f 5e 4e 3a a3 54 02 3b bd 7f fc ba
       0.0015765695 0.0007872376 0.0019886873 -0.0019264143
000260 d7 2e 0b b9 2f f9 a1 3a 9b 2b 70 3a 11 ba 09 bb
       -0.00013273522 0.0012357588 0.0009161771 -0.0021015445
000270 9e 37 a7 3a b8 b0 87 ba 14 8c 43 ba dc 40 96 b9
       0.0012757664 -0.0010352349 -0.0007459533 -0.00028658553
000280 ab 63 ef ba 41 8a 07 bb e6 04 85 3a bf 96 bf b9
       -0.0018263956 -0.002068177 0.0010148555 -0.00036542673
000290 54 3f 34 b9 4b d6 ae 38 13 8b d9 3a 10 09 d3 ba
       -0.00017189729 8.336882e-05 0.0016597233 -0.0016100723
0002a0 2c e7 2e 3a f5 b7 e3 ba 0d ff 0b ba 04 62 25 39
       0.00066720205 -0.0017373549 -0.0005340435 0.0001577214
0002b0 22 cd a3 3a b9 ac 65 3a 2e d5 37 3a cf 83 d8 39
       0.0012497047 0.00087613944 0.0007012662 0.00041296936
0002c0 80 86 1d 3a 43 0e 1d ba 9b 54 a3 39 65 f7 d8 39
       0.0006009117 -0.00059912 0.0003115282 0.00041383054
0002d0 cf 94 18 b9 71 8c 01 ba fd cc cf 3a 02 99 cc ba
       -0.00014551285 -0.0004941887 0.0015853938 -0.0015609565
0002e0 37 27 01 bb d6 80 9f b9 6d f4 07 3b 98 f5 5b b8
       -0.0019707212 -0.00030422834 0.0020745054 -5.2442396e-05
0002f0 84 29 9f b9 e4 48 bd ba f3 a8 c0 ba 0a ba a9 b9
       -0.00030357775 -0.0014441279 -0.0014698788 -0.00032372802
000300 88 8f 0a 3a 30 60 a5 ba 2d 0c aa 3a 23 7f 94 3a
       0.000528567 -0.0012617167 0.0012973599 0.0011329394
000310 1a 9c 7a 3a 9a a4 07 ba d8 79 56 b9 f5 4b 31 3b
       0.0009560004 -0.0005174369 -0.0002045402 0.002705333
000320 71 66 0c 3a 33 99 4f bb e6 82 20 ba 85 fe 0e 3b
       0.0005355841 -0.0031677007 -0.0006123021 0.0021819186
000330 43 a5 84 b7 27 f4 c1 39 8c 8b 26 bb 76 f3 0a 3b
       -1.5812582e-05 0.00036993736 -0.0025412766 0.0021202243
000340 f8 cd 96 ba db c7 22 bb 24 13 b9 ba c2 38 07 bb
       -0.0011505475 -0.0024838361 -0.0014120084 -0.0020633196
000350 43 aa 21 3a 21 a2 cb 39 b6 f3 af 3a 74 7f b1 39
       0.00061670336 0.00038839973 0.0013424072 0.0003385503
000360 d0 72 c3 ba a2 98 4e 39 74 88 65 ba 54 49 86 3a
       -0.0014911536 0.00019702551 -0.000875599 0.0010245242
000370 e0 ad 4f 3a 82 44 31 ba 8f d5 57 3a 94 ad 2b 3a
       0.0007922333 -0.00067622226 0.0008233422 0.00065489975
000380 6b 8b 18 b9 ed e6 0d 3b ac 6b 33 3b e6 4c c9 3a
       -0.00014547787 0.0021652535 0.002737741 0.0015358
000390 f6 45 1c ba 47 11 21 3b 2e c2 34 3b ca dd a1 39
       -0.0005961353 0.0024576948 0.002758156 0.0003087356
0003a0 f9 a1 37 ba c5 17 a9 3a 76 69 13 3b 77 b6 b9 ba
       -0.0007005032 0.0012900761 0.002249328 -0.0014168759
0003b0 c8 14 0c ba a2 bb 90 ba da aa 03 39 c3 3a 8a 39
       -0.0005343673 -0.0011042247 0.0001255678 0.00026365192
0003c0 ce 75 2c 3a 1b af 0e 3b e8 67 a0 ba 4e 8f 89 3a
       0.00065788336 0.0021771851 -0.0012237998 0.0010494979
0003d0 1a f0 59 3a 71 34 b0 b9 9d 90 32 3b de f2 95 38
       0.0008313671 -0.00033608408 0.002724684 7.150111e-05
0003e0 b6 e2 b0 3a d9 b9 8a 3a 24 95 9f ba c2 21 99 3a
       0.00134953 0.0010583951 -0.0012175185 0.0011683034
0003f0 ef 6f b1 b9 c1 14 97 ba 56 13 a2 ba eb ce 23 39
       -0.00033843468 -0.0011526571 -0.0012365382 0.00015621974

hidden_features.2.bias f4 [50]
000000 2c 93 c6 b9 6e 8b 9b b9 02 54 9a b7 f7 76 9b b8
       -0.00037875155 -0.00029667787 -1.839735e-05 -7.413135e-05
000010 1a e7 b2 b8 df cb 57 b9 93 d7 28 b6 6d 3f af b8
       -8.5307474e-05 -0.00020579946 -2.5159432e-06 -8.356464e-05
000020 12 a6 13 ba f2 e2 8b b9 29 9f 81 3d ce c4 c5 36
       -0.00056323514 -0.00026681233 0.063291855 5.8939686e-06
000030 97 05 da b9 88 5e 8f b9 3e 52 dd b8 aa b3 a8 3d
       -0.00041584365 -0.00027345517 -0.0001055342 0.08237393
000040 d6 f0 36 b9 48 ce 5f b9 45 53 9f b9 13 74 fd b6
       -0.00017446591 -0.00021343783 -0.00030388884 -7.5535004e-06
000050 9c ef 41 3d ee d5 31 3c 14 d1 f6 b8 60 07 cd b8
       0.04734765 0.0108542275 -0.00011769138 -9.7765354e-05
000060 02 ee a1 3d f6 45 60 b9 6a e8 16 ba f4 9f 6c 3e
       0.079067245 -0.00021388367 -0.00057566783 0.23107892
000070 6f 5a 60 38 47 5e 20 b9 77 38 cd b7 cb 7f f1 b6
       5.3489985e-05 -0.0001529391 -2.4464198e-05 -7.1972368e-06
000080 2e 3a af 38 00 00 00 00 8a c2 c9 3d 00 00 00 00
       8.355487e-05 0.0 0.098515585 0.0
000090 31 51 ee 3c d4 95 c3 b6 b8 eb 47 b7 27 00 43 b8
       0.02909145 -5.828895e-06 -1.1916207e-05 -4.6491765e-05
0000a0 70 2c 2d 36 10 8f 69 b6 00 00 00 00 0c 8a 33 b8
       2.5804875e-06 -3.480298e-06 0.0 -4.2805492e-05
0000b0 36 ed b0 3d 2a a3 03 b7 f5 85 27 b9 00 00 00 00
       0.086389944 -7.846198e-06 -0.00015976264 0.0
0000c0 ed 9b bc b8 f3 20 91 38
       -8.993582e-05 6.920276e-05

density_estimator_head.weight f4 [50, 11]
000000 5f 7b f1 3a 48 b1 39 3a fc 53 e8 39 7e a0 21 3a
       0.0018423608 0.0007083607 0.00044313062 0.0006165578
000010 d4 f9 0a bb 6d 11 c6 38 53 68 6e ba fd e0 8a 3a
       -0.0021206038 9.4446215e-05 -0.0009094525 0.0010595616
000020 6c 34 a3 b9 be d0 c0 3a 9c c3 f5 3a 4f b0 d8 38
       -0.0003112884 0.0014710648 0.0018750313 0.00010332523
000030 e4 d3 1a 3b 8f f9 1a 3b 5d 88 e4 b9 ca 26 82 ba
       0.0023624832 0.0023647284 -0.00043589147 -0.0009929773
000040 e2 f3 25 ba 19 f3 6e b9 ca c4 e9 ba 34 95 68 3a
       -0.0006330592 -0.0002278801 -0.0017835137 0.00088723307
000050 97 fe 89 ba 32 6d c7 3a 6c f1 4d b9 2b 04 da ba
       -0.0010528144 0.0015215038 -0.0001964026 -0.0016633322
000060 b3 61 b1 3a 68 d3 d5 ba d0 91 16 3a 5e 91 92 b9
       0.0013533145 -0.0016313614 0.00057437737 -0.00027955597
000070 c6 9c 03 3b dc 37 99 3a 7a c9 21 ba e2 fa 0f bb
       0.0020082458 0.0011689621 -0.0006171685 -0.0021969606
000080 b4 69 41 37 53 ef 87 3a 1d 93 16 39 3e 77 b1 b9
       1.1528307e-05 0.0010371007 0.00014359919 -0.00033848913
000090 5b 4a 98 ba 4d b9 13 3a cd ef 64 ba 4e 1c 14 ba
       -0.0011618839 0.0005635217 -0.0008733243 -0.00056499697
0000a0 55 fd b3 39 ae 0f 03 ba 9d 1b 82 ba 16 55 d8 ba
       0.00034330288 -0.000499959 -0.0009926442 -0.001650485
0000b0 57 43 e4 3a 2a fb 2d ba 12 e2 b7 39 48 b2 a1 ba
       0.0017415088 -0.00066368526 0.00035072915 -0.0012336457
0000c0 62 3d e4 3a a8 28 65 3a 8e 3b 82 39 01 b2 19 3b
       0.0017413313 0.0008741715 0.00024839904 0.0023452046
0000d0 63 b3 a3 ba 59 9a aa 3a de e7 28 bb 24 22 04 ba
       -0.0012489374 0.001301597 -0.002577297 -0.0005040488
0000e0 1a b9 18 bb fd 2c af 39 6b 7f dd 39 8a f0 61 ba
       -0.0023303689 0.0003341212 0.0004224734 -0.0008618912
0000f0 6b 72 18 3b 5d b4 95 ba 83 69 a3 b9 05 56 0b 3b
       0.0023261558 -0.001142155 -0.00031168395 0.0021260988
000100 d6 c2 5b 3b c2 ea 94 3a 74 d6 34 39 11 58 06 bb
       0.003353288 0.0011361467 0.00017246028 -0.002049927
000110 4f a4 49 ba e3 14 0f 39 8a 5e 22 3b cb 01 15 bb
       -0.00076920254 0.00013645324 0.0024775588 -0.0022736664
000120 d9 8e c2 3a 52 6f 89 ba e8 6f c0 3a b6 e0 bb 3a
       0.0014843597 -0.0010485447 0.0014681788 0.0014333937
000130 76 f3 16 3b 6d 4a b4 3a be 15 a6 b9 35 7d ea 3a
       0.0023033298 0.0013755091 -0.00031678186 0.0017890098
000140 81 f7 22 39 83 58 13 3b 17 2f 9d 3a a0 08 f9 ba
       0.00015541726 0.0022483177 0.0011992183 -0.0018999763
000150 2d 02 47 39 08 5d 56 bb 6a ee f6 ba 6d be 20 b9
       0.0001897893 -0.003270926 -0.0018839363 -0.00015329728
000160 60 93 43 ba b9 04 da 3a d9 d0 76 3a 20 17 83 ba
       -0.000746062 0.0016633488 0.0009415276 -0.0010001399
000170 f0 a0 15 ba 56 d1 cf ba 21 cf d7 ba 07 7b 2d b7
       -0.00057078805 -0.0015855234 -0.0016464927 -1.0340248e-05
000180 fe 8f a0 3a f7 70 39 3b 2d a0 ce 3a d7 c3 0e ba
       0.0012249944 0.0028296092 0.0015764289 -0.00054460525
000190 a3 62 69 ba 7a 55 8c 3a 79 a8 a5 ba 4a bb ab ba
       -0.00089029426 0.0010706626 -0.001263871 -0.0013102081
0001a0 d0 52 a8 3a 6b f1 06 3a 1f 2f f3 ba 8f d3 d9 ba
       0.0012842063 0.00051476684 -0.0018553472 -0.0016618836
0001b0 ff 8b ad b9 10 55 05 3b d5 a3 32 bd d5 6e 7c 3c
       -0.00033101437 0.002034489 -0.043613274 0.015407284
0001c0 0e 7a 4d 3c 5b fd 26 3c db 9d 97 3b 4e 18 2f 3c
       0.012541307 0.010192241 0.004626972 0.010686947
0001d0 fa b9 33 ba 29 a6 15 ba 74 29 09 bc da 58 2b 3c
       -0.0006856021 -0.0005708659 -0.0083717 0.010458196
0001e0 51 6c 4a bc 27 7b 2b 38 e2 f2 40 3b 4e d5 0b ba
       -0.012354926 4.088427e-05 0.0029441644 -0.0005334214
0001f0 2e 2a 96 3a dc 1c b7 ba d3 5a 97 b9 5b 50 03 bb
       0.0011456662 -0.0013970393 -0.00028868634 -0.002003691
000200 36 89 e6 b9 d9 99 65 3b 92 70 a5 3a a7 65 d8 3a
       -0.0004397125 0.0035034327 0.001262205 0.0016509787
000210 07 27 a2 3a e7 18 f3 b9 13 25 9b ba 54 cf 91 ba
       0.001237125 -0.00046367125 -0.001183661 -0.0011124411
000220 34 4e 7c 39 ee dd 3c ba 9c 53 4a ba 32 9c 2d 3b
       0.00024061726 -0.0007204701 -0.0007718147 0.0026490805
000230 26 b9 d1 ba 5f c7 ef ba 69 43 9f 3a 7b 5b f7 3a
       -0.0016000613 -0.001829367 0.0012150827 0.0018871868
000240 73 72 95 ba 77 2e 2c 3a 95 96 fd 39 18 63 b0 3a
       -0.0011401906 0.0006568203 0.00048368113 0.0013457267
000250 4a 9a 70 3b b6 03 dc ba 89 b8 28 3b d0 8c f1 39
       0.0036713057 -0.0016785774 0.0025744757 0.00046072016
000260 6b e9 5c ba a4 12 43 ba 38 fa ce ba 90 39 68 3a
       -0.0008427116 -0.00074414373 -0.0015791124 0.0008858675
000270 79 3e 7d ba c9 57 03 bb 78 8b c3 3a a4 19 51 bb
       -0.0009660493 -0.0020041338 0.0014918884 -0.0031906152
000280 ba 37 f5 ba 25 34 b8 3a 47 36 9c 3a 79 70 23 3a
       -0.0018708624 0.0014053626 0.0011918031 0.0006234716
000290 22 fd 43 ba e1 29 68 bd 05 eb 8c 3c a8 a8 93 3c
       -0.00074763794 -0.056680564 0.01720191 0.018024758
0002a0 3a ec 7b 3c 1d 74 14 3c 4c 52 8a 3c ee 9a d6 ba
       0.015376145 0.009060887 0.016884945 -0.0016373077
0002b0 e1 01 de ba 5f c2 1b bc 78 27 56 3c 48 2e 8d bc
       -0.0016937816 -0.009506791 0.0130709335 -0.017233983
0002c0 36 28 db b9 2b a7 2f ba 44 83 4a bb bf 53 c7 3a
       -0.00041800895 -0.000670063 -0.0030900994 0.0015207453
0002d0 21 9c 11 bb 83 f5 55 ba 9a aa 45 ba 4e 83 af 3a
       -0.0022218304 -0.0008161889 -0.0007540375 0.0013390572
0002e0 cf bf 92 ba 5b ed 26 3b 9e 70 8e 39 8d ee 08 bb
       -0.001119608 0.0025471065 0.00027168257 -0.002089414
0002f0 d2 51 25 bb 07 09 2c bb 87 18 6b 39 a1 2b 5e 3a
       -0.002522577 -0.0026250498 0.00022420484 0.0008475129
000300 db f8 61 3a 34 a6 9c 37 45 71 17 b9 2a 89 9f 3a
       0.0008620151 1.8674044e-05 -0.00014442678 0.0012171615
000310 9b ae c5 ba 01 33 a0 3a c0 89 d6 ba 2c 74 ee ba
       -0.0015081944 0.0012222232 -0.0016367957 -0.0018192581
000320 f3 5b 7a ba 5a 39 3f 38 8e 8b 36 39 45 34 c6 ba
       -0.00095504447 4.559136e-05 0.00017408861 -0.0015121779
000330 38 57 05 ba 2a ce d9 39 a1 c9 08 ba 15 1a b2 38
       -0.0005086544 0.0004154307 -0.00052180333 8.4925596e-05
000340 86 86 b4 b9 25 5b b4 3a 85 65 78 ba 8a 3c 1d ba
       -0.00034432503 0.0013760073 -0.0009475577 -0.0005998096
000350 56 d2 15 3b 86 e9 3a bb bc b2 d8 38 42 99 85 39
       0.0022860966 -0.0028520538 0.000103329745 0.00025481923
000360 83 c1 ea ba 91 bb 1c bb f4 d1 a0 3a b5 04 a8 b9
       -0.0017910454 -0.002391551 0.0012269602 -0.00032046964
000370 ec 8f 0a bd 36 14 36 3c 7d 83 4f 3c c2 3c 1d 3c
       -0.03382866 0.011113217 0.012665627 0.009597005
000380 72 6d a6 3b 49 4f 2f 3c 32 ed 2c bb 8c 01 1a bb
       0.005078965 0.010700055 -0.0026386497 -0.0023499457
000390 05 05 8b bb 78 9d 9f 3b 91 b8 0f bc f9 8c d7 bb
       -0.0042425417 0.0048710667 -0.008772031 -0.0065780845
0003a0 60 be 76 3b 1f 89 24 3b db 46 97 3b 05 06 dd 3a
       0.0037650093 0.0025106145 0.004616601 0.0016862756
0003b0 05 e5 7d 3a 37 7f 4b 3a 10 4d d6 3a f0 06 b2 ba
       0.00096853107 0.0007762792 0.0016349871 -0.001358239
0003c0 ba 0d 1f 3a 5f 3b 44 bb e8 ed 99 3a e8 b5 16 3b
       0.0006067414 -0.0029942614 0.0011743875 0.0022996608
0003d0 53 73 d4 3a a4 ea 18 3b 93 ad a0 ba 9f 5a 05 3b
       0.0016208686 0.0023333216 -0.001225876 0.0020348204
0003e0 cf 9d 9d b8 1b de 04 ba cf c2 a1 ba 70 89 ea 39
       -7.5157375e-05 -0.00050684967 -0.0012341383 0.00044734357
0003f0 c7 5d c9 3a 47 df a8 3a 41 65 a1 ba 1d 0e 53 ba
       0.0015363031 0.0012883925 -0.0012313501 -0.0008051114

density_estimator_head.bias f4 [11]
000000 8d d1 ad bf 31 c7 f6 3e fa a2 d8 3e ae f0 ac 3e
       -1.3579575 0.48198846 0.4231184 0.33777374
000010 41 d7 43 3e da 6a be 3e f9 89 db bc 38 87 8a bd
       0.19125082 0.37190896 -0.026799189 -0.06764072
000020 4e ec 74 be 4f f4 9e 3e 85 8e d9 be
       -0.23918268 0.31045768 -0.42491546

Q.Q1.0.weight f4 [50, 50]
000000 0b 39 e1 3a 40 5f 8b 3a 65 73 36 39 39 f6 28 39
       0.0017183138 0.0010633245 0.0001739986 0.00016113454
000010 5d 68 1b ba 58 37 bd 3a 1e 3f 08 3b d1 6e 8f b9
       -0.0005928332 0.0014436049 0.0020789574 -0.0002735765
000020 71 3f 47 3b 68 0e bd ba b8 c0 d3 ba 4b ef f5 39
       0.0030402804 -0.0014423849 -0.0016155457 0.0004690833
000030 45 8f 3e 3b 89 59 89 b9 d9 ce b3 3a 72 9f 7e ba
       0.0029077095 -0.00026197385 0.0013718262 -0.000971309
000040 87 59 46 bb 7f 73 55 ba 6c 54 c8 3a ae b7 30 ba
       -0.0030265765 -0.00081425154 0.0015283949 -0.00067412376
000050 b5 76 a0 ba bd 10 cf 3a 70 a6 80 3a 2a 72 0d bb
       -0.0012242409 0.0015797835 0.0009815227 -0.002158294
000060 67 3e fc ba 86 7f d3 ba 28 27 5a bb df b8 40 ba
       -0.0019244672 -0.0016136027 -0.00332875 -0.00073517667
000070 eb 9a 85 ba ed 52 9b ba e7 ad 16 bb 49 2a 8a 3a
       -0.0010193264 -0.0011850275 -0.0022991837 0.0010541166
000080 dd 15 df ba 1a b2 07 3b 42 b8 7f ba a7 36 c6 37
       -0.0017020066 0.0020705522 -0.00097549346 2.3628889e-05
000090 e2 a6 63 3a 71 01 d8 ba bc 7d 27 b9 75 92 6d 3a
       0.000868423 -0.0016479922 -0.00015973201 0.00090626563
0000a0 3c 5d 9f ba 55 1f 41 bb 00 5c 3d ba 7e 01 8a ba
       -0.0012158523 -0.0029468138 -0.0007223487 -0.0010529009
0000b0 a6 83 24 bb 80 86 9f b9 21 ed 85 ba 6d ae 8f 3a
       -0.0025102883 -0.00030427054 -0.0010217765 0.0010962017
0000c0 56 f9 9a ba e9 d3 6b 3a 6d c6 d3 ba 4d f0 ec ba
       -0.0011823575 0.00089961156 -0.0016157158 -0.0018076986
0000d0 c8 97 e7 ba 98 4d c8 ba 9f 20 bf 3a 02 d3 3b 3b
       -0.0017669136 -0.0015281914 0.0014581865 0.0028659706
0000e0 d9 b8 b0 ba 34 8b 36 bb fb 81 eb b9 fa b1 03 3b
       -0.0013482823 -0.0027853968 -0.00044919536 0.0020095096
0000f0 ba 4b 90 ba 76 7f 33 ba 67 a0 17 3a 21 91 e9 3a
       -0.0011008896 -0.0006847301 0.00057840947 0.0017819741
000100 05 25 0b 3b 86 bb af 3a 40 97 0e 39 ac 19 d6 3a
       0.0021231782 0.0013407327 0.0001359852 0.0016334555
000110 e7 b5 d0 ba ae 30 11 3a df e2 26 3b a4 07 4d 39
       -0.0015923352 0.0005538565 0.0025464816 0.0001955317
000120 67 e6 e6 3a 9b e5 e4 b9 ba 30 8c ba 05 9c 18 3a
       0.0017616273 -0.00043658618 -0.0010695674 0.00058215886
000130 a6 a4 c4 b9 b7 44 85 3a f7 9e 4f 3a 95 3d 77 b9
       -0.00037506706 0.0010167573 0.0007920111 -0.00023578697
000140 b3 14 70 3b b6 fd 8b 38 be 0c 00 3a 5c cb 25 bb
       0.0036633431 6.675294e-05 0.0004884711 -0.0025298214
000150 a4 cd 9c 39 e9 63 62 b9 eb d8 60 ba b3 18 c3 38
       0.00029907853 -0.00021590259 -0.0008577245 9.302925e-05
000160 86 92 18 3a 39 f5 7c 39 3a 63 06 b8 f8 9a 8e ba
       0.00058201735 0.00024123945 -3.20405e-05 -0.0010879925
000170 f7 ee 1a ba dd 30 fb ba c3 76 26 3a c0 2e 82 3a
       -0.00059102423 -0.0019164343 0.00063500943 0.0009932145
000180 a1 43 9c ba b6 63 55 3a fc 55 8e b9 e9 1b fe 3a
       -0.001192201 0.0008140163 -0.00027148414 0.001938698
000190 48 22 47 3a 2d 7e 8f ba b1 7b 30 3a db b8 40 3a
       0.0007596356 -0.0010947637 0.00067322986 0.00073517644
0001a0 bc 98 28 ba 00 83 67 37 fa 1a 93 ba 46 b3 0c 3b
       -0.00064314506 1.3799174e-05 -0.001122325 0.002146916
0001b0 8c 4f eb b8 8f 7e 88 39 52 3f 23 3b 19 94 83 39
       -0.0001122049 0.00026034235 0.0024909568 0.00025096608
0001c0 3d ec 13 3a 26 eb b4 3a 5a 64 48 b9 a3 5d 39 ba
       0.0005642807 0.001380299 -0.0001911087 -0.0007071143
0001d0 f6 0f 05 bb d5 f5 b7 ba 11 78 ec 39 d1 81 a0 3a
       -0.0020303703 -0.0014035056 0.00045102884 0.001224572
0001e0 2c 8e 12 3a 86 de 79 3a 72 64 35 ba 85 5b 35 bb
       0.0005590643 0.0009531755 -0.00069195696 -0.0027672958
0001f0 5d 80 92 b9 20 ae 66 3a 88 2b 8e 3a 78 1f 1e b7
       -0.00027942928 0.00087997504 0.0010846714 -9.424861e-06
000200 a6 18 1b b9 94 e4 0c 3a 94 7a bc 3a ec e3 55 ba
       -0.00014791134 0.0005374637 0.0014379793 -0.0008159268
000210 2c 9e 19 3b 78 f8 30 b9 55 61 03 3a c9 5b a9 ba
       0.0023440225 -0.0001687723 0.0005011757 -0.0012921031
000220 93 85 07 bb 3f 62 fa ba 54 68 77 39 71 14 f2 ba
       -0.0020678982 -0.0019102766 0.00023594621 -0.0018469227
000230 f9 31 04 3b ea 9e ed b9 35 43 ce 3a 80 b1 0d 3a
       0.0020171388 -0.00045322563 0.0015736582 0.00054051727
000240 29 64 dd b9 b9 5b 0d 3a 78 43 f3 3a ab b3 ad 37
       -0.0004222703 0.0005392391 0.0018559536 2.0706872e-05
000250 a2 ea bc ba 9e a7 0b 3a 3d e8 9b 3a 2d 28 f0 38
       -0.0014413188 0.0005327406 0.0011894774 0.00011451575
000260 52 ff 9a b9 1c de 5a 3a cd 46 54 ba 89 90 0e ba
       -0.00029563397 0.0008349137 -0.00080977083 -0.00054384075
000270 d5 65 cd 3a f6 f7 1b 3a 02 f0 51 ba 8a b9 d3 b7
       0.0015670607 0.000594973 -0.0008008481 -2.5239558e-05
000280 da 45 db 3a 6e 28 5d 3a 08 63 07 ba 09 3e 59 39
       0.0016729191 0.00084365054 -0.0005164598 0.00020717843
000290 e7 79 a0 39 e6 7e 21 bb 30 84 ab 3a b1 aa 8f ba
       0.00030608402 -0.0024642288 0.001308566 -0.0010960904
0002a0 33 f0 39 3b 1a a2 83 ba b2 c6 1f bb 20 84 78 ba
       0.002837193 -0.0010042817 -0.0024379906 -0.00094801374
0002b0 58 6e ea b8 b7 ad ff 3a 8b 7b 1e 3b af f3 57 3a
       -0.000111785426 0.0019506727 0.0024182524 0.0008237911
0002c0 58 b3 d4 b9 a9 b3 27 3b 5b 2b 9b 3a 32 3e 6e ba
       -0.00040569413 0.0025589264 0.0011838482 -0.00090882473
0002d0 23 94 8c ba 75 d3 71 39 4c 91 e6 38 76 40 a6 ba
       -0.00107253 0.00023062325 0.00010994318 -0.0012684006
0002e0 d9 3d 02 bb 0f eb be ba a8 25 e4 ba 58 d8 1b ba
       -0.001987329 -0.0014565903 -0.0017406242 -0.00059450185
0002f0 a4 a2 18 b9 da 77 4b 3a 78 d5 20 39 d9 e6 77 b9
       -0.00014556438 0.0007761695 0.00015338312 -0.00023641753
000300 8b d4 88 b9 60 a2 9b ba a1 bf d9 ba 53 cb 34 3a
       -0.00026098298 -0.0011873953 -0.0016612896 0.0006896753
000310 ba 4c 14 bb c0 ca 7b 3a 5c 47 4d 37 9c 44 b4 ba
       -0.002262874 0.0009605102 1.2235567e-05 -0.0013753357
000320 bc 8f bf ba 74 54 4a b9 f8 04 4b ba 94 ce cb b7
       -0.001461498 -0.00019295682 -0.0007744576 -2.4295681e-05
000330 04 a7 ca 3a ac ba a3 ba 0f 1c 72 ba b8 e5 e1 b9
       0.0015461151 -0.0012491546 -0.00092357484 -0.00043086498
000340 86 e1 ac b6 d0 6a 97 3a 4c 7d 23 3a 14 c5 41 bb
       -5.152254e-06 0.0011552218 0.0006236627 -0.002956693
000350 2f 29 27 3b f8 5f eb b8 53 9e 22 3b b2 74 14 3b
       0.0025506725 -0.00011223549 0.0024813607 0.0022652564
000360 5b 3c 54 3a bc ad 52 3a 08 36 52 ba 5a db d1 3a
       0.0008096152 0.00080367527 -0.00080189155 0.0016010806
000370 b0 56 27 b9 88 be 32 3a bc 94 3d 39 57 7d 3e bb
       -0.00015958655 0.00068185525 0.00018079852 -0.0029066408
000380 c5 da ab 3a a5 25 f2 3a 8e 31 ff b9 3c 63 0b 3a
       0.0013111463 0.0018474354 -0.0004867431 0.0005317216
000390 e9 7d 79 ba 33 8e b8 39 2a d5 22 3a f6 02 76 3a
       -0.0009517358 0.00035201162 0.00062115735 0.00093845965
0003a0 55 13 d8 ba 39 56 20 3a fb c8 9a b9 fe cf 00 b9
       -0.0016485254 0.0006116364 -0.0002952291 -0.00012284514
0003b0 da dd 82 ba e2 6a ca 39 f2 ba 1e bb f6 04 80 b9
       -0.000998433 0.00038608076 -0.0024220315 -0.0002441776
0003c0 6c af ab 3a de ad e7 3a 01 75 b7 b9 1b ed 4b 39
       0.0013098544 0.0017675718 -0.00034991655 0.00019447917
0003d0 44 5d f6 b9 d3 76 1e 3b 1b 7b 1a 3a 82 35 07 bb
       -0.00046990265 0.0024179711 0.0005892978 -0.0020631258
0003e0 f0 8b c3 b7 cf 16 fc b9 4b c5 24 bb 0e 6b 2f ba
       -2.3310975e-05 -0.0004808218 -0.002514201 -0.00066916726
0003f0 45 01 82 ba b2 77 bb b8 72 54 80 ba 83 28 44 3a
       -0.0009918591 -8.93915e-05 -0.0009790792 0.00074828434

Q.Q1.0.bias f4 [50]
000000 ed de 5b 3b 42 3d 0f ba 93 e2 a6 3b 7f b3 d5 3b
       0.0033549622 -0.0005464145 0.0050929277 0.0065216417
000010 44 8c 2f 3c 75 bf b1 3c 30 bc 45 3c 00 00 00 00
       0.010714594 0.02169774 0.012068793 0.0
000020 f2 39 ad 3c 00 00 00 00 fb 3b fb 3b 00 00 00 00
       0.021145795 0.0 0.0076670623 0.0
000030 00 00 00 00 b6 6a 20 3c 00 00 00 00 de 63 5f 3c
       0.0 0.009791067 0.0 0.01363465
000040 4a b0 73 3c d5 9b 64 3c 00 00 00 00 00 00 00 00
       0.014873574 0.013953169 0.0 0.0
000050 00 00 00 00 2d 38 a4 3a 00 00 00 00 00 00 00 00
       0.0 0.0012528949 0.0 0.0
000060 b4 8f 53 3c b5 15 01 3a b9 11 b5 3c 67 84 93 3c
       0.012912679 0.0004924194 0.022103177 0.01800747
000070 01 80 bb 3c 77 f1 7e 3b 23 f0 de 3b b8 9f 30 3c
       0.022888185 0.0038901248 0.006803529 0.010780267
000080 81 88 a5 3c 1c 68 20 3c 00 00 00 00 b4 b6 04 3b
       0.020206692 0.009790447 0.0 0.00202505
000090 37 1d 34 3c 00 00 00 00 00 00 00 00 df 73 84 3c
       0.0109932935 0.0 0.0 0.016168533
0000a0 00 00 00 00 7d bc 8a 3c ab f8 a6 3c b1 3b 16 bb
       0.0 0.016935581 0.020382246 -0.0022923762
0000b0 1f 9b d8 3b 00 00 00 00 5d 62 5f 3c cf 51 93 3c
       0.0066102888 0.0 0.0136342915 0.017983345
0000c0 3c 9c c8 3c 00 00 00 00
       0.02448856 0.0

Q.Q1.0.treat_weight f4 [1, 50]
000000 c8 21 f8 3c 40 32 cc 3a 88 d7 2e 3d 94 d7 4d 3d
       0.030289546 0.001557894 0.042686015 0.05025442
000010 83 88 a5 3d 0c ed 3d 3e b0 a5 da 3d 7e 02 0f be
       0.08082678 0.18547457 0.10676134 -0.13965794
000020 09 34 4c 3e 7b 41 6f bd 42 f0 79 3d 42 da 44 bc
       0.19941725 -0.058412056 0.061020143 -0.012014927
000030 32 bd 93 be 41 aa 8b 3d 42 ac aa bd 0c c7 eb 3d
       -0.28855282 0.06819583 -0.08333637 0.115125746
000040 33 44 01 3e 6a 12 0f 3e 10 32 b1 bd f6 5d a4 bd
       0.12623672 0.13971868 -0.08652127 -0.08025734
000050 3a b4 3f bc fc 14 59 3c 8b 2e 20 bd 1f 73 27 bd
       -0.011700684 0.013249632 -0.039106887 -0.040881272
000060 d3 b4 e5 3d 8f bc a4 3b 2e 71 3a 3e 5d 83 19 3e
       0.1121613 0.0050273607 0.18207237 0.14991517
000070 08 62 4e 3e 74 05 13 3d a2 6b 86 3d 4f fa 8a 3d
       0.20154583 0.035893872 0.06563498 0.06786024
000080 df a1 2b 3e 9a 15 96 3d 44 71 8c be ac 88 ce 3c
       0.16760968 0.07328339 -0.27430165 0.025211655
000090 c1 2b b6 3d f1 79 b6 bd 66 fd 44 be 36 90 0c 3e
       0.08895064 -0.08909977 -0.19237289 0.13726887
0000a0 f1 b8 3e be d1 bf 0f 3e 50 f0 26 3e bf 44 5c 3d
       -0.18625237 0.14038016 0.1630261 0.0537765
0000b0 ae b4 95 3d a8 28 99 bc a1 fa 02 3e 52 f0 2d 3e
       0.073098525 -0.018696144 0.1279092 0.16986206
0000c0 37 a2 52 3e 75 cf 7b bd
       0.20569693 -0.061477143

Q.Q1.1.weight f4 [50, 1]
000000 f6 c7 60 bc 52 70 93 39 62 fa a1 bc 41 06 c4 bc
       -0.013719549 0.0002812171 -0.019772712 -0.023928763
000010 be 34 1e bd 03 cf ad bd 57 2d 46 bd 20 7d d0 ba
       -0.038624518 -0.0848675 -0.048383083 -0.0015906431
000020 a1 f5 b5 bd 75 ac 14 3a d2 4e eb bc 92 0c 8c ba
       -0.088847406 0.000567145 -0.028724108 -0.0010684899
000030 89 50 87 ba 55 57 09 bd 0a 7b e1 ba e6 5e 59 bd
       -0.0010323684 -0.033530552 -0.0017202806 -0.053069018
000040 c9 28 6e bd 38 40 7a bd b2 fb 61 b9 d5 79 db b9
       -0.058144365 -0.0610964 -0.00021551436 -0.00041861707
000050 d0 06 01 3a 2f ed ba bb e0 02 80 3a 25 24 a1 39
       0.00049219746 -0.005704544 0.0009766482 0.00030735243
000060 7e c6 51 bd fe 68 0d bb e6 17 ad bd dd d9 8d bd
       -0.051214688 -0.0021577473 -0.08451824 -0.0692632
000070 eb 66 bb bd ad 6e 84 bc 26 68 ec bc e7 48 0e bd
       -0.091504894 -0.016166056 -0.028858256 -0.034737494
000080 d4 2f 9f bd 5c 16 10 bd 30 fa 0c 3a 29 91 29 bc
       -0.07772794 -0.035177574 0.0005377857 -0.01034955
000090 80 a4 2a bd 96 22 75 3a 80 72 3d 3a e0 3b 81 bd
       -0.041660786 0.0009351162 0.00072268397 -0.063102484
0000a0 13 64 c7 b9 65 e1 84 bd 77 6a 9c bd a2 1a a5 bc
       -0.000380308 -0.06488303 -0.07637494 -0.020154301
0000b0 6e 22 fe bc 09 9f 8d ba 62 d1 69 bd 48 7e 9a bd
       -0.031022277 -0.0010804842 -0.05708445 -0.075436175
0000c0 d3 5b c2 bd ae 6f 17 ba
       -0.0949017 -0.00057768344
