logs/simu1/eval/Drnet_ckpt.pth.tar (torch, 78530 bytes, 28 tensors)

feature_weight.weight f4 [50, 5]
00000000: e3f3 21bc fea7 f33d a9c6 17bb 85b5 293b
00000010: 00e8 dfba 090b 11bd 5bd2 023f 2ccb f9bb
00000020: 5610 343c bcd7 3e3b ee74 7d3c bb6d fe3c
00000030: 3955 61bb 9590 e93a 7b60 8a3a a7bc 97ba
00000040: d2f3 a03b 79d3 20ba f61d aabb 0a71 a1bb
00000050: 3504 05bc 5146 e23d abd8 1bbb abfd 1b3b
00000060: bcfc 8a3b 6944 96bc 2a95 883e 1061 75bb
00000070: ef60 a53b 9c86 00b9 33a8 89bd ec26 10bd
00000080: 5ba9 d1b9 4ef8 423c 5853 9dba 2ccd 93ba
00000090: a616 2d3d fdb9 a8b8 6d58 db3a 1222 4ebb
000000a0: 5fa5 3fbc fc92 023e 1436 5ebb 0223 9c3b
000000b0: 4cda 24bb 3b59 bf3d 3082 3bbd 61d2 98bb
000000c0: a258 f3bb ca0b 7ebb 67b8 debb 726c 213e
000000d0: fd26 373a de15 c83a 0ef7 e63b 2be5 0cbc
000000e0: c37e 013e 2b5f e3ba 0d47 413b 4264 103b
000000f0: 31d3 1e3e 76a1 bbbd dbb4 3639 983f a43c
00000100: 2944 393d 4e66 dfbc 07f1 9b3e b68c fdbb
00000110: dff9 2f3c cb49 bd3a 7bfb fdba 636a e53d
00000120: 4157 5c39 c7dd c3ba 0877 38b8 9d84 71bc
00000130: ef22 65be a9ad fe3b f2a7 4abc 0d4f 01bd
00000140: 6f4c c23d a3dc a3be f797 60bb 758c 893b
00000150: 6251 91bd 0b4f 14be cfb8 19be 3c44 2b3c
00000160: 1d60 8abc f3ed 67bc 4e66 13bb 498f 813d
00000170: 506c 1b3c 7124 36bc 3794 193b 0480 87bb
00000180: 2695 b43d 2d65 6e39 f23e a039 b0ae df3b
00000190: 1ab2 5bbc 279d 023e 2a44 c4bb b92e df3b
000001a0: 30e0 21bb bc40 d039 87c1 5a3d cbfc 1c3a
000001b0: f243 81ba 0e27 5cb9 3a2f 413e 57ba fcbd
000001c0: 2c6f e5bc 4fda 543a 2e37 8abb 9e64 a83c
000001d0: 6f2b 16bc 23ed 313c 1526 4439 84d9 603b
000001e0: 133b 0cbd 8316 a6bd 3f0a a639 a573 ed3b
000001f0: a319 83bb 2fa5 01be dcad 80be cfb6 eb3b
00000200: 7924 ff3c dd9e 343d 9ef3 80bb 2e2b 2c3d
00000210: 16ce 113c f2fe 06bd 141d 10bb 2d31 bebc
00000220: f5ab 8e3e 1089 cabb 0fcc 183c c689 e2ba
00000230: 0032 fabd bf46 03be f86d 4ebc 660c 5f3c
00000240: 2d8c 22bc 0e16 cebc cbb3 c83e d7e3 88bb
00000250: 265e e03b 3c56 99ba 7ace 41bc 8474 2f3e
00000260: b112 eaba ba77 7d3b 4a8a 133b bd47 5dbc
00000270: 6c70 ee3d 0f34 c0bb dc58 e13b a956 8439
00000280: 2f77 f13c b22b e8bc 7c9a b6bb e53b d0ba
00000290: 1558 38bb 140d cc3b 006c 7dbd a066 e039
000002a0: fed2 e93c 7096 e13c a853 48ba ac41 f7bb
000002b0: 8360 cabb 9cec 36bc 1cae cdbb 9f8b 35bc
000002c0: 64c8 263e 19b6 04bb 3b50 863b 04d6 78bb
000002d0: 6447 0bbd da27 043f 7ec0 f8bb bd47 403c
000002e0: 1b0a e63b a2df 943d 10a9 91bd 6a2d 3f3c
000002f0: 49ee 7a3d 7205 6e3d b73b 94bb abe8 003d
00000300: 7cd8 993a c4a2 d1bc 6ab0 f8bb 3180 dd3d
00000310: bcb3 a9bd b0dc 52bc 3747 cbba cf06 a4bc
00000320: 1203 82bc 2a9b 593e 2227 86bb 166c a93b
00000330: 4f9b 79ba 7bd5 2b3d f175 92be 5df9 5d3c
00000340: ca51 83bd 273e 87bd a0fc 13bc b29b 9e3d
00000350: 3d9d 93bb 0bdc c33a b5b6 eeba 9236 0fbc
00000360: be45 363e 70c5 203b ab1f 913a f725 ac3a
00000370: 7e56 5e3e ea93 c4bd bc32 0ebc ecf0 9bbc
00000380: 862f 3db8 5cbe a5bd 0309 2bbe d0a2 5abd
00000390: 6554 a4bb 56be 1ebc 4668 0abe 5ce3 e0bd
000003a0: 8c89 abbb 198e 473b 4a9a d2bb 0997 26bc
000003b0: 5ab2 c93d 8b8a 6bbb 029f a03b e647 073b
000003c0: 2e71 bc3c 386a d9bd 27d5 753c 701d 463d
000003d0: 8ff0 483d c740 45bb c9ee 6c3c bbc2 04bb
000003e0: 2e17 2bbc b0ec fdbb
-0.009884807 0.11897276 -0.0023159182 0.0025895548 -0.0017082691 -0.035410915 0.51102227 -0.007623097
0.010990223 0.0029120287 0.015469773 0.031058183 -0.0034383072 0.0017819578 0.0010557318 -0.0011576609
0.004911878 -0.00061350275 -0.00519156 -0.0049268054 -0.008118679 0.11048568 -0.0023780267 0.002380232
0.004241554 -0.018343167 0.26676303 -0.0037441887 0.005046956 -0.00012257177 -0.067215346 -0.03519337
-0.00039989766 0.011900021 -0.0012002988 -0.0011276356 0.042257927 -8.045507e-05 0.0016734727 -0.0031453413
-0.011697142 0.12751383 -0.0033906745 0.0047649154 -0.002515453 0.09343191 -0.045778453 -0.004663751
-0.0074263373 -0.003876435 -0.006796885 0.15764025 0.00069867057 0.0015265306 0.007048494 -0.00859956
0.12646012 -0.0017347088 0.0029491812 0.0022032415 0.1551025 -0.091616556 0.00017424246 0.020049855
0.04523102 -0.027270462 0.30457327 -0.0077377213 0.010740726 0.0014441548 -0.0019377315 0.11201932
0.0002101334 -0.0014943414 -4.3979875e-05 -0.01474109 -0.22376607 0.0077721667 -0.012369143 -0.03156953
0.09487235 -0.3200427 -0.0034270266 0.004197652 -0.07095601 -0.14483277 -0.15011905 0.01045328
-0.016891534 -0.014155853 -0.0022491398 0.063261576 0.009486273 -0.011117087 0.002343429 -0.0041351337
0.0881751 0.0002273514 0.00030564476 0.0068262443 -0.013409162 0.12755261 -0.005989571 0.0068109897
-0.0024700277 0.00039721082 0.05340722 0.0005988597 -0.0009862168 -0.00020995384 0.18865672 -0.12340229
-0.028007112 0.0008119689 -0.0042180037 0.02055579 -0.009165629 0.01085976 0.00018706203 0.0034309337
-0.034236025 -0.081097625 0.0003166962 0.007246452 -0.004000859 -0.12660669 -0.25132644 0.0071934233
0.031145321 0.044096816 -0.0039352914 0.042033367 0.008899232 -0.03295798 -0.0021989988 -0.023216808
0.27865568 -0.00618089 0.009325995 -0.0017283491 -0.12216568 -0.12819956 -0.012599461 0.013613796
-0.009921116 -0.025157 0.3919967 -0.0041775513 0.006847161 -0.0011698673 -0.011829013 0.17134291
-0.0017858354 0.00386761 0.0022512847 -0.013505873 0.116425365 -0.005865581 0.006877048 0.0002524157
0.029475776 -0.028341148 -0.005572615 -0.0015886991 -0.0028128673 0.006227145 -0.061870575 0.0004280107
0.028542992 0.027537555 -0.000764186 -0.0075456705 -0.006176056 -0.0111648105 -0.006276859 -0.011080652
0.1628738 -0.002025014 0.0040989197 -0.003796936 -0.03400363 0.5162331 -0.007591306 0.011735854
0.0070202476 0.07269217 -0.07112324 0.011668542 0.061262403 0.05811066 -0.00452372 0.03147189
0.0011737491 -0.025590308 -0.0075893896 0.10815466 -0.08286235 -0.012869999 -0.0015508895 -0.020022778
-0.015870605 0.21250597 -0.0040940205 0.0051703556 -0.0009521739 0.041951638 -0.28605607 0.013548222
-0.064120844 -0.066036515 -0.009032398 0.0774454 -0.0045048282 0.0014942897 -0.001821241 -0.008741038
0.17800042 0.0024531744 0.001107206 0.0013133873 0.21712682 -0.09598525 -0.008679088 -0.019035779
-4.510537e-05 -0.08092949 -0.16702656 -0.053377926 -0.0050149434 -0.009688934 -0.1351634 -0.10980865
-0.0052349027 0.0030449687 -0.006427084 -0.0101678455 0.09848471 -0.0035940732 0.0049017677 0.002064222
0.023003187 -0.10615963 0.015004433 0.048367918 0.04905754 -0.0030098425 0.014461228 -0.002025767
-0.010442538 -0.0077491626

feature_weight.bias f4 [50]
00000000: b1ce 0b3e 9805 173f e0bd f33c 638c 233b
00000010: 4bad 023e aa17 9d3e a7d8 4d3c 466b 353d
00000020: 2689 173e ae4f 913d 123f 363e 0e7f 143e
00000030: 94b1 5d3e c9b2 b43e 10c8 013e 784a 083e
00000040: 7418 943e cd3d 463e 60fc 843d e1c9 ca3d
00000050: c6a0 163e 799a 6f3d 0401 383e 4db6 823c
00000060: 8365 973d f16f 123f 4985 823b ef7d a53e
00000070: 344d 763e b8a9 e83e ea2c 4b3e 447e 083e
00000080: de30 233d f3b6 1c3e 75df 133a 9cca 403e
00000090: 4568 183f 47b6 493e 99eb b039 afd5 da3d
000000a0: d31a 7c3e 6c4f 343e 88a0 ba3d eae5 4e3e
000000b0: 9a00 2d3e 8850 063e 4cc7 ec3d f741 e73d
000000c0: 085f 7d3e 9ea5 91ba
0.13653065 0.5899291 0.029753625 0.0024955503 0.12761419 0.30682117 0.012563861 0.044291757
0.14798412 0.07095276 0.17797497 0.14501593 0.21649772 0.35292652 0.12673974 0.13309658
0.28924906 0.19359513 0.06493449 0.099017866 0.14709768 0.058496926 0.17969137 0.015956068
0.07392409 0.5720206 0.003983174 0.32322642 0.24052888 0.45441985 0.19841352 0.13329417
0.039841525 0.15304165 0.00056409027 0.1882729 0.595341 0.1969844 0.0003374487 0.10685288
0.24619608 0.17608422 0.0911265 0.20204893 0.1689476 0.13116658 0.1156145 0.11291879
0.24743283 -0.001111198

hidden_features.0.weight f4 [50, 5]
00000000: e3f3 21bc fea7 f33d a9c6 17bb 85b5 293b
00000010: 00e8 dfba 090b 11bd 5bd2 023f 2ccb f9bb
00000020: 5610 343c bcd7 3e3b ee74 7d3c bb6d fe3c
00000030: 3955 61bb 9590 e93a 7b60 8a3a a7bc 97ba
00000040: d2f3 a03b 79d3 20ba f61d aabb 0a71 a1bb
00000050: 3504 05bc 5146 e23d abd8 1bbb abfd 1b3b
00000060: bcfc 8a3b 6944 96bc 2a95 883e 1061 75bb
00000070: ef60 a53b 9c86 00b9 33a8 89bd ec26 10bd
00000080: 5ba9 d1b9 4ef8 423c 5853 9dba 2ccd 93ba
00000090: a616 2d3d fdb9 a8b8 6d58 db3a 1222 4ebb
000000a0: 5fa5 3fbc fc92 023e 1436 5ebb 0223 9c3b
000000b0: 4cda 24bb 3b59 bf3d 3082 3bbd 61d2 98bb
000000c0: a258 f3bb ca0b 7ebb 67b8 debb 726c 213e
000000d0: fd26 373a de15 c83a 0ef7 e63b 2be5 0cbc
000000e0: c37e 013e 2b5f e3ba 0d47 413b 4264 103b
000000f0: 31d3 1e3e 76a1 bbbd dbb4 3639 983f a43c
00000100: 2944 393d 4e66 dfbc 07f1 9b3e b68c fdbb
00000110: dff9 2f3c cb49 bd3a 7bfb fdba 636a e53d
00000120: 4157 5c39 c7dd c3ba 0877 38b8 9d84 71bc
00000130: ef22 65be a9ad fe3b f2a7 4abc 0d4f 01bd
00000140: 6f4c c23d a3dc a3be f797 60bb 758c 893b
00000150: 6251 91bd 0b4f 14be cfb8 19be 3c44 2b3c
00000160: 1d60 8abc f3ed 67bc 4e66 13bb 498f 813d
00000170: 506c 1b3c 7124 36bc 3794 193b 0480 87bb
00000180: 2695 b43d 2d65 6e39 f23e a039 b0ae df3b
00000190: 1ab2 5bbc 279d 023e 2a44 c4bb b92e df3b
000001a0: 30e0 21bb bc40 d039 87c1 5a3d cbfc 1c3a
000001b0: f243 81ba 0e27 5cb9 3a2f 413e 57ba fcbd
000001c0: 2c6f e5bc 4fda 543a 2e37 8abb 9e64 a83c
000001d0: 6f2b 16bc 23ed 313c 1526 4439 84d9 603b
000001e0: 133b 0cbd 8316 a6bd 3f0a a639 a573 ed3b
000001f0: a319 83bb 2fa5 01be dcad 80be cfb6 eb3b
00000200: 7924 ff3c dd9e 343d 9ef3 80bb 2e2b 2c3d
00000210: 16ce 113c f2fe 06bd 141d 10bb 2d31 bebc
00000220: f5ab 8e3e 1089 cabb 0fcc 183c c689 e2ba
00000230: 0032 fabd bf46 03be f86d 4ebc 660c 5f3c
00000240: 2d8c 22bc 0e16 cebc cbb3 c83e d7e3 88bb
00000250: 265e e03b 3c56 99ba 7ace 41bc 8474 2f3e
00000260: b112 eaba ba77 7d3b 4a8a 133b bd47 5dbc
00000270: 6c70 ee3d 0f34 c0bb dc58 e13b a956 8439
00000280: 2f77 f13c b22b e8bc 7c9a b6bb e53b d0ba
00000290: 1558 38bb 140d cc3b 006c 7dbd a066 e039
000002a0: fed2 e93c 7096 e13c a853 48ba ac41 f7bb
000002b0: 8360 cabb 9cec 36bc 1cae cdbb 9f8b 35bc
000002c0: 64c8 263e 19b6 04bb 3b50 863b 04d6 78bb
000002d0: 6447 0bbd da27 043f 7ec0 f8bb bd47 403c
000002e0: 1b0a e63b a2df 943d 10a9 91bd 6a2d 3f3c
000002f0: 49ee 7a3d 7205 6e3d b73b 94bb abe8 003d
00000300: 7cd8 993a c4a2 d1bc 6ab0 f8bb 3180 dd3d
00000310: bcb3 a9bd b0dc 52bc 3747 cbba cf06 a4bc
00000320: 1203 82bc 2a9b 593e 2227 86bb 166c a93b
00000330: 4f9b 79ba 7bd5 2b3d f175 92be 5df9 5d3c
00000340: ca51 83bd 273e 87bd a0fc 13bc b29b 9e3d
00000350: 3d9d 93bb 0bdc c33a b5b6 eeba 9236 0fbc
00000360: be45 363e 70c5 203b ab1f 913a f725 ac3a
00000370: 7e56 5e3e ea93 c4bd bc32 0ebc ecf0 9bbc
00000380: 862f 3db8 5cbe a5bd 0309 2bbe d0a2 5abd
00000390: 6554 a4bb 56be 1ebc 4668 0abe 5ce3 e0bd
000003a0: 8c89 abbb 198e 473b 4a9a d2bb 0997 26bc
000003b0: 5ab2 c93d 8b8a 6bbb 029f a03b e647 073b
000003c0: 2e71 bc3c 386a d9bd 27d5 753c 701d 463d
000003d0: 8ff0 483d c740 45bb c9ee 6c3c bbc2 04bb
000003e0: 2e17 2bbc b0ec fdbb
-0.009884807 0.11897276 -0.0023159182 0.0025895548 -0.0017082691 -0.035410915 0.51102227 -0.007623097
0.010990223 0.0029120287 0.015469773 0.031058183 -0.0034383072 0.0017819578 0.0010557318 -0.0011576609
0.004911878 -0.00061350275 -0.00519156 -0.0049268054 -0.008118679 0.11048568 -0.0023780267 0.002380232
0.004241554 -0.018343167 0.26676303 -0.0037441887 0.005046956 -0.00012257177 -0.067215346 -0.03519337
-0.00039989766 0.011900021 -0.0012002988 -0.0011276356 0.042257927 -8.045507e-05 0.0016734727 -0.0031453413
-0.011697142 0.12751383 -0.0033906745 0.0047649154 -0.002515453 0.09343191 -0.045778453 -0.004663751
-0.0074263373 -0.003876435 -0.006796885 0.15764025 0.00069867057 0.0015265306 0.007048494 -0.00859956
0.12646012 -0.0017347088 0.0029491812 0.0022032415 0.1551025 -0.091616556 0.00017424246 0.020049855
0.04523102 -0.027270462 0.30457327 -0.0077377213 0.010740726 0.0014441548 -0.0019377315 0.11201932
0.0002101334 -0.0014943414 -4.3979875e-05 -0.01474109 -0.22376607 0.0077721667 -0.012369143 -0.03156953
0.09487235 -0.3200427 -0.0034270266 0.004197652 -0.07095601 -0.14483277 -0.15011905 0.01045328
-0.016891534 -0.014155853 -0.0022491398 0.063261576 0.009486273 -0.011117087 0.002343429 -0.0041351337
0.0881751 0.0002273514 0.00030564476 0.0068262443 -0.013409162 0.12755261 -0.005989571 0.0068109897
-0.0024700277 0.00039721082 0.05340722 0.0005988597 -0.0009862168 -0.00020995384 0.18865672 -0.12340229
-0.028007112 0.0008119689 -0.0042180037 0.02055579 -0.009165629 0.01085976 0.00018706203 0.0034309337
-0.034236025 -0.081097625 0.0003166962 0.007246452 -0.004000859 -0.12660669 -0.25132644 0.0071934233
0.031145321 0.044096816 -0.0039352914 0.042033367 0.008899232 -0.03295798 -0.0021989988 -0.023216808
0.27865568 -0.00618089 0.009325995 -0.0017283491 -0.12216568 -0.12819956 -0.012599461 0.013613796
-0.009921116 -0.025157 0.3919967 -0.0041775513 0.006847161 -0.0011698673 -0.011829013 0.17134291
-0.0017858354 0.00386761 0.0022512847 -0.013505873 0.116425365 -0.005865581 0.006877048 0.0002524157
0.029475776 -0.028341148 -0.005572615 -0.0015886991 -0.0028128673 0.006227145 -0.061870575 0.0004280107
0.028542992 0.027537555 -0.000764186 -0.0075456705 -0.006176056 -0.0111648105 -0.006276859 -0.011080652
0.1628738 -0.002025014 0.0040989197 -0.003796936 -0.03400363 0.5162331 -0.007591306 0.011735854
0.0070202476 0.07269217 -0.07112324 0.011668542 0.061262403 0.05811066 -0.00452372 0.03147189
0.0011737491 -0.025590308 -0.0075893896 0.10815466 -0.08286235 -0.012869999 -0.0015508895 -0.020022778
-0.015870605 0.21250597 -0.0040940205 0.0051703556 -0.0009521739 0.041951638 -0.28605607 0.013548222
-0.064120844 -0.066036515 -0.009032398 0.0774454 -0.0045048282 0.0014942897 -0.001821241 -0.008741038
0.17800042 0.0024531744 0.001107206 0.0013133873 0.21712682 -0.09598525 -0.008679088 -0.019035779
-4.510537e-05 -0.08092949 -0.16702656 -0.053377926 -0.0050149434 -0.009688934 -0.1351634 -0.10980865
-0.0052349027 0.0030449687 -0.006427084 -0.0101678455 0.09848471 -0.0035940732 0.0049017677 0.002064222
0.023003187 -0.10615963 0.015004433 0.048367918 0.04905754 -0.0030098425 0.014461228 -0.002025767
-0.010442538 -0.0077491626

hidden_features.0.bias f4 [50]
00000000: b1ce 0b3e 9805 173f e0bd f33c 638c 233b
00000010: 4bad 023e aa17 9d3e a7d8 4d3c 466b 353d
00000020: 2689 173e ae4f 913d 123f 363e 0e7f 143e
00000030: 94b1 5d3e c9b2 b43e 10c8 013e 784a 083e
00000040: 7418 943e cd3d 463e 60fc 843d e1c9 ca3d
00000050: c6a0 163e 799a 6f3d 0401 383e 4db6 823c
00000060: 8365 973d f16f 123f 4985 823b ef7d a53e
00000070: 344d 763e b8a9 e83e ea2c 4b3e 447e 083e
00000080: de30 233d f3b6 1c3e 75df 133a 9cca 403e
00000090: 4568 183f 47b6 493e 99eb b039 afd5 da3d
000000a0: d31a 7c3e 6c4f 343e 88a0 ba3d eae5 4e3e
000000b0: 9a00 2d3e 8850 063e 4cc7 ec3d f741 e73d
000000c0: 085f 7d3e 9ea5 91ba
0.13653065 0.5899291 0.029753625 0.0024955503 0.12761419 0.30682117 0.012563861 0.044291757
0.14798412 0.07095276 0.17797497 0.14501593 0.21649772 0.35292652 0.12673974 0.13309658
0.28924906 0.19359513 0.06493449 0.099017866 0.14709768 0.058496926 0.17969137 0.015956068
0.07392409 0.5720206 0.003983174 0.32322642 0.24052888 0.45441985 0.19841352 0.13329417
0.039841525 0.15304165 0.00056409027 0.1882729 0.595341 0.1969844 0.0003374487 0.10685288
0.24619608 0.17608422 0.0911265 0.20204893 0.1689476 0.13116658 0.1156145 0.11291879
0.24743283 -0.001111198

hidden_features.2.weight f4 [50, 50]
00000000: 81d3 683b dc99 6fb9 924b 87b9 0af0 dc3a
00000010: 7172 2d3b 22bd b8bb 5e64 11bb 1205 2d39
00000020: 0e54 263b 7161 613b 945c f5ba 5524 cbb8
00000030: 0c49 36bb c338 a03b 666d 9ebb f4a3 123b
00000040: a6b1 c03a 2390 1bbb 5c21 003b 7fd6 19bc
00000050: 18e3 03bb 7294 c6ba 423c 95bb fda8 8b3b
00000060: 1d14 8eb5 348e b1ba 8623 20bb 4c1a 853b
00000070: 033a f1ba 35c8 bd3a 1b31 97bb 42dd 85bb
00000080: 754e e9bb 84d0 8c3a 3216 4d3a cf6f a33b
00000090: 724f 26bb 9f48 91bb d81f 83ba 729c f2b9
000000a0: 6323 53ba c282 673b 3218 31bb 1d39 183a
000000b0: 9f06 3a3b 8de6 5dba 54c1 bdbb 90b9 9b3b
000000c0: bfc4 4f3a 2d72 f23b ab69 a03c fa5f be3d
000000d0: cf80 a13b 3043 2a3a 0d5c bd3c c5d7 313d
000000e0: 1117 e0bb b28a 203b 3fcf bf3c 1d04 87bb
000000f0: 6ed2 c13c bcd6 b53c 7bb6 95bb fd51 643d
00000100: 7c1b bb3c 95cc deba 81f7 9abc 466f 5bbc
00000110: 3be9 2d3c 118b 403c ea3e 943c 950c 0b3c
00000120: b197 43bc 88e1 94bb c1c7 3abb 2a2c 18bc
00000130: 67b1 093c ec15 523d 96c4 03bc 7fe1 993d
00000140: b5d7 113d 19cd d93c bf2d 20bb 8a05 c3bb
00000150: 9372 7bb9 c4cc 0c3d 15e2 d23d 05fc 87bb
00000160: eb17 0e3c 6acf c1bb 1266 283d d75f 34bc
00000170: c2fe 8a3c e70d 003d f328 dcbb eaed d6bb
00000180: d3a3 7dbc 8639 233c 118a abbb 4e9a 013c
00000190: 80b5 3a3d f53f 463e 13de 683c 6477 4e3b
000001a0: e7fc 183d 4364 c43d 383a 3bbc 3ad5 523c
000001b0: 38c9 293d 008b 75bc 650f 723d d01e 373d
000001c0: 6479 f4bb f4a8 e93d 8a3b 273d 62d2 4abc
000001d0: d43f a0bc b689 a0bc 1803 a73c 8843 dd3c
000001e0: c956 563d f7e7 533c eb57 b4bc 2726 733a
000001f0: 0fe7 1abc f7f6 afbc 938f 8c3c 8a0a ca3d
00000200: 654e adbc dcd6 1b3e 8672 6c3d e7ee 1e3d
00000210: ca05 973a 55ec 98bb a1db e13a 6c94 6c3d
00000220: 37af 433e a610 91bb e8c2 ef3b 030d 93bb
00000230: c7fc 9f3d bdca 93bc 73f1 f03c f8fd 813d
00000240: 0c2a b8bc b18c 7dbc 8cbf bcbc 845e f63c
00000250: 663e 12bc ade8 aebb 32e9 863d 44ff 8e3e
00000260: d37b 963c faa6 683b 0912 793d cd96 193e
00000270: 6d81 c7bc 767d b63c 31bb 8c3d 8c75 87bc
00000280: 23c1 ad3d 51cf 8d3d 57ec fabb 0e58 293e
00000290: c0d3 6b3d 11d8 86bc c7c8 b7bc 38af 16bd
000002a0: 1718 043d fb28 443d 28a9 903d 61a2 ed3c
000002b0: fedf 01bd 1580 c6bb 7919 3cbc 02be 0cbd
000002c0: 269b bb3c 5c2e 1e3e c65a bebc 3881 593e
000002d0: 199c c63d 54d6 7c3d ec8d 0abc c1f7 60bc
000002e0: 58f5 903a 0de9 c83d 0a17 8f3e 20e1 09bc
000002f0: f068 8e3c d89f 94bc 463b f33d e324 d2bc
00000300: d105 333d 16d3 ca3d d555 f1bc bc21 81bc
00000310: 7cc6 1cbd f816 753d 8d9d 89bc 9bf8 c33b
00000320: f262 85ba f1e2 58bb a38b 453b ecbd 0ebb
00000330: 40ce 66bb 9f9d 1c3b 4d37 47bb 87eb e43a
00000340: fb22 04bb 1eba 8c3a 2410 34bb 662f 1e3b
00000350: 3f73 70bb 8cc0 5d3b a630 d739 3451 153c
00000360: eb99 283b ef98 b4bb c4a8 053a 9d78 a23a
00000370: f792 0e3c a7ec 0ebb 1301 ca3b b1bd 173c
00000380: ff66 76bb 4af2 f138 db91 0bbb 577b d53b
00000390: eab6 ddbb d2ca 31bb a713 74bb b652 6cba
000003a0: 032e 9bbb bf62 95bb a904 b8bb c22f df3a
000003b0: 4010 9dbb e687 08bb b663 8f3b a815 c4b9
000003c0: 3f56 1b3b b995 b1bb 75f2 4139 d609 c03a
000003d0: 96ba 6cba 3ad5 71bb 7926 a3b9 df93 e8ba
000003e0: 44ed aebb bd16 b53a 7c0b c5bb 7135 0eba
000003f0: 4142 a63b 837c 01bb fa97 55bb 01f6 3abb
0.0035526457 -0.00022850133 -0.0002580551 0.0016856205 0.0026465917 -0.0056377808 -0.0022185068 0.00016500455
0.002537969 0.0034390355 -0.0018719607 -9.686562e-05 -0.0027814535 0.004889579 -0.0048348187 0.0022375556
0.0014701381 -0.0023737035 0.0019551134 -0.009389519 -0.0020124372 -0.0015150441 -0.0045543024 0.0042620883
-1.0585678e-06 -0.0013546408 -0.0024435236 0.0040619727 -0.001840413 0.0014479222 -0.004614008 -0.004085214
-0.0071199485 0.0010743295 0.0007823437 0.004987694 -0.0025376943 -0.004433706 -0.0010003997 -0.00046274398
-0.0008054284 0.003532574 -0.0027022478 0.00058068504 0.0028385294 -0.00084648357 -0.005790869 0.0047523454
0.0007925741 0.0073988647 0.019581636 0.0929565 0.0049286853 0.0006494997 0.023115182 0.043418664
-0.006838687 0.0024496731 0.023414252 -0.0041203634 0.023659911 0.02219712 -0.0045688725 0.055742253
0.022840254 -0.0016998226 -0.018916847 -0.013393229 0.0106146885 0.011751906 0.018096406 0.0084868865
-0.0119380215 -0.004543487 -0.002850041 -0.009287873 0.008404112 0.051290438 -0.008042475 0.07513713
0.035606105 0.026587056 -0.002444133 -0.005951588 -0.00023979908 0.034374967 0.10297028 -0.004149916
0.008672695 -0.0059146183 0.041112967 -0.011009178 0.016967181 0.03126326 -0.0067187487 -0.0065591233
-0.015480953 0.009962445 -0.0052349647 0.007910324 0.04558325 0.19360335 0.014213103 0.0031504268
0.03735056 0.09589436 -0.011427455 0.01286822 0.041451663 -0.014986753 0.059096713 0.04470712
-0.00746076 0.114091784 0.040828265 -0.012379261 -0.019561686 -0.019596916 0.020387217 0.02700974
0.05232886 0.012933723 -0.022014579 0.00092753995 -0.009454503 -0.021480067 0.017158305 0.098652914
-0.021155545 0.15218681 0.057726406 0.038802054 0.0011522111 -0.004666845 0.0017231592 0.057758734
0.19109808 -0.0044270335 0.007316936 -0.004487635 0.07811885 -0.01804101 0.029412007 0.06347269
-0.022480987 -0.015475438 -0.023040555 0.030074365 -0.00892601 -0.0053377957 0.06587447 0.27929127
0.01836959 0.0035499916 0.060808215 0.14998932 -0.024353707 0.022276621 0.068716414 -0.016535543
0.084841035 0.06924308 -0.0076575684 0.16537496 0.057574987 -0.01646045 -0.022434605 -0.036788195
0.032249536 0.047890645 0.07063514 0.029008092 -0.031707756 -0.006057749 -0.0114806825 -0.034360893
0.022901129 0.15447372 -0.023236644 0.212407 0.09697742 0.061727837 -0.008456688 -0.013730944
0.0011059446 0.09810076 0.27947265 -0.00841549 0.017384022 -0.018142626 0.1187654 -0.025652355
0.04370672 0.09903543 -0.029459873 -0.015763156 -0.038275227 0.059836358 -0.016798759 0.005980564
-0.0010176583 -0.0033094252 0.0030143044 -0.0021780683 -0.003521815 0.002389766 -0.0030397952 0.0017465212
-0.0020162452 0.001073662 -0.002747544 0.0024137138 -0.0036689786 0.003383669 0.00041044242 0.009113599
0.0025726508 -0.005511395 0.00050986954 0.0012395565 0.008702031 -0.0021808536 0.006164679 0.009261535
-0.0037598012 0.000115369054 -0.0021296653 0.0065149474 -0.00676619 -0.0027128947 -0.003724316 -0.00090150104
-0.0047357096 -0.0045588906 -0.00561579 0.0017027783 -0.004793197 -0.0020832955 0.0043759 -0.00037400168
0.002370253 -0.0054194597 0.00018496237 0.0014651369 -0.0009030489 -0.0036900775 -0.00031118447 -0.0017744264
-0.005338343 0.0013815981 -0.006013332 -0.00054248335 0.005073816 -0.0019758053 -0.0032591806 -0.0028527977

hidden_features.2.bias f4 [50]
00000000: 8b18 83b9 6a3f 853d 16c3 e93d c375 2a3e
00000010: 9626 46ba 1951 4aba e75f 653c ee85 af3c
00000020: 1e11 0cbb 7e3f 053d eae5 f6b9 cd6b 8a3c
00000030: c93a 413d b3aa ebba 1ae6 6e3e f766 c33d
00000040: ac62 cb3d 8966 2cb9 22ff b63c 46d7 153d
00000050: 0cee fc3c 4847 873e 04ac da38 0581 3b3e
00000060: bbfc 863b abb4 d6b9 39dc 353d 7fb4 9c3d
00000070: 4eb2 973e 8d90 623d f907 3db6 c426 b4b9
00000080: 51b3 353e 48d9 873d c1a3 8f3e e12a 833b
00000090: fcae f13d c60e af3e 1883 f43c 9ed1 753e
000000a0: 2579 763a 3251 293c f7bb 7f3e 3076 8ab8
000000b0: 7d96 01bb 8df9 90ba 05a5 d33e ab37 4fbb
000000c0: fcf8 9b3d 5870 003f
-0.00025004553 0.06506236 0.11414163 0.16646485 -0.00075588503 -0.0007717773 0.013999916 0.021426167
-0.0021372507 0.032531254 -0.00047092076 0.016897107 0.047175203 -0.001797995 0.23329964 0.09541123
0.099309295 -0.00016441396 0.022338454 0.036582254 0.030875228 0.2642157 0.000104270905 0.18310936
0.0041194833 -0.0004095187 0.044399474 0.076516144 0.29628223 0.055313636 -2.8167835e-06 -0.00034361158
0.17744185 0.0663324 0.28054622 0.0040029143 0.11800954 0.3419096 0.029847667 0.24005744
0.0009402207 0.0103343 0.24974047 -6.602367e-05 -0.0019773536 -0.00110607 0.41336837 -0.0031618874
0.076158494 0.5017142

density_estimator_head.weight f4 [50, 11]
00000000: 7ce1 65bb 4feb f4bb 9dc0 a53b 61fd 52bc
00000010: 3027 0dbc 48e5 953c d2fb 293c 5f77 0bbc
00000020: 4672 913c 0332 693b fc96 c13b efb1 4b3b
00000030: a412 163c 67d7 db3a 900b 80bb adf2 17bc
00000040: 4753 73bc afbd 3f3c a465 b0bb 9923 6f3b
00000050: c91c a1bb e410 3dbc 775d 14bb c2fe 1d3c
00000060: eefa 393a 52e7 cbbc 68fa 81bb 897a 28bc
00000070: a07c 783b 67d2 1d3c 79f4 edb9 f514 363c
00000080: ff47 153c 626d 323c 5d97 163c b9fe 2dbb
00000090: ae27 28bb 84e5 39bc 4248 0a3c fb22 8cbb
000000a0: 6a52 f0bb e752 ff3b 3bd5 77bb 875c aa3a
000000b0: db13 a93b 217b bbbb 39fe 653b f90c f7ba
000000c0: 33d0 2738 1eac ac3c ae2a 173c cef8 4b3c
000000d0: 572a 9abc 796d 763b 8952 e7ba edd6 b9bb
000000e0: 7ae4 17bb 9cfa 0b3b 24ca 88bc 74c6 793b
000000f0: 7bab 0c3a 8935 5bbc 0bbb 9bbc cabd ddbb
00000100: 9902 f63b 20e8 afbb a1d9 afbc 350f 09bb
00000110: 6c91 55bc 6adc b9bb 2480 83bc 8155 85b8
00000120: bb25 3e3c bb81 223a 1dbf 883c d9f4 483c
00000130: eed6 efbb 74ee 173c 14d6 6aba 936f e63b
00000140: 3831 50bb 72fa 4d3b 3938 773c 0edb 453a
00000150: 0a42 483c 76c1 8738 2887 21bc 7809 5bbc
00000160: 2422 b2bc 33db de3b 945d 0dbc d40d 013b
00000170: 01bc cb39 6b1e 9f3c e1bf 5b3c 309e d5bb
00000180: 45c1 613c d19f 03bc 8d9c cc3b e757 223b
00000190: 0eda b23b fbaa 703a d90b 24bc 1df6 833b
000001a0: 278e 2f3c 4f16 82bb 275c b63b 3774 1ebc
000001b0: d5ee bf3b 6dca 923c 0bfb d1bb 8e90 d13b
000001c0: 9458 63bc 8714 2ebc aa39 5b3a a43d 8ebb
000001d0: 2586 47bb 066a 9cbb 1799 8f3b fc12 253b
000001e0: 1766 aa3b 7d8f dbbb ca0b d33a eb24 233c
000001f0: 1b60 d3bb 2798 783a 0e5b e83b 22a7 72bb
00000200: 2b02 77bc 3dd1 6fbc 4ab4 363b 7bc4 423b
00000210: 0f95 0f3b 1eae 213b 4448 b0bc 1859 0abb
00000220: 809a ecbb 84e2 37bb c71a 2e3c 0a13 8a3c
00000230: 7045 11bb a7fc df3b 615b 4b3c ac4e 92bb
00000240: 893f ae3c 287e 9fbb 9d7c d83b 1e74 23bc
00000250: 5c10 233c 0fa0 e0bb 6004 453b a644 e2bb
00000260: b632 09bc b83a 8e38 5670 a5bb 6fc0 9b3b
00000270: 0b68 d8bb 4bf8 1eba 6020 cebb 367a 1b3c
00000280: 673b a63b 196f dab9 6ff0 8bbb 7488 5fbc
00000290: 3066 913a 5407 a9bc 47ba f83b bce1 a73b
000002a0: 41e0 6bbc bb4a d839 1758 8dbc c26c 193b
000002b0: 361d 0e3b 5147 12bc 0cdc 11bb d72c 1bbc
000002c0: b89f e6ba 0088 f1b9 fe1f af3b 1ead 203b
000002d0: f837 37bc 6380 ecb9 817b 983c 41a8 48bc
000002e0: 66d5 a03b 1b64 333c 7014 093d 067b 85bb
000002f0: fbe1 2d3c 6567 f23b 1566 493a 7ab2 193b
00000300: d335 2fbc 6228 c33b 18a0 dfbb ed50 c03b
00000310: abbe 453c 32ac 42bc ea2b 7abc 7819 70bc
00000320: 525e 693b d813 9e3c 1477 b9bb c4ca 443c
00000330: db45 ed3a 6e36 793c c672 903b 89f6 163c
00000340: be93 a0bb 80af b33a e0db e539 324f 2c3c
00000350: 056c 37bc f70d 86bb 46be 2abc 9603 0abb
00000360: 55e8 31bb b740 9d3b d9e2 233b c0bf aa39
00000370: 147d 0bbc c62e 30bc 3def 393c 888a 9d3b
00000380: a606 fd3a 810d ce3c 70e6 da3b cdd1 9fbc
00000390: 62c4 97bb 38b1 d13a 974c 2e3b fcd5 dd3b
000003a0: 82fa a23c fb87 2e3c cfea 4b3b 9684 9dbb
000003b0: e907 a4bb 13cd 00ba dd27 4b3c f22f a4bc
000003c0: ee43 19bc e9b7 e8ba 3351 d03b 05e5 ee3b
000003d0: a955 70bc 20e4 843b 2fc0 d93b 34cc 83bc
000003e0: e194 66bc d819 303c 0fd6 62ba 728f d2bb
000003f0: 4004 acba 7d58 af3c e648 67bc a527 ccbb
-0.0035077026 -0.00747434 0.0050583617 -0.012877793 -0.0086153 0.018297806 0.01037498 -0.008512347
0.017754685 0.0035582788 0.0059078913 0.0031081398 0.009159718 0.0016772569 -0.0039076284 -0.009274167
-0.014851398 0.011702939 -0.0053832103 0.0036489724 -0.0049167615 -0.011539672 -0.0022638717 0.0096432585
0.00070945814 -0.024890576 -0.0039666183 -0.010283121 0.003791608 0.009632683 -0.0004538631 0.011113395
0.0091114035 0.010890337 0.009191361 -0.0026549532 -0.0025658417 -0.011346225 0.008440079 -0.004276631
-0.0073340433 0.007791865 -0.0037816304 0.0012997546 0.0051598377 -0.005721465 0.0035094155 -0.0018848471
4.0009803e-05 0.021078166 0.009226484 0.012449456 -0.018819017 0.0037601872 -0.0017648499 -0.005671373
-0.0023176954 0.0021359092 -0.01669795 0.0038112672 0.0005366129 -0.013379463 -0.019010087 -0.0067670094
0.007507634 -0.0053682476 -0.021466078 -0.0020913605 -0.01303516 -0.0056720274 -0.016052313 -6.3578605e-05
0.011605675 0.0006199141 0.016692692 0.0122654075 -0.007319323 0.00927316 -0.0008958292 0.0070323437
-0.0031767618 0.0031429795 0.015089088 0.00075475953 0.012222776 6.4733365e-05 -0.009858884 -0.013368957
-0.021744795 0.006801033 -0.008628268 0.001969208 0.0003885925 0.019423684 0.013412447 -0.0065191016
0.013778989 -0.008033709 0.0062442482 0.0024771632 0.005458123 0.00091807515 -0.01001259 0.0040271417
0.010715044 -0.0039699445 0.0055651846 -0.009671262 0.0058573284 0.01791879 -0.0064081005 0.006395406
-0.013876099 -0.010625011 0.00083627796 -0.004340844 -0.0030444947 -0.004773381 0.0043822634 0.0025188318
0.0052001583 -0.0067004547 0.0016101536 0.009957532 -0.0064506656 0.00094831217 0.0070909327 -0.0037025888
-0.0150762005 -0.014637289 0.0027878457 0.0029719162 0.0021908914 0.0024670432 -0.021518834 -0.0021110233
-0.0072205663 -0.0028058598 0.010626501 0.016854782 -0.0022166632 0.0068355384 0.012411923 -0.004464945
0.02127053 -0.004867334 0.006606652 -0.009976415 0.009952631 -0.006855018 0.0030062422 -0.006905156
-0.008373907 6.782025e-05 -0.005048792 0.0047531645 -0.0066041998 -0.000606422 -0.0062904805 0.009489587
0.0050729993 -0.00041662974 -0.0042706053 -0.013643373 0.0011093076 -0.020633377 0.0075905654 0.005123345
-0.014396728 0.0004125441 -0.017253919 0.0023410772 0.0021684892 -0.008928136 -0.0022256402 -0.00947114
-0.0017595207 -0.0004606843 0.00534439 0.0024517248 -0.011182778 -0.00045109083 0.018613579 -0.012247146
0.0049082516 0.01094916 0.033466756 -0.0040735034 0.01061296 0.0073975795 0.0007682753 0.0023452328
-0.010693985 0.0059557417 -0.0068245046 0.005869022 0.012069385 -0.011881875 -0.015269259 -0.01465451
0.0035609198 0.019296572 -0.005659947 0.012011234 0.0018102484 0.015210731 0.0044082133 0.009214052
-0.0049004247 0.0013708919 0.00043842103 0.0105169285 -0.011195187 -0.00409102 -0.010421341 -0.0021059266
-0.0027146537 0.0047989744 0.0025007038 0.00032567792 -0.008513708 -0.010753339 0.011348543 0.004807774
0.001930435 0.025152924 0.0066803023 -0.01950922 -0.004631565 0.001599825 0.0026595944 0.0067698937
0.019894842 0.010652537 0.0031115299 -0.0048070652 -0.005005826 -0.0004913371 0.012399641 -0.020042393
-0.009354575 -0.0017755005 0.006357336 0.007290485 -0.0146688605 0.004055515 0.0066452245 -0.016088583
-0.014073581 0.010748349 -0.0008653113 -0.0064257914 -0.0013123825 0.0214045 -0.014116501 -0.006230312

density_estimator_head.bias f4 [11]
00000000: 0000 0000 0000 0000 0000 0000 0000 0000
00000010: 0000 0000 0000 0000 0000 0000 0000 0000
00000020: 0000 0000 0000 0000 0000 0000
0.0 0.0 0.0 0.0 0.0 0.0 0.0 0.0
0.0 0.0 0.0

Q.Q1.0.weight f4 [50, 50]
00000000: 05b8 a3bb 2b18 24bb ad27 d5bb 153d 52bb
00000010: 5ced 0f3a 7747 45bb ac7c afba 4e3a d63a
00000020: 1400 0d3a f056 76bb a425 053b b7d5 a2bb
00000030: ce29 17bb 7b5e 4eba a8a1 f03b c05f 51bb
00000040: ae2f c5b9 866e 3db9 3d3c 8eb9 e613 aaba
00000050: 8828 07b9 7176 2f3b 4399 db3b c61f 633b
00000060: 8336 023b bb84 9b3b 4a00 e0b9 d914 2eba
00000070: 1d12 af3b bf99 a43b 4713 fb3a 6aae 14bb
00000080: 3c45 c53a f875 553a 1680 49bb 4a92 e83a
00000090: b6c0 673a 1093 a9b9 0d4c aabb 2633 a23a
000000a0: 668d 263b 8ff3 663a 9eb5 bdba f88d 46bb
000000b0: b816 3a3b a047 4738 ac70 903b da40 843b
000000c0: acce 5c3b b74d a139 a682 6bbb 38b4 2b3a
000000d0: b240 8e3b f25d 923c 88ba 383b 7975 773a
000000e0: 1b0a a83b ba24 71bc a1d4 28bc 2f2a e4bb
000000f0: b886 e53a 373a 3f3c 6cf6 983b b6b9 193a
00000100: 8087 d4bb c3b8 843a c3f7 0dbb 74d7 34bc
00000110: b62d 7bbb a307 ccbb 84b4 61bc b5ce a33b
00000120: 67b8 03bc 6a48 39bc dc85 57bc 7d16 10bb
00000130: d011 e23b b3d5 82ba 47a1 413a 08e8 fc3b
00000140: 9e45 05ba 905e 2ebb a960 3ebb 3afc 1ebc
00000150: d0af 15bc 5f51 153b 1345 07bb 7eba d13b
00000160: 6107 4cbc e52f e4bb b836 bdba 2ad2 f43b
00000170: 29ad d2ba 16e6 80bb 441d 373d 05fb 00bc
00000180: fdd3 93bb ff58 92bb b6cc 80bb 219c 423c
00000190: ca6d 88bc b9b6 4a3b a350 4ebb cabf 363d
000001a0: 1531 fd3a b6a3 3dba c4c9 8bb9 d904 0cbd
000001b0: 3134 0fbd 2254 85bc e68a 233b ec44 a63c
000001c0: f7d8 8c3a d264 99bb 9e1f 8fbc bdf6 82bb
000001d0: 2231 9d3a 348f d4bc b8ea cbba a58b 23bc
000001e0: 45b5 a8bc a8a8 50bb d639 9fbc 8619 cbbc
000001f0: fb48 e7bc b77c 17bc 2fc5 043c 5108 99bb
00000200: f1e5 8c3b f94e 883c 93e0 1f3b e2c8 c2bb
00000210: 7a36 6f3b 0a5b 8dbc 25ea 8d3b 6601 86b9
00000220: c2df fa3a 1438 c23b 7529 d3bc 7325 35bc
00000230: 3400 38bb aea0 623b 3455 b6ba 4108 03bc
00000240: 5835 b13d d9af 42bc 14e3 aaba 7c46 0e3b
00000250: b5e6 123b 006c 813c 62dd 84bc cab1 9d3a
00000260: 6eb0 ebba 9fc4 813d 0089 6bbb 6379 993b
00000270: 0944 70bb 70fd 2ebd 68a9 43bd 7129 01bd
00000280: 5c3c 943a ca1b e53c 0dd3 a539 1c00 993a
00000290: d6c7 9fbc a2fa 7fba 367e 993b 9263 eabc
000002a0: 1420 2ebb a20c f1bc d191 03bd 2e03 94ba
000002b0: ac54 04bd a8d5 09bd e577 1abd 0441 5dbc
000002c0: 6a9e b83c afdd 9e3b cea3 183b c212 733c
000002d0: aef4 c2ba cd8e 85bb 73d3 de3b bda2 01bd
000002e0: 2aef 5c3b ccbb 273b 56d3 10bb d6a4 c6b9
000002f0: c4dd 17bd 2455 18bc 7870 863a 7a14 2fba
00000300: b809 fdb9 d2d5 76bc c73f 093e 469d b1bc
00000310: cd3e 61b8 0653 b0ba 0c78 4638 55d3 013d
00000320: 4d3f e739 117d 6d3b 9ae3 f1bb b5a1 8039
00000330: a7a1 663b de25 70bb f477 07ba 9161 d93b
00000340: 9094 5ebb 3bb8 ef3b d961 7b3a be84 d33a
00000350: b8c4 c43a 9dfa 143a a532 06bb 3ebb 683b
00000360: 56dd 173b b95d 0fba fd84 2ab9 d544 52bb
00000370: 20f3 983a e210 be39 4a14 69bb 57d9 b2bb
00000380: 4a50 0eba bac5 4cbb bdb9 d63a 7c10 483b
00000390: f8e6 6bbb 333c b1bb a0dc 803b 8302 873b
000003a0: 701b 2e3b b611 2fb9 08c9 b0ba 38c4 3539
000003b0: acf6 a4bb 140b af3a 1e48 a1ba f7d5 dabb
000003c0: 4971 e9b9 296a 5fbb a4cd 6dbb aff2 283a
000003d0: 3efc 0fba 6da9 99bb 881f 473b a76b 0a3b
000003e0: 1c72 09bb 4bdc a0bb c565 0aba 981d 783a
000003f0: 11a2 b939 19ab eb3a e4fb 4cbb 3112 29b9
-0.004996302 -0.002503882 -0.006504974 -0.0032079865 0.00054903864 -0.003010241 -0.0013388596 0.001634428
0.0005378735 -0.003758844 0.0020316625 -0.0049693245 -0.002306569 -0.0007872355 0.0073434897 -0.003194794
-0.00037610292 -0.00018065618 -0.00027129232 -0.0012975901 -0.00012889702 0.0026773477 0.00670162 0.003465639
0.0019868917 0.0047460473 -0.00042724825 -0.000664068 0.0053427354 0.005023211 0.0019155525 -0.0022686967
0.0015050541 0.0008142884 -0.0030746511 0.0017743793 0.0008840667 -0.00032343762 -0.0051970542 0.0012374863
0.002541387 0.0008810097 -0.0014473682 -0.0030297022 0.002839489 4.7512003e-05 0.004407963 0.004036051
0.0033692522 0.00030766215 -0.0035936027 0.0006549987 0.0043412084 0.017867062 0.0028187353 0.0009439807
0.005128158 -0.014718229 -0.010304601 -0.0069630365 0.0017511463 0.011671594 0.0046680477 0.000586416
-0.0064858794 0.0010125864 -0.002166257 -0.011037696 -0.0038326806 -0.0062264963 -0.013775948 0.0049990066
-0.00803957 -0.011308769 -0.013154473 -0.002198606 0.006899096 -0.00099819 0.0007386398 0.00771809
-0.0005083921 -0.0026606657 -0.0029049313 -0.00970369 -0.009136155 0.0022784097 -0.0020640537 0.0064004054
-0.012452931 -0.0069637173 -0.0014435863 0.0074713426 -0.0016073334 -0.0039336784 0.044705644 -0.007872348
-0.004511355 -0.0044661756 -0.0039306534 0.011878044 -0.016653914 0.0030931665 -0.0031481169 0.044616498
0.0019316996 -0.00072341727 -0.00026662473 -0.03418431 -0.034961883 -0.01627547 0.0024954616 0.020296536
0.0010745813 -0.004681208 -0.017471131 -0.0039966987 0.0011992792 -0.02594719 -0.0015557623 -0.009982024
-0.020594249 -0.0031838808 -0.019436758 -0.024792444 -0.028233042 -0.009246043 0.008103653 -0.004670181
0.004299872 0.01663922 0.0024395331 -0.0059443573 0.0036500976 -0.017255325 0.0043308907 -0.00025559514
0.0019140171 0.005927095 -0.025776604 -0.011056292 -0.0028076293 0.0034580636 -0.001391089 -0.007997573
0.08652753 -0.011882746 -0.0013037645 0.0021709492 0.0022415344 0.015798569 -0.016218845 0.0012031135
-0.0017981657 0.063363306 -0.0035939813 0.00468366 -0.0036661646 -0.042722166 -0.04776898 -0.031533662
0.0011309492 0.027967352 0.00031628498 0.0011673006 -0.019504469 -0.0009764825 0.004684235 -0.028611932
-0.0026569413 -0.02942497 -0.032121483 -0.0011292452 -0.032307312 -0.033651024 -0.037711997 -0.01350427
0.022536475 0.004848204 0.0023290995 0.014836015 -0.0014873946 -0.004075861 0.006800109 -0.03164934
0.0033711889 0.0025594113 -0.0022098622 -0.00037888315 -0.037076727 -0.009297643 0.0010256907 -0.00066787715
-0.0004826316 -0.015065627 0.13403235 -0.02168144 -5.3702668e-05 -0.0013452477 4.731868e-05 0.031695683
0.00044106916 0.0036237875 -0.0073818685 0.00024534544 0.0035191567 -0.0036643664 -0.0005167716 0.0066339453
-0.0033963062 0.007315663 0.00095894706 0.0016137583 0.001501224 0.0005683096 -0.0020476964 0.0035511996
0.0023172698 -0.0005468983 -0.00016262005 -0.0032084484 0.0011669137 0.00036252203 -0.0035565072 -0.005458038
-0.0005428834 -0.0031245784 0.0016382259 0.0030527404 -0.0035995822 -0.0054087876 0.0039325505 0.0041201725
0.0026566647 -0.00016695898 -0.0013487646 0.00017334602 -0.0050342884 0.0013354742 -0.0012304818 -0.0066783386
-0.00044525627 -0.0034090376 -0.0036285901 0.0006444854 -0.0005492604 -0.0046893866 0.0030383784 0.0021121295
-0.0020972556 -0.0049090735 -0.0005279447 0.0009464859 0.000354067 0.0017980068 -0.0031278068 -0.00016123873

Q.Q1.0.bias f4 [50]
00000000: b181 873d 0000 0000 0000 0000 fb50 35bc
00000010: 0000 0000 0000 0000 0000 0000 dad4 2d3e
00000020: 2ebf 333e 8e37 d13d 0000 0000 b3a8 64bc
00000030: 0000 0000 0000 0000 19c1 b03d 0000 0000
00000040: af2b 3a3a d7cc ec3d 0000 0000 8f73 d13d
00000050: 1772 fa3d 0000 0000 73a9 f03d 6cc6 0d3e
00000060: 76c9 153e c7c3 493d ce8b c1bb 8711 3e3c
00000070: 0000 0000 19a0 07bb 0000 0000 0000 0000
00000080: 0000 0000 0792 d13d ed8b 933b 0000 0000
00000090: 0000 0000 4e39 843b 5951 133e e1d7 7b3d
000000a0: 0000 0000 0000 0000 0000 0000 0adb 673d
000000b0: 81dd fdbc 141c 903d 0000 0000 ca3c 9438
000000c0: 0000 0000 9054 7ebb
0.066165335 0.0 0.0 -0.0110666705 0.0 0.0 0.0 0.16975728
0.17553398 0.10215674 0.0 -0.013956237 0.0 0.0 0.086305805 0.0
0.0007101846 0.115625076 0.0 0.10227119 0.12228792 0.0 0.1175107 0.13845223
0.14627632 0.049258973 -0.0059065586 0.0116008585 0.0 -0.002069479 0.0 0.0
0.0 0.10232931 0.0045027644 0.0 0.0 0.0040351516 0.143865 0.061485175
0.0 0.0 0.0 0.056605376 -0.03098941 0.070366055 0.0 7.068513e-05
0.0 -0.0038807727

Q.Q1.0.treat_weight f4 [1, 50]
00000000: aa7d 2f3e 47fa 25bf ba68 19bf 97e5 fa3d
00000010: 6f8a f4bd 904e 51be 003b dfbe b5fd 143f
00000020: 5edb 0a3f aa70 a13e 9e10 0dbe 7726 a73d
00000030: 802b 6dbe 0897 2abf fdc2 8a3e c0f7 28bf
00000040: 7cf5 0cbe e2ec 963e 9109 b0be f9bd 063e
00000050: 3721 e23e 084c bebe db6b b53e a85e cd3e
00000060: ab0b d93e c9fa 453e de67 1b3d 6544 fbbb
00000070: e21f 79be 7b7b e5bc 6a96 60bd 8ba3 22be
00000080: 4599 12be 3785 813e 0a87 ce3d e997 84be
00000090: 0f0a 00bf 5bc5 8bbe 6941 d73e e2de cb3d
000000a0: cbf0 19bf f851 30bd 4e3d b7be 0211 3e3e
000000b0: 36c7 153e 87f4 b33e 795c a6be 1f91 3ebe
000000c0: 6768 42bd 60ea 703e
0.17137781 -0.6483502 -0.59925425 0.12250822 -0.119404666 -0.20440125 -0.435997 0.58199626
0.5424098 0.31531268 -0.1377587 0.081616335 -0.23161125 -0.66636705 0.2710189 -0.66003036
-0.1376552 0.29477602 -0.343823 0.13158406 0.44165966 -0.37167382 0.3543385 0.4011128
0.42391714 0.19333948 0.037940852 -0.0076680654 -0.24328569 -0.028012982 -0.054830946 -0.15882699
-0.1431628 0.25296947 0.100843504 -0.25897148 -0.5001535 -0.27299008 0.4204209 0.09954621
-0.60133046 -0.04304692 -0.3578896 0.18561175 0.14626774 0.35147497 -0.32492426 -0.18610047
-0.047462847 0.23526907

Q.Q1.1.weight f4 [50, 1]
00000000: 6aa7 123e c976 f13b 0851 c63a 7ed9 47be
00000010: 8984 18bb ee03 c5ba 9f7a f93a 778a ba3e
00000020: 800e be3e ccea 613e 98cf 283b 977d c6bd
00000030: 7c72 c4ba 8a4d 9f3b 7296 423e 217e 0b3c
00000040: 9b6b 8f3b 071f 813e b514 b13a 8dda 673e
00000050: bc3d 843e d2bd f83a d2fe 813e de55 953e
00000060: dcbe 973e 5214 ce3d b662 6dbd e6f2 003d
00000070: 3443 2bbc d97f 42bd 8e4d 0bbb 8a3d 6abb
00000080: 61cf 023c 1784 683e b8d1 09bd 15ad 6dba
00000090: dbf2 7239 31a0 753c 1467 a03e e521 0e3e
000000a0: d4b0 a73b c264 633b abb8 67bb 8a76 e83d
000000b0: ff50 cdbe 218d 113e ed6a 223b 006b 093b
000000c0: d1ed c2ba 1c49 ccbd
0.14321676 0.0073688966 0.001513035 -0.1951656 -0.0023272356 -0.0015031078 0.0019033736 0.36433765
0.37120438 0.22062224 0.00257585 -0.09691923 -0.0014987732 0.0048615383 0.19002703 0.008513958
0.0043768412 0.25218984 0.00135102 0.22641964 0.2582835 0.0018977469 0.25389725 0.29167074
0.29637802 0.100624695 -0.057955466 0.031481646 -0.010453034 -0.047485206 -0.0021255943 -0.0035742247
0.007984013 0.22706638 -0.03364727 -0.0009066624 0.00023169389 0.014991806 0.31328642 0.13880117
0.005117515 0.0034697508 -0.0035357873 0.113507345 -0.40100858 0.14213993 0.002478297 0.0020968318
-0.00148719 -0.09974882

Q.Q2.0.weight f4 [50, 50]
00000000: c4f3 3a3a 27b9 18bb 3d3d 523b b1f5 e53b
00000010: 8a84 4eba b559 67bb 6229 b539 4f1b 4c3b
00000020: b705 61bb ab21 93b9 7d27 8abb 3587 f9bb
00000030: 2ca7 433b 2070 d7bb a7a4 8cba 54c5 8ebb
00000040: 0154 093c 0229 b13b a0e4 113b c95c df3b
00000050: c738 6cba 28a5 a03a 420d 0fbb 5c42 54bb
00000060: 9722 94bb 9c49 8a3b cd9d 37bb 27b8 a23b
00000070: 2ae3 2aba 8863 adbb 7b12 e9b9 8975 a5ba
00000080: 9430 0bbc 7c19 dcb9 8350 b5bb 4f0b a1ba
00000090: 8e68 6fbb 8be2 f33a 14d3 9339 4f2a 403a
000000a0: c8d3 c23a bb14 173b 0c96 963b 08ed bc3a
000000b0: 87e7 323c 8c50 87bb 87f3 af3b 35c7 40bb
000000c0: 2865 183b 1adf 4cb9 50dc 383b 4109 32bb
000000d0: 192d 5a3d ea71 0cb8 8e9a 30ba 1df7 813c
000000e0: afd1 493d 299a 61bb b128 15bb 818a fe3b
000000f0: 6813 c03c ccd9 f93a 9409 2f3c 795b 83ba
00000100: a86a 9b3b 37a0 11bb d6b1 76bb 46cd 30bb
00000110: f4f5 273c 6b29 4c3c c47a aa3b 4925 223a
00000120: 602f 3bbb 1d73 4eb8 d32d 033d bf5a 813b
00000130: f430 f9ba 80e5 d239 e8bc 2639 b7ba 2cbb
00000140: f0f0 453c 59fb 84bc 19b5 623a 71c9 1a3d
00000150: 7c13 6cbb 39d2 393b 2348 dc3c d0db d93b
00000160: 5419 e63b 7958 493d 6f5c d63b 9ecb bf3b
00000170: 3d06 2c3b d990 083b 1cb0 383a 5acd e1bb
00000180: d765 853c c1f7 a43c a858 c93b a116 a73c
00000190: 3926 5f3c 2582 37bb 0bb4 d83d 526e 04bb
000001a0: e7ff b83b 937b 0b3d b557 bc3d 4e98 d8ba
000001b0: 331e 51bb 7cd6 ca3c 3c0f 483d dd8c 053c
000001c0: d225 dc3c 02cd 323b 11ac 533a ff43 c2bb
000001d0: af28 89bb 39b4 db3b baa0 b53c fae5 9a3c
000001e0: 5550 6d3b 0715 25ba 3cb4 abbb a5f8 06bb
000001f0: 312e 6f3d a471 0b3b 5426 ac3a 900a 29bb
00000200: 8f10 6bbb f28d 233a 9510 a63c 0742 cebc
00000210: cc53 643b 8c7f 9f3d 6082 0f3b 004d d6bb
00000220: 441e 893d e311 3f3c d063 593b 1399 9a3d
00000230: 8459 66bb a2c3 733b 5ff4 533a 38eb 01bb
00000240: c3ca f0b9 d4e1 aa3b 9942 c23c 5028 2b3d
00000250: c92a 9b3b 3138 2b3d 67e1 553c 3a27 aa3b
00000260: 3e0d 283e 627d dc3a af8f 99bb 2b26 463d
00000270: d841 0a3e 29d8 cd3b 8d05 00bc 154d d53c
00000280: 3762 763d f81a 72bb 12aa 013d 3ead f63b
00000290: 8dee 283b 0b55 96bb 273c c33b c04f 26bb
000002a0: a73d fb3c d32d f63c d226 453b f80d a53b
000002b0: 1bca 09bb 57e7 07bb 1805 ad3d 4d36 f6ba
000002c0: 8290 a9ba d4cd 133a 4786 d33b 0a34 1c3b
000002d0: bd9e e83c 38bf 02bd caca 923a 3b52 cc3d
000002e0: cfc7 f83a 333f d33a d1a7 ba3d 1903 a63c
000002f0: 7665 353b 2473 e73d c634 c6ba 84cf 7b3b
00000300: 0eb5 843b 3075 783a c9b7 cf39 0050 4fbb
00000310: 9f82 133d 5d28 873d e1f8 21bb a019 8c3d
00000320: 5391 3639 f359 473a d480 79bb ca92 693a
00000330: 6301 4abb 3119 e9ba f3ed 4a3b 0671 39bb
00000340: d529 bd3b 2e4c 9b3b 7219 b0bb 9c98 963a
00000350: 1174 b53b 2627 a03a d89e 9b3a 0d43 86bb
00000360: cca1 0f3b 5346 ae3a ec56 8d39 435a 5e3a
00000370: 2914 863a db23 c0ba 02dc 6f3b 3501 f2b7
00000380: 8ffd 343b f4b5 95bb c3e6 a93a 7408 50bb
00000390: a00f 73bb bf1a 113a 9ddd 8eba d05b ed3b
000003a0: b3cc 50bb fc70 44bb 9c87 3d3a c51f dbbb
000003b0: de29 baba 55c4 543b b19e 063a c207 0c3c
000003c0: 9aa1 a9ba 03d4 fbbb 4b94 b7ba 95f6 a93a
000003d0: f55b 9a3b 10ce 713b 558a 9cbb d0c8 963a
000003e0: 685f 7fbb d2ea 0f3b b596 443b a300 a93a
000003f0: 6461 76bb 4a9d 69bb f63b 2ebb 1ec6 69bb
0.0007131661 -0.0023303719 0.0032079958 0.007017814 -0.0007878026 -0.0035301272 0.00034553843 0.0031144207
-0.0034335682 -0.0002806311 -0.004216133 -0.007614995 0.002985428 -0.0065746456 -0.0010730223 -0.0043570194
0.0083818445 0.0054065 0.0022261515 0.006816481 -0.0009011146 0.0012256252 -0.002182797 -0.0032388186
-0.004520725 0.0042202007 -0.002801764 0.0049658003 -0.00065188354 -0.005291406 -0.00044454992 -0.0012623529
-0.008495469 -0.00041980657 -0.0055332794 -0.0012286695 -0.0036530825 0.0018606944 0.0002819529 0.0007330523
0.0014864141 0.0023053128 0.0045955237 0.0014413903 0.010919458 -0.004129475 0.005369607 -0.0029415612
0.0023253653 -0.00019538068 0.0028207488 -0.002716616 0.053265665 -3.348469e-05 -0.00067368976 0.015864903
0.049272235 -0.0034424162 -0.002275985 0.007767976 0.023446754 0.0019062101 0.010683436 -0.0010021768
0.004742939 -0.002222074 -0.003764262 -0.0026977821 0.010251511 0.012461047 0.005202623 0.00061853655
-0.0028562173 -4.9221435e-05 0.032026123 0.0039475854 -0.0019011782 0.00040225312 0.00015901367 -0.0026356408
0.01208137 -0.016233133 0.00086482015 0.037789766 -0.0036022356 0.0028354062 0.026889866 0.006648518
0.0070220623 0.04915664 0.0065417807 0.0058531305 0.0026248835 0.002083829 0.00070452853 -0.006890935
0.016283913 0.02013767 0.006144602 0.020396532 0.013619953 -0.0028001156 0.105812155 -0.0020207358
0.0056457403 0.034053396 0.09196416 -0.0016524883 -0.003190887 0.024760477 0.048842654 0.00815126
0.026873503 0.0027282839 0.0008074651 -0.005928516 -0.004185758 0.006704834 0.022171367 0.01890849
0.0036211212 -0.0006297384 -0.0052399915 -0.002059498 0.05839366 0.0021277452 0.0013133981 -0.002579365
-0.0035868024 0.0006239108 0.020271579 -0.025177969 0.0034839986 0.077879995 0.0021897778 -0.006539941
0.06695226 0.011661979 0.0033171065 0.07548728 -0.003514857 0.0037195464 0.00080854254 -0.001982404
-0.00045927436 0.005214909 0.023713397 0.041786492 0.004735325 0.041801635 0.013054228 0.0051926645
0.16411301 0.0016822035 -0.004686318 0.048376244 0.1350168 0.006281872 -0.007813823 0.026037732
0.06015226 -0.0036942344 0.031656332 0.0075279763 0.0025776953 -0.0045877746 0.0059580985 -0.0025377125
0.030669047 0.030051148 0.0030082953 0.0050370656 -0.0021025005 -0.0020737255 0.08448237 -0.0018784493
-0.0012936743 0.0005638276 0.006455216 0.0023834729 0.028396005 -0.03192064 0.0011199352 0.09976622
0.0018980446 0.0016116857 0.0911404 0.020265149 0.0027678884 0.11301258 -0.0015121929 0.003842325
0.0040499037 0.00094779115 0.00039619047 -0.0031633377 0.03601324 0.065994956 -0.0024714994 0.06840825
0.0001741101 0.0007604651 -0.0038071172 0.0008910118 -0.003082358 -0.0017783997 0.0030964583 -0.0028296127
0.005772809 0.004739306 -0.005374127 0.0011489573 0.005537518 0.0012218698 0.0011872901 -0.0040973485
0.0021916507 0.0013296105 0.00026958378 0.0008482078 0.0010229397 -0.0014659123 0.003659964 -2.884921e-05
0.0027616953 -0.0045688096 0.0012962449 -0.003174332 -0.003708817 0.00055352965 -0.0010899786 0.007243611
-0.0031860291 -0.002997457 0.0007229985 -0.006687137 -0.0014203151 0.0032465656 0.0005135341 0.0085467715
-0.0012941838 -0.007685186 -0.0014005987 0.0012967164 0.004710669 0.0036896504 -0.0047772327 0.0011503939
-0.0038966779 0.0021960032 0.0029997055 0.0012893867 -0.003759467 -0.003564673 -0.0026586032 -0.0035671066

Q.Q2.0.bias f4 [50]
00000000: c638 5cbb 0000 0000 0e8a 54bc 0000 0000
00000010: 0000 0000 f64e d7bb c630 b7bc 0000 0000
00000020: 0000 0000 a326 b4bb 392e 64bc 0000 0000
00000030: 5365 88bc 0000 0000 f2e1 f7b8 0000 0000
00000040: 1764 393b 0000 0000 8d63 0cbb 0849 12bb
00000050: 0000 0000 0000 0000 0000 0000 0000 0000
00000060: 257a a9bc 0000 0000 0000 0000 0000 0000
00000070: 0000 0000 0000 0000 a204 363c 8110 803e
00000080: 0000 0000 694a 37bc 0000 0000 ed4b 283c
00000090: f67e 94bc cce1 e33a ac0b 233b 21e9 b2bc
000000a0: 0000 0000 0000 0000 0000 0000 0000 0000
000000b0: 0000 0000 0000 0000 9f0e 23bc 445d e0ba
000000c0: 0000 0000 5929 22bb
-0.0033603176 0.0 -0.012972368 0.0 0.0 -0.006570692 -0.022362124 0.0
0.0 -0.00549777 -0.013927036 0.0 -0.016649878 0.0 -0.000118199634 0.0
0.0028288418 0.0 -0.0021421642 -0.0022321362 0.0 0.0 0.0 0.0
-0.020688126 0.0 0.0 0.0 0.0 0.0 0.011109503 0.2501259
0.0 -0.011187174 0.0 0.010272008 -0.018126946 0.0017386018 0.0024878783 -0.02183968
0.0 0.0 0.0 0.0 0.0 0.0 -0.009952216 -0.0017117639
0.0 -0.0024743883

Q.Q2.0.treat_weight f4 [1, 50]
00000000: 9abb f23d a38a 3dbf 9805 3e3f e909 1fbf
00000010: 04c5 0dbe 8d47 903e f57a 463f 7a5a 93be
00000020: eb5c 06bf 1265 2b3e 82f0 c43e a2c0 c3be
00000030: 3a67 943e 5bb3 00bf 6f11 94bc 8f03 97bd
00000040: 648e 123d f061 18be 860e f73d 3de8 df3d
00000050: 1a2f 2fbe 128d 39be 39b9 69be 3cd3 66bf
00000060: 3dea 0e3f 6833 f8be 339a 2dbe 54df 36bf
00000070: bfb5 0dbe 5d14 d3be 8731 513d c76b 183e
00000080: 3965 b5be 78ef 1e3f fa0a 28be 8065 703d
00000090: 9a97 043f c6e4 ea3c d5c3 11bd 4cd8 2a3f
000000a0: 51ca e9be a203 cabd 94ef e0be a300 b4be
000000b0: 7cbd 9cbe b4ee dcbd beeb 7a3e 6e49 923e
000000c0: bc5c 87be 36d6 883e
0.118521884 -0.7403967 0.74227285 -0.62124497 -0.13844687 0.2817959 0.7753137 -0.28779966
-0.5248553 0.16737774 0.38464743 -0.38232905 0.28985006 -0.50273675 -0.01807472 -0.073737256
0.035780326 -0.1488111 0.12063317 0.10932968 -0.17107812 -0.1812022 -0.22824563 -0.9016607
0.5582617 -0.4847672 -0.16953354 -0.7143452 -0.13838862 -0.41226473 0.051072624 0.14884864
-0.3542879 0.6208415 -0.16410437 0.058690548 0.51793826 0.02867354 -0.03558715 0.6673629
-0.45662168 -0.09863974 -0.43932784 -0.35156736 -0.30613315 -0.107877165 0.24503991 0.28571647
-0.26437938 0.2672593

Q.Q2.1.weight f4 [50, 1]
00000000: 6f23 e2bc ed88 753b 3990 a9be 7e9c 8eb9
00000010: 46b8 823b b32a b8bd 6b23 8dbe 6219 30bb
00000020: d659 34bb 560f 83bd ec72 02be ffa1 423b
00000030: 9e33 10bd 20a5 2eba 72b4 cb3a 950d 8bbb
00000040: 407b 6bbc 2d88 1ebb 0809 8bbd 59d3 7fbd
00000050: 0d11 35bb aa20 3e3b ce12 b9bb a00a 8039
00000060: 495c 23be 57e6 6b3a 3d9a e2ba e040 c2bb
00000070: 0547 10bb d0f0 15ba b334 95bd d34c 613f
00000080: d3bb 21bb 9fdb 55be 5372 e4bb 1eea d53c
00000090: 3a34 4abe 6996 4bbd 2eb1 a5bc c4f9 62be
000000a0: 0ee6 b5bb 5979 96bb 5ba9 fdba dcf9 a23a
000000b0: 89fc 9a3b 30e3 88bb 4875 79bd d5c0 13be
000000c0: e1ed 0abc 8392 02be
-0.027604787 0.0037465647 -0.33117846 -0.00027200946 0.0039892523 -0.08992519 -0.27566084 -0.0026870598
-0.0027519367 -0.063994095 -0.12739152 0.0029698608 -0.035205476 -0.0006662179 0.0015541448 -0.0042435625
-0.014372647 -0.0024190054 -0.06788832 -0.062457416 -0.0027628571 0.0029011169 -0.0056479936 0.0002442198
-0.15953173 0.0008998862 -0.0017288398 -0.005928144 -0.0022014987 -0.0005719783 -0.07285442 0.8800785
-0.0024678602 -0.2088456 -0.0069716363 0.026112612 -0.19746485 -0.04970399 -0.020226087 -0.2216559
-0.0055511063 -0.0045921025 -0.001935284 0.0012434083 0.0047298116 -0.0041774735 -0.060902864 -0.14429028
-0.008479566 -0.12751202
