logs/simu1/eval/Vcnet_ckpt.pth.tar (torch, 69786 bytes, 12 tensors)

feature_weight.weight f4 [50, 5]
0.0041469755 -0.037806828 -0.025455005 -0.0024117744 -0.009748142 -0.01709769 0.03886039 0.0180052
-0.0038841586 -0.014250581 0.0030867227 0.001701942 -0.0015656266 0.00022098135 -0.00798847 -0.02521639
-0.033686686 -0.00531819 0.01336834 0.0014709014 -0.022436365 0.0025578034 -9.618443e-05 -0.00097056327
0.009709151 -0.009081019 -0.0102971755 0.013677157 0.0009282709 -0.004183964 0.00081357855 -0.0007587896
-0.00023228407 -0.0010612193 0.0070995972 0.004586914 -0.016333519 -0.0024626725 -0.004959191 -0.0082764095
-0.004036563 -0.015028759 -0.0020832052 0.005041499 -0.0045922264 0.001828106 -0.04168649 0.0018766299
-0.012598668 0.011732725 -0.019844605 -0.0065401713 -0.0045049856 -0.015030583 -0.0043587787 -0.02279242
-0.0054444186 -0.005536022 0.0054464214 -0.0011322474 -0.038861204 0.043774147 -0.01331206 0.0048166565
0.014354729 -0.002361688 -0.00474445 0.0033580065 0.013166497 0.0032749695 0.01137802 -0.0054767746
0.0013085748 0.0016005269 0.011046376 -0.020671608 0.11771873 -0.016279403 0.03358776 0.019375168
-0.008510657 -0.023818841 -0.0011651344 -0.003093369 -0.0079331035 -0.008961959 0.014408232 0.0014885084
0.018740382 -0.00659737 -0.03343683 -0.01238745 0.0045066513 0.007427021 0.01916628 0.0020469574
-0.010308646 -0.0036540928 -0.0023307484 -0.0051304866 0.0028497926 0.050294533 0.009573163 -0.023634968
-0.0011940228 -0.003009354 0.0592202 -0.007294693 -0.0062845196 -0.022205023 -0.016434548 -0.024489785
-0.007970624 0.0038497546 -0.00802916 0.013137619 -0.008342889 -0.0006035728 0.0065630656 -0.014606904
0.020909451 0.079476506 0.01038322 0.0017109623 -0.0028441048 -0.0085063 0.043002617 0.00033780007
-0.0031916695 0.0037959027 0.0035305256 0.031247519 0.0099098245 -0.020994645 -0.010014374 0.0042075464
-0.0027148358 0.0021387918 -0.003545968 0.002935056 0.018662073 -0.032360297 0.002746688 0.0015563356
0.0076273144 -0.021588327 -0.017715123 -0.002851121 0.00087773445 0.0012057176 0.01639649 -0.00015136348
-0.001612573 -0.0020391073 0.009148803 0.0038631028 0.007484076 0.014099933 -0.006693735 0.01065507
0.013275869 -0.034865636 -0.012716124 0.028862968 0.018980155 -0.006829196 -0.02497083 0.004073052
0.006491839 0.026178366 0.011322421 0.049663797 -0.0052499827 -0.015477959 -0.0122799855 0.0039775865
0.04484927 0.001121747 0.001345826 -0.011640865 0.0121020945 -0.014548955 -0.013859601 -0.0013742682
0.0073283426 -0.0069742366 0.028947506 -0.004177138 -0.004169008 -0.0023527942 -0.0007075715 0.034538187
-0.0115443645 0.014416455 0.0022793096 0.00038504656 0.03375486 0.002261216 0.011672383 0.028488602
0.0028165416 -0.022524947 -0.0021779253 -0.015454022 4.3156157e-05 -0.023006048 0.0019143252 0.0045152185
-0.01129716 0.0023971398 -0.009544555 0.018891148 0.0067200777 -0.0060607595 0.0013035183 -0.007736143
0.07824775 -0.0036709 -0.007735006 -0.00586787 -0.006975985 -0.025596771 -0.016777623 0.004935817
0.0141055975 0.0006394372 -0.0781116 -0.010249494 0.026368557 0.0035421003 0.0021829228 -0.019137636
0.0031879547 -0.0037492313 -0.0133254705 -0.02129387 0.02992788 0.0012919365 0.019256068 0.016007705
-0.0021879445 -0.010554074 0.0051670233 0.010956416 -0.0099502895 0.00740114 0.011540183 -0.005422168
-0.03730651 -0.01159032
00000000: 5ae3 873b 55db 1abd 0487 d0bc dc0e 1ebb
00000010: acb6 1fbc 7410 8cbc 132c 1f3d a47f 933c
00000020: 5e8d 7ebb 457b 69bc 9d4a 4a3b b213 df3a
00000030: b635 cdba 3bb7 6739 12e2 02bc 9a92 cebc
00000040: 0dfb 09bd 3644 aebb e206 5b3c 43cb c03a
00000050: 78cc b7bc d2a0 273b 9fb6 c9b8 666d 7eba
00000060: 2213 1f3c 8ec8 14bc 7cb5 28bc 2816 603c
00000070: 3557 733a a219 89bb 5546 553a 82e9 46ba
00000080: 4891 73b9 9c18 8bba bda3 e83b d34d 963b
00000090: dfcd 85bc ca64 21bb b680 a2bb c799 07bc
000000a0: 2545 84bb 2f3b 76bc 6286 08bb 2933 a53b
000000b0: 637a 96bb 0f9d ef3a 74bf 2abd 40f9 f53a
000000c0: a56a 4ebc 9e3a 403c 2791 a2bc ef4e d6bb
000000d0: 8f9e 93bb d642 76bc 16d4 8ebb 2bb7 babc
000000e0: 1867 b2bb 8567 b5bb e577 b23b eb67 94ba
000000f0: ed2c 1fbd 854c 333d d41a 5abc 0bd5 9d3b
00000100: 1930 6b3c 8dc6 1abb 5577 9bbb 0012 5c3b
00000110: 4bb8 573c dfa0 563b e06a 3a3c 8476 b3bb
00000120: 7c84 ab3a c5c8 d13a dcfb 343c 8157 a9bc
00000130: 8416 f13d 625c 85bc 5293 093d acb8 9e3c
00000140: 4870 0bbc bb1f c3bc 6cb7 98ba 1fba 4abb
00000150: d9f9 01bc 2ed5 12bc 8110 6c3c 0e1a c33a
00000160: 6e85 993c c02e d8bb 0ff5 08bd bbf4 4abc
00000170: 88ac 933b 5e5e f33b 9a02 9d3c 3f26 063b
00000180: 98e5 28bc 8179 6fbb 78bf 18bb a41d a8bb
00000190: 96c3 3a3b a401 4e3d c2d8 1c3c 1f9e c1bc
000001a0: c280 9cba 9538 45bb e190 723d 5208 efbb
000001b0: 5fee cdbb 4fe7 b5bc bfa1 86bc cd9e c8bc
000001c0: 3897 02bc 2a4c 7c3b bd8c 03bc 2b3f 573c
000001d0: 9db0 08bc 1639 1eba fc0e d73b cc51 6fbc
000001e0: 4c4a ab3c 94c4 a23d 621e 2a3c 5e42 e03a
000001f0: 2964 3abb 025e 0bbc 8323 303d c21a b139
00000200: 542b 51bb aec4 783b 6460 673b ccfa ff3c
00000210: d15c 223c f6fc abbc 5413 24bc 75df 893b
00000220: 63eb 31bb f92a 0c3b 7963 68bb 125a 403b
00000230: 34e1 983c 3b8c 04bd c701 343b f5fd cb3a
00000240: 8dee f93b 01da b0bc 4e1f 91bc dfd9 3abb
00000250: c317 663a 2b09 9e3a ef51 863c 53b7 1eb9
00000260: f95c d3ba 8ba2 05bb dce4 153c 1c2c 7d3b
00000270: fb3c f53b 6803 673c 1e57 dbbb 9a92 2e3c
00000280: 0883 593c 45cf 0ebd 4a57 50bc 0872 ec3c
00000290: 457c 9b3c 73c7 dfbb a08f ccbc 3d77 853b
000002a0: 7eb9 d43b 0374 d63c ad81 393c 446c 4b3d
000002b0: 0c08 acbb 4497 7dbc fe31 49bc 6a56 823b
000002c0: deb3 373d 9507 933a 6d66 b03a 54b9 3ebc
000002d0: dd47 463c bd5e 6ebc 6113 63bc ca20 b4ba
000002e0: 9822 f03b 2388 e4bb 5223 ed3c 60e0 88bb
000002f0: 2d9c 88bb 5631 1abb 527c 39ba ea77 0d3d
00000300: 9324 3dbc ff32 6c3c 7860 153b 13e0 c939
00000310: 8942 0a3d e930 143b 863d 3f3c ee60 e93c
00000320: ba95 383b 3d86 b8bc 86bb 0ebb de32 7dbc
00000330: 9202 3538 2e77 bcbc 18ea fa3a 66f4 933b
00000340: b917 39bc 5519 1d3b c460 1cbc 9cc1 9a3c
00000350: 1934 dc3b 5699 c6bb d1da aa3a 797f fdbb
00000360: 5b40 a03d 7b93 70bb ef75 fdbb 4347 c0bb
00000370: ce96 e4bb 52b0 d1bc 3a71 89bc a2bc a13b
00000380: 2a1b 673c e79f 273a f9f8 9fbd 7eed 27bc
00000390: df02 d83c 9522 683b 5e0f 0f3b 88c6 9cbc
000003a0: 01ed 503b aab5 75bb 1353 5abc 7b70 aebc
000003b0: 502b f53c 3256 a93a e7be 9d3c 9722 833c
000003c0: 9e63 0fbb ffea 2cbc 2250 a93b 8a82 333c
000003d0: 8a06 23bc 4385 f23b 0913 3d3c 71ac b1bb
000003e0: b6ce 18bd 53e5 3dbc

feature_weight.bias f4 [50]
0.00486028 0.0077208136 0.0016048467 0.029724007 -0.00081938476 0.0031579596 -0.0011830571 0.0018357557
-0.0071298582 0.0022240763 0.0047558523 0.0043427134 0.038285643 0.0021495942 0.0016277089 0.103188254
0.012079148 0.003173201 0.01526662 0.0021901925 0.010985421 0.01893973 0.01172052 0.0054844534
0.021079022 0.021427251 0.0021878977 -0.010286228 0.013138727 0.020289652 0.0008108185 0.0004383766
0.027733374 0.01968516 0.007772133 0.0077008503 0.0018283973 0.011354183 0.028910851 0.034234773
0.0030118597 -0.00090222614 0.0030620534 0.03354445 0.005350749 0.0314789 0.0047410857 0.025494644
-0.001985655 0.0016697934
00000000: fc42 9f3b e1fe fc3b b859 d23a c37f f33c
00000010: fbcb 56ba c5f5 4e3b cf10 9bba bd9d f03a
00000020: 96a1 e9bb cfc1 113b fbd6 9b3b 524d 8e3b
00000030: 68d1 1c3d 35e0 0c3b d958 d53a 5d54 d33d
00000040: 9ee7 453c 7bf5 4f3b d820 7a3c 5589 0f3b
00000050: 32fc 333c 7e27 9b3c 6d07 403c eeb6 b33b
00000060: eaad ac3c 3488 af3c d562 0f3b 9187 28bc
00000070: d143 573c 7c36 a63c 1c8d 543a e9d5 e539
00000080: 1a31 e33c c642 a13c 61ad fe3b 6a57 fc3b
00000090: d5a6 ef3a e506 3a3c 73d6 ec3c c339 0c3d
000000a0: 9f62 453b 5f83 6cba bbac 483b e865 093d
000000b0: 5655 af3b 05f0 003d 1c5b 9b3b 25da d03c
000000c0: c321 02bb f8dc da3a

hidden_features.0.weight f4 [50, 5]
0.0041469755 -0.037806828 -0.025455005 -0.0024117744 -0.009748142 -0.01709769 0.03886039 0.0180052
-0.0038841586 -0.014250581 0.0030867227 0.001701942 -0.0015656266 0.00022098135 -0.00798847 -0.02521639
-0.033686686 -0.00531819 0.01336834 0.0014709014 -0.022436365 0.0025578034 -9.618443e-05 -0.00097056327
0.009709151 -0.009081019 -0.0102971755 0.013677157 0.0009282709 -0.004183964 0.00081357855 -0.0007587896
-0.00023228407 -0.0010612193 0.0070995972 0.004586914 -0.016333519 -0.0024626725 -0.004959191 -0.0082764095
-0.004036563 -0.015028759 -0.0020832052 0.005041499 -0.0045922264 0.001828106 -0.04168649 0.0018766299
-0.012598668 0.011732725 -0.019844605 -0.0065401713 -0.0045049856 -0.015030583 -0.0043587787 -0.02279242
-0.0054444186 -0.005536022 0.0054464214 -0.0011322474 -0.038861204 0.043774147 -0.01331206 0.0048166565
0.014354729 -0.002361688 -0.00474445 0.0033580065 0.013166497 0.0032749695 0.01137802 -0.0054767746
0.0013085748 0.0016005269 0.011046376 -0.020671608 0.11771873 -0.016279403 0.03358776 0.019375168
-0.008510657 -0.023818841 -0.0011651344 -0.003093369 -0.0079331035 -0.008961959 0.014408232 0.0014885084
0.018740382 -0.00659737 -0.03343683 -0.01238745 0.0045066513 0.007427021 0.01916628 0.0020469574
-0.010308646 -0.0036540928 -0.0023307484 -0.0051304866 0.0028497926 0.050294533 0.009573163 -0.023634968
-0.0011940228 -0.003009354 0.0592202 -0.007294693 -0.0062845196 -0.022205023 -0.016434548 -0.024489785
-0.007970624 0.0038497546 -0.00802916 0.013137619 -0.008342889 -0.0006035728 0.0065630656 -0.014606904
0.020909451 0.079476506 0.01038322 0.0017109623 -0.0028441048 -0.0085063 0.043002617 0.00033780007
-0.0031916695 0.0037959027 0.0035305256 0.031247519 0.0099098245 -0.020994645 -0.010014374 0.0042075464
-0.0027148358 0.0021387918 -0.003545968 0.002935056 0.018662073 -0.032360297 0.002746688 0.0015563356
0.0076273144 -0.021588327 -0.017715123 -0.002851121 0.00087773445 0.0012057176 0.01639649 -0.00015136348
-0.001612573 -0.0020391073 0.009148803 0.0038631028 0.007484076 0.014099933 -0.006693735 0.01065507
0.013275869 -0.034865636 -0.012716124 0.028862968 0.018980155 -0.006829196 -0.02497083 0.004073052
0.006491839 0.026178366 0.011322421 0.049663797 -0.0052499827 -0.015477959 -0.0122799855 0.0039775865
0.04484927 0.001121747 0.001345826 -0.011640865 0.0121020945 -0.014548955 -0.013859601 -0.0013742682
0.0073283426 -0.0069742366 0.028947506 -0.004177138 -0.004169008 -0.0023527942 -0.0007075715 0.034538187
-0.0115443645 0.014416455 0.0022793096 0.00038504656 0.03375486 0.002261216 0.011672383 0.028488602
0.0028165416 -0.022524947 -0.0021779253 -0.015454022 4.3156157e-05 -0.023006048 0.0019143252 0.0045152185
-0.01129716 0.0023971398 -0.009544555 0.018891148 0.0067200777 -0.0060607595 0.0013035183 -0.007736143
0.07824775 -0.0036709 -0.007735006 -0.00586787 -0.006975985 -0.025596771 -0.016777623 0.004935817
0.0141055975 0.0006394372 -0.0781116 -0.010249494 0.026368557 0.0035421003 0.0021829228 -0.019137636
0.0031879547 -0.0037492313 -0.0133254705 -0.02129387 0.02992788 0.0012919365 0.019256068 0.016007705
-0.0021879445 -0.010554074 0.0051670233 0.010956416 -0.0099502895 0.00740114 0.011540183 -0.005422168
-0.03730651 -0.01159032
00000000: 5ae3 873b 55db 1abd 0487 d0bc dc0e 1ebb
00000010: acb6 1fbc 7410 8cbc 132c 1f3d a47f 933c
00000020: 5e8d 7ebb 457b 69bc 9d4a 4a3b b213 df3a
00000030: b635 cdba 3bb7 6739 12e2 02bc 9a92 cebc
00000040: 0dfb 09bd 3644 aebb e206 5b3c 43cb c03a
00000050: 78cc b7bc d2a0 273b 9fb6 c9b8 666d 7eba
00000060: 2213 1f3c 8ec8 14bc 7cb5 28bc 2816 603c
00000070: 3557 733a a219 89bb 5546 553a 82e9 46ba
00000080: 4891 73b9 9c18 8bba bda3 e83b d34d 963b
00000090: dfcd 85bc ca64 21bb b680 a2bb c799 07bc
000000a0: 2545 84bb 2f3b 76bc 6286 08bb 2933 a53b
000000b0: 637a 96bb 0f9d ef3a 74bf 2abd 40f9 f53a
000000c0: a56a 4ebc 9e3a 403c 2791 a2bc ef4e d6bb
000000d0: 8f9e 93bb d642 76bc 16d4 8ebb 2bb7 babc
000000e0: 1867 b2bb 8567 b5bb e577 b23b eb67 94ba
000000f0: ed2c 1fbd 854c 333d d41a 5abc 0bd5 9d3b
00000100: 1930 6b3c 8dc6 1abb 5577 9bbb 0012 5c3b
00000110: 4bb8 573c dfa0 563b e06a 3a3c 8476 b3bb
00000120: 7c84 ab3a c5c8 d13a dcfb 343c 8157 a9bc
00000130: 8416 f13d 625c 85bc 5293 093d acb8 9e3c
00000140: 4870 0bbc bb1f c3bc 6cb7 98ba 1fba 4abb
00000150: d9f9 01bc 2ed5 12bc 8110 6c3c 0e1a c33a
00000160: 6e85 993c c02e d8bb 0ff5 08bd bbf4 4abc
00000170: 88ac 933b 5e5e f33b 9a02 9d3c 3f26 063b
00000180: 98e5 28bc 8179 6fbb 78bf 18bb a41d a8bb
00000190: 96c3 3a3b a401 4e3d c2d8 1c3c 1f9e c1bc
000001a0: c280 9cba 9538 45bb e190 723d 5208 efbb
000001b0: 5fee cdbb 4fe7 b5bc bfa1 86bc cd9e c8bc
000001c0: 3897 02bc 2a4c 7c3b bd8c 03bc 2b3f 573c
000001d0: 9db0 08bc 1639 1eba fc0e d73b cc51 6fbc
000001e0: 4c4a ab3c 94c4 a23d 621e 2a3c 5e42 e03a
000001f0: 2964 3abb 025e 0bbc 8323 303d c21a b139
00000200: 542b 51bb aec4 783b 6460 673b ccfa ff3c
00000210: d15c 223c f6fc abbc 5413 24bc 75df 893b
00000220: 63eb 31bb f92a 0c3b 7963 68bb 125a 403b
00000230: 34e1 983c 3b8c 04bd c701 343b f5fd cb3a
00000240: 8dee f93b 01da b0bc 4e1f 91bc dfd9 3abb
00000250: c317 663a 2b09 9e3a ef51 863c 53b7 1eb9
00000260: f95c d3ba 8ba2 05bb dce4 153c 1c2c 7d3b
00000270: fb3c f53b 6803 673c 1e57 dbbb 9a92 2e3c
00000280: 0883 593c 45cf 0ebd 4a57 50bc 0872 ec3c
00000290: 457c 9b3c 73c7 dfbb a08f ccbc 3d77 853b
000002a0: 7eb9 d43b 0374 d63c ad81 393c 446c 4b3d
000002b0: 0c08 acbb 4497 7dbc fe31 49bc 6a56 823b
000002c0: deb3 373d 9507 933a 6d66 b03a 54b9 3ebc
000002d0: dd47 463c bd5e 6ebc 6113 63bc ca20 b4ba
000002e0: 9822 f03b 2388 e4bb 5223 ed3c 60e0 88bb
000002f0: 2d9c 88bb 5631 1abb 527c 39ba ea77 0d3d
00000300: 9324 3dbc ff32 6c3c 7860 153b 13e0 c939
00000310: 8942 0a3d e930 143b 863d 3f3c ee60 e93c
00000320: ba95 383b 3d86 b8bc 86bb 0ebb de32 7dbc
00000330: 9202 3538 2e77 bcbc 18ea fa3a 66f4 933b
00000340: b917 39bc 5519 1d3b c460 1cbc 9cc1 9a3c
00000350: 1934 dc3b 5699 c6bb d1da aa3a 797f fdbb
00000360: 5b40 a03d 7b93 70bb ef75 fdbb 4347 c0bb
00000370: ce96 e4bb 52b0 d1bc 3a71 89bc a2bc a13b
00000380: 2a1b 673c e79f 273a f9f8 9fbd 7eed 27bc
00000390: df02 d83c 9522 683b 5e0f 0f3b 88c6 9cbc
000003a0: 01ed 503b aab5 75bb 1353 5abc 7b70 aebc
000003b0: 502b f53c 3256 a93a e7be 9d3c 9722 833c
000003c0: 9e63 0fbb ffea 2cbc 2250 a93b 8a82 333c
000003d0: 8a06 23bc 4385 f23b 0913 3d3c 71ac b1bb
000003e0: b6ce 18bd 53e5 3dbc

hidden_features.0.bias f4 [50]
0.00486028 0.0077208136 0.0016048467 0.029724007 -0.00081938476 0.0031579596 -0.0011830571 0.0018357557
-0.0071298582 0.0022240763 0.0047558523 0.0043427134 0.038285643 0.0021495942 0.0016277089 0.103188254
0.012079148 0.003173201 0.01526662 0.0021901925 0.010985421 0.01893973 0.01172052 0.0054844534
0.021079022 0.021427251 0.0021878977 -0.010286228 0.013138727 0.020289652 0.0008108185 0.0004383766
0.027733374 0.01968516 0.007772133 0.0077008503 0.0018283973 0.011354183 0.028910851 0.034234773
0.0030118597 -0.00090222614 0.0030620534 0.03354445 0.005350749 0.0314789 0.0047410857 0.025494644
-0.001985655 0.0016697934
00000000: fc42 9f3b e1fe fc3b b859 d23a c37f f33c
00000010: fbcb 56ba c5f5 4e3b cf10 9bba bd9d f03a
00000020: 96a1 e9bb cfc1 113b fbd6 9b3b 524d 8e3b
00000030: 68d1 1c3d 35e0 0c3b d958 d53a 5d54 d33d
00000040: 9ee7 453c 7bf5 4f3b d820 7a3c 5589 0f3b
00000050: 32fc 333c 7e27 9b3c 6d07 403c eeb6 b33b
00000060: eaad ac3c 3488 af3c d562 0f3b 9187 28bc
00000070: d143 573c 7c36 a63c 1c8d 543a e9d5 e539
00000080: 1a31 e33c c642 a13c 61ad fe3b 6a57 fc3b
00000090: d5a6 ef3a e506 3a3c 73d6 ec3c c339 0c3d
000000a0: 9f62 453b 5f83 6cba bbac 483b e865 093d
000000b0: 5655 af3b 05f0 003d 1c5b 9b3b 25da d03c
000000c0: c321 02bb f8dc da3a

hidden_features.2.weight f4 [50, 50]
0.00914801 -0.015065504 -0.010407089 0.001703865 -5.5426266e-05 -0.009144272 -0.009396192 -0.0076375897
0.0039908974 0.007817016 0.002381371 -0.00058996264 -1.4004617e-06 -0.00070040365 0.009843444 0.012636491
-0.0115881665 -0.009670623 0.01069082 0.009408728 0.007867143 0.037432022 -0.00693185 -0.0067980406
0.017487818 -0.0010883824 0.0024290897 -0.019951874 -0.013067246 -0.016482979 -0.0068396134 -0.0023217513
0.004864714 0.0019535113 -0.013392185 -0.0017080884 0.007248965 -0.009053738 0.007119433 0.011925386
-0.009903648 -0.0010049891 0.0034565812 0.003579455 -0.0035382644 -0.00039629987 -0.0055101663 -0.013577535
-0.0068502175 -0.008540648 0.016202921 0.001819548 -0.004183062 0.0018916575 -0.0031039293 -0.010818659
0.0043828352 0.00094753643 0.0077450224 0.015763778 -0.01540732 0.011200761 -0.01628245 0.00059737987
-0.0016993174 -0.017623315 -0.005681309 -0.002995958 0.017853402 -0.006568719 -0.011493072 -0.0037654205
0.00083266565 -0.018932499 0.004148486 0.012804912 -0.0060379608 0.0033950976 -0.0078233555 -0.018898468
-0.017852986 -0.0026534966 0.0085474 0.0044159824 -0.02689486 0.0036263936 -0.0010619782 -0.008735236
0.004102109 -0.018900199 0.010219478 0.0037822975 -0.0065706978 0.002996702 0.009741606 -0.019960085
-0.009012449 0.01435063 0.016319346 -0.008847203 -0.0046235938 0.003900251 0.0009345286 0.010635633
0.01355919 -0.018846551 -0.0058043017 0.014253404 -0.019602045 -0.0033883445 0.010227113 -0.0073204697
0.011440365 0.005706759 -0.020102737 -0.023147043 -0.0011527612 0.003458832 -0.00022049049 0.0058481395
0.0011722848 0.008161966 -0.0043530366 -0.0014096947 -0.0013717011 -0.009485143 0.004268125 0.015897706
-0.003374176 0.0011484092 0.0043817963 0.005776279 -0.0041643344 0.006262204 -0.011553344 -0.010581713
-0.007011486 0.0047270753 -0.009542501 0.0015526399 0.0025293778 0.006074617 -0.0030449466 -0.0053073987
-0.0053256582 -0.009535221 -0.014334763 0.010806339 0.008787545 -0.009861116 -0.0069223978 -0.026186889
-0.0021654807 -0.004226581 -0.0010042358 -0.02271007 -0.0053063887 -0.010291348 -0.012271492 -0.005039843
-0.013574884 -0.015550695 0.011520018 0.011879017 0.0015474362 -0.00020980259 -0.0037862763 -0.0002848472
-0.0010137077 0.01025547 -0.0066927285 -0.012464986 0.0007941425 -0.0045496626 -0.006045546 -0.007825031
-0.012131408 0.015463612 -0.004264479 0.006268088 0.0024269377 -0.016503558 -0.002822654 -0.004788625
-0.018408677 0.00094643264 -0.005352363 -0.00041046625 -0.009488405 0.0037873534 0.0046313046 -0.0111107025
-0.003229822 -0.011702753 -0.0026969854 -0.0072109 -0.009164229 -0.011371617 -0.02830219 -0.009554059
0.0010939997 -0.026147826 -0.00059676694 0.008469385 0.00066288485 -0.0008096251 -0.0014599286 0.005215384
0.0017365555 -0.009851891 -0.006414984 0.00887692 0.0061746403 -0.003648491 0.0017858876 -0.011083175
0.010576895 0.0011593119 -0.00062852167 0.0050750636 -0.013187105 0.0019517704 -0.0107896915 0.010046181
0.009092127 -0.014534483 -0.01978373 -0.018208897 0.005943301 0.0068367706 0.0011609991 -0.010025216
0.019342914 0.010940511 -0.006133435 -0.0067496044 -0.00758092 0.004178384 0.010978486 0.0053690784
0.0067144465 0.007622306 -0.006490675 0.0133011835 0.0074696885 0.021272972 0.0014228417 -0.0090293735
-0.000984828 -0.003512274 -0.028157722 0.017246898 5.5694618e-05 -0.0006329352 0.02689059 0.010657505
00000000: 89e1 153c 4ed5 76bc 7f82 2abc 3954 df3a
00000010: 8079 68b8 dbd1 15bc 7cf2 19bc bf44 fabb
00000020: 13c6 823b f112 003c c710 1c3b b9a7 1aba
00000030: 7ff7 bbb5 4b9b 37ba 6646 213c 4909 4f3c
00000040: 4bdc 3dbc 8871 1ebc 8d28 2f3c 1127 1a3c
00000050: 30e5 003c 5252 193d 9324 e3bb 19c2 debb
00000060: 9d42 8f3c 0ea8 8eba 5d31 1f3b 1d72 a3bc
00000070: 0118 56bc 5007 87bc d61e e0bb 8628 18bb
00000080: 2e68 9f3b 7b06 003b e56a 5bbc f0e1 dfba
00000090: ba88 ed3b 2156 14bc 224a e93b b262 433c
000000a0: e942 22bc d7b9 83ba cf87 623b 4a95 6a3b
000000b0: 3ae2 67bb 78c6 cfb9 a08e b4bb 4f74 5ebc
000000c0: ca77 e0bb 13ee 0bbc fdbb 843c e67d ee3a
000000d0: 1112 89bb 7ef1 f73a 4b6b 4bbb bf40 31bc
000000e0: e39d 8f3b 1864 783a f5c9 fd3b 0a23 813c
000000f0: fc6e 7cbc 6683 373c c662 85bc 7c99 1c3a
00000100: a1bb deba c55e 90bc 462a babb d657 44bb
00000110: 4c41 923c 693e d7bb 704d 3cbc 46c5 76bb
00000120: 3f47 5a3a 5418 9bbc 06f0 873b b2cb 513c
00000130: 16da c5bb 4980 5e3b 882d 00bc f6d0 9abc
00000140: 6d40 92bc 49e6 2dbb 650a 0c3c f2b3 903b
00000150: 9c52 dcbc caa8 6d3b 1332 8bba 3c1e 0fbc
00000160: fc6a 863b 97d4 9abc 996f 273c 6ce0 773b
00000170: 024f d7bb 5164 443b 429b 1f3c 5583 a3bc
00000180: f3a8 13bc e81e 6b3c 26b0 853c dcf3 10bc
00000190: 8481 97bb 5a9b 7f3b 27fb 743a 1441 2e3c
000001a0: 5d27 5e3c 1564 9abc 0332 bebb 1c87 693c
000001b0: 7894 a0bc fd0e 5ebb 9f8f 273c 8de0 efbb
000001c0: 5e70 3b3c c4ff ba3b 7fae a4bc de9e bdbc
000001d0: 3f18 97ba 92ad 623b 7733 67b9 c0a1 bf3b
000001e0: 5aa7 993a c4b9 053c eba3 8ebb 81c5 b8ba
000001f0: a7ca b3ba 9367 1bbc a1db 8b3b e83b 823c
00000200: 4821 5dbb 3886 963a 2c95 8f3b f146 bd3b
00000210: f874 88bb 2d33 cd3b 3d4a 3dbc ec5e 2dbc
00000220: 9cc0 e5bb 95e5 9a3b 2658 1cbc f381 cb3a
00000230: ebc3 253b 950d c73b ba8d 47bb b0e9 adbb
00000240: dc82 aebb 9e39 1cbc 5bdc 6abc 120d 313c
00000250: a3f9 0f3c 8590 21bc 48d5 e2bb e385 d6bc
00000260: bdea 0dbb 227f 8abb 90a0 83ba 780a babc
00000270: 37e1 adbb 0b9d 28bc 5e0e 49bc 4425 a5bb
00000280: 3169 5ebc 58c8 7ebc 75be 3c3c 35a0 423c
00000290: 58d3 ca3a 74fe 5bb9 2d23 78bb 8b57 95b9
000002a0: 63de 84ba 8f06 283c ad4e dbbb f139 4cbc
000002b0: 002e 503a 5615 95bb b719 c6bb 8f34 00bc
000002c0: d0c2 46bc 175b 7d3c 0bbd 8bbb 8864 cd3b
000002d0: 420d 1f3b 7832 87bc 47fc 38bb e6e9 9cbb
000002e0: cbcd 96bc 051a 783a e062 afbb d933 d7b9
000002f0: 4175 1bbc 3f35 783b 33c2 973b aa09 36bc
00000300: 6cab 53bb e7bc 3fbc e8bf 30bb 6a49 ecbb
00000310: 9025 16bc 0550 3abc ffd9 e7bc a188 1cbc
00000320: 8a64 8f3a f733 d6bc 5a70 1cba 2dc3 0a3c
00000330: 73c5 2d3a 053d 54ba 135b bfba d0e5 aa3b
00000340: 229d e33a d369 21bc c934 d2bb 8070 113c
00000350: a354 ca3b 861b 6fbb 7214 ea3a 3596 35bc
00000360: b74a 2d3c 0df4 973a 60c3 24ba b84c a63b
00000370: ba0e 58bc 8cd2 ff3a 3fc7 30bc bd98 243c
00000380: 25f7 143c 0a22 6ebc 7d11 a2bc d32a 95bc
00000390: 06c0 c23b fd06 e03b aa2c 983a ce40 24bc
000003a0: 0875 9e3c d43f 333c fbfa c8bb c92b ddbb
000003b0: 5e69 f8bb d3ea 883b 1cdf 333c 18ef af3b
000003c0: dc04 dc3b 89c4 f93b baaf d4bb 35ed 593c
000003d0: 4ac4 f43b a844 ae3c a57e ba3a f0ef 13bc
000003e0: 5815 81ba 2e2e 66bb 06ab e6bc 5e49 8d3c
000003f0: a499 6938 90eb 25ba a849 dc3c d19c 2e3c

hidden_features.2.bias f4 [50]
-0.017352454 -0.006329748 -0.0023891653 0.0 0.052242365 0.00553945 -2.1503081e-05 -0.008830515
-0.0071924883 0.020949474 -0.006681644 0.009600592 0.03144773 0.0021088854 0.064908095 -0.00086019334
0.06097855 -0.0069262763 0.014117598 0.04722994 -0.0055804825 0.062724024 0.050670315 0.07617201
-0.0051232683 0.028191442 0.013609053 0.007997481 0.014061558 0.028583014 0.007177206 0.03297278
-0.0038465399 0.005572842 0.0066239405 -0.010433687 0.016824013 0.016190788 0.013249757 -0.011740594
-0.0055041877 -0.014922853 -0.0033738124 -0.0045165154 0.014586886 0.008978033 0.16080946 0.043198287
-0.006597468 -0.0060431142
00000000: bc26 8ebc c669 cfbb 8b93 1cbb 0000 0000
00000010: 17fc 553d 4684 b53b 8461 b4b7 ddad 10bc
00000020: f7ae ebbb 3b9e ab3c b1f1 dabb cd4b 1d3c
00000030: 56cf 003d 3a35 0a3b 89ee 843d 997e 61ba
00000040: a5c4 793d d1f5 e2bb 7f4d 673c 2e74 413d
00000050: 7bdc b6bb 7475 803d ad8b 4f3d 1200 9c3d
00000060: 17e1 a7bb bdf1 e63c 81f8 5e3c de07 033c
00000070: 7362 663c ed26 ea3c c52e eb3b 770e 073d
00000080: 3b16 7cbb 639c b63b a40d d93b 0ef2 2abc
00000090: 83d2 893c 8ba2 843c 8215 593c 9f5b 40bc
000000a0: 795c b4bb fb7e 74bc 2e1b 5dbb 47ff 93bb
000000b0: d6fd 6e3c 9a18 133c 3cab 243e b0f0 303d
000000c0: 932f d8bb 5105 c6bb

density_estimator_head.weight f4 [50, 11]
0.011860955 -0.00013398842 -0.0006282791 0.009768654 -0.00023873888 -0.008353654 0.001534156 0.013620028
-0.0017264523 -0.014946113 -0.009877599 0.02343241 -0.00044644473 0.0076542264 0.003760715 -0.01988677
0.016888669 -0.0009394413 0.0033243299 -0.0039059648 -0.011416699 0.015791986 -0.0052846507 0.011387189
-0.010143442 0.0042565167 0.007184985 0.0103972135 0.00916982 -0.010602462 -0.011074394 0.0014986907
-0.0042637843 -0.025981624 -0.010007665 0.020498993 -0.0033405905 0.008789614 -0.0046280203 0.014659893
-0.0031329032 -0.009399278 0.011817896 0.0007100778 -0.010509709 0.0024186228 0.024646275 -0.008365053
0.00084578514 0.00018558634 0.013485072 -0.0030851949 0.0073487666 -0.011786354 -0.0065775216 0.0118080415
-0.01743959 -0.01939358 -0.007795562 0.0073841223 -0.00041693274 0.011481858 -0.018712932 0.016636968
0.006421416 -0.009028768 0.0015555292 -0.006554005 0.004951066 -0.015755393 -0.004282515 -0.0063964752
-0.00851983 0.0063064527 -0.00013012026 0.007952242 0.0105088195 0.012483676 0.008124762 0.0011462031
0.0048937253 -0.009369094 0.004174174 0.01390616 -0.016443234 0.0058206264 0.0022343008 0.0021654223
0.016073663 0.008304516 0.01948377 0.0057458966 0.0017509692 -0.002932569 0.0073278644 0.004507486
-0.018398037 -0.016830077 -0.008677873 -0.014468326 0.0018285989 -0.018010609 -0.0012655534 -0.011295579
-0.008567374 -0.0029585834 -0.013790582 0.0029117204 -0.015671732 0.0050360584 0.00418539 0.00022024244
-0.009463163 -0.0040783226 0.012048132 0.008358494 0.0019378662 0.020114515 -0.0054109464 -0.0066280602
0.010010255 0.0028156694 -0.0114358 -0.012479843 -0.010728447 0.0053509427 0.0129682 0.008543578
0.007051477 -0.0005934357 -0.0030057537 0.013376908 0.00032487005 0.0034955575 -0.006913203 0.014107708
0.0044972384 -0.004689774 -0.008717013 -0.006621653 7.35831e-05 0.00295631 0.0018827374 0.0074713156
-0.0017944936 -0.00090445206 0.0006473616 -0.0053779557 0.016232321 -0.0059115742 -0.0035072884 -0.009887722
0.01128726 -0.01708628 0.009687121 -0.016425068 0.006943137 0.027808778 -0.007770239 0.004786305
-0.0042542694 0.011844712 -0.024908176 -0.015189795 0.015779972 0.006241065 -0.011801943 -0.015914202
0.004093799 0.000114317416 -0.0031627603 0.0052823336 -0.0046440074 0.0051465337 0.0023627551 -0.007821149
0.005488875 0.015662346 -0.014358231 -0.0012394902 -0.03406747 -0.007495044 -0.0051156734 -0.0056399615
0.0026778236 0.004113544 0.008929181 0.007573728 0.0140086925 0.0018492544 0.008788727 0.0014846213
0.011612378 0.013649464 0.005996489 0.011311277 0.016550725 0.0038904622 0.02368101 0.0001314897
-0.0067642373 -0.0042107953 0.009493512 0.013805747 0.0028219179 0.0047458303 0.0053161555 -0.016454684
0.0070909765 0.006806361 -0.00074962765 -0.004836421 -0.016585922 0.007666804 -0.01019669 0.0057203453
-0.0015092308 -0.0059317797 0.009709753 -0.010012267 0.0036741495 -0.0019352442 0.015396196 0.007052791
0.011954693 -2.0488476e-06 0.0067831706 0.0144952545 0.016145688 -0.0003793352 0.007823546 0.008626205
0.004757614 -0.0039970647 -0.00030808971 -0.00079919654 -0.004391465 -0.012403705 0.02521916 -0.0013790724
0.0073607895 -0.009775287 -0.0027355598 0.004741131 -0.009964987 -0.009552564 -0.009467649 0.009771359
-0.00020199138 0.0029219608 0.007045364 -0.018707257 -0.0008322954 0.0023399764 -0.009023692 0.018169556
00000000: 7354 423c 3e7f 0cb9 19b3 24ba b40c 203c
00000010: fb55 7ab9 c4dd 08bc bc15 c93a 8a26 5f3c
00000020: 204a e2ba 8be0 74bc a7d5 21bc 53f5 bf3c
00000030: cc10 eab9 4ed0 fa3b 5476 763b 94e9 a2bc
00000040: 1b5a 8a3c d744 76ba 00dd 593b 37fb 7fbb
00000050: 1b0d 3bbc 325e 813c dd2a adbb 5591 3a3c
00000060: ae30 26bc 407a 8b3b 0670 eb3b 1359 2a3c
00000070: 033d 163c f3b5 2dbc 6071 35bc b76f c43a
00000080: 37b7 8bbb 6ad7 d4bc 30f7 23bc 81ed a73c
00000090: cfed 5abb 5002 103c a6a6 97bb 0c30 703c
000000a0: 6551 4dbb 6eff 19bc d99f 413c 8424 3a3a
000000b0: ea30 2cbc c281 1e3b fce6 c93c 930d 09bc
000000c0: aeb7 5d3a f499 4239 7ef0 5c3c fb30 4abb
000000d0: eccd f03b 8d1b 41bc 4088 d7bb 8476 413c
000000e0: 79dd 8ebc 49df 9ebc ea71 ffbb 82f6 f13b
000000f0: c497 dab9 671e 3c3c dd4b 99bc 404a 883c
00000100: be6a d23b 66ed 13bc e6e2 cb3a fbc2 d6bb
00000110: 8d3c a23b 7411 81bc 5754 8cbb 8699 d1bb
00000120: c296 0bbc 5ca6 ce3b e470 08b9 1f4a 023c
00000130: 2f2d 2c3c 5588 4c3c b91d 053c 323c 963a
00000140: 8b5b a03b d480 19bc 82c7 883b aad6 633c
00000150: f6b3 86bc f4ba be3b 596d 123b c2e9 0d3b
00000160: eaac 833c aa0f 083c 6d9c 9f3c 1348 bc3b
00000170: c780 e53a 5830 40bb 951e f03b 88b3 933b
00000180: 7bb7 96bc 3bdf 89bc a32d 0ebc 8f0c 6dbc
00000190: 99ad ef3a fc8a 93bc ede0 a5ba 1811 39bc
000001a0: 2c5e 0cbc cbe4 41bb e5f1 61bc 90d2 3e3b
000001b0: 0162 80bc 8505 a53b 9925 893b e1f0 6639
000001c0: 620b 1bbc 73a3 85bb 8765 453c 11f2 083c
000001d0: 0000 fe3a 32c7 a43c 4f4e b1bb 3330 d9bb
000001e0: 0d02 243c 1887 383b 395d 3bbc 4178 4cbc
000001f0: 5ec6 2fbc f656 af3b 9378 543c 5dfa 0b3c
00000200: 1410 e73b cc90 1bba 2efc 44bb d22a 5b3c
00000210: 5253 aa39 b915 653b 2688 e2bb 0424 673c
00000220: 925d 933b adac 99bb cdd1 0ebc 74fa d8bb
00000230: a050 9a38 a7be 413b 2fc6 f63a f0d1 f43b
00000240: 3735 ebba c018 6dba b4b3 293a 9039 b0bb
00000250: a5f9 843c e1b5 c1bb 89da 65bb 1d00 22bc
00000260: 33ee 383c 87f8 8bbc bbb6 1e3c dd8d 86bc
00000270: 4183 e33b 3ccf e33c 7d9d febb 70d6 9c3b
00000280: 6667 8bbb 5310 423c 3b0c ccbc 9ede 78bc
00000290: 0045 813c d981 cc3b f05c 41bc 805e 82bc
000002a0: 4625 863b b2bd ef38 5046 4fbb 6d17 ad3b
000002b0: c22c 98bb 41a4 a83b 74d8 1a3b 4724 00bc
000002c0: 05dc b33b 524e 803c c93e 6bbc 6476 a2ba
000002d0: 558a 0bbd fc98 f5bb 61a1 a7bb 6dcf b8bb
000002e0: 6d7e 2f3b e8ca 863b b34b 123c 092d f83b
000002f0: b784 653c ae62 f23a 98fe 0f3c a097 c23a
00000300: d841 3e3c 00a2 5f3c 327e c43b ef52 393c
00000310: 6395 873c 20f7 7e3b adfe c13c 7fe0 0939
00000320: 89a6 ddbb b6fa 89bb ad8a 1b3c 8031 623c
00000330: edef 383b e982 9b3b 2533 ae3b f9cb 86bc
00000340: 6c5b e83b e507 df3b a982 44ba d77a 9ebb
00000350: 33df 87bc d039 fb3b 0510 27bc bc71 bb3b
00000360: 62d1 c5ba 605f c2bb a815 1f3c 7e0a 24bc
00000370: 00ca 703b 05a8 fdba 5440 7c3c 191b e73b
00000380: 9edd 433c ef7e 09b6 5c45 de3b 817d 6d3c
00000390: f643 843c 82e1 c6b9 552e 003c ed54 0d3c
000003a0: c2e5 9b3b cff9 82bb 1a87 a1b9 2c81 51ba
000003b0: 47e6 8fbb e938 4bbc 6998 ce3c fec1 b4ba
000003c0: c732 f13b 8628 20bc 1447 33bb 7d5b 9b3b
000003d0: 2f44 23bc 5b82 1cbc 331e 1bbc 0d18 203c
000003e0: a6cd 53b9 5e7e 3f3b ccdc e63b f63f 99bc
000003f0: 662e 5aba 4a5a 193b 1cd8 13bc 52d8 943c

density_estimator_head.bias f4 [11]
0.0 0.0 0.0 0.0 0.0 0.0 0.0 0.0
0.0 0.0 0.0
00000000: 0000 0000 0000 0000 0000 0000 0000 0000
00000010: 0000 0000 0000 0000 0000 0000 0000 0000
00000020: 0000 0000 0000 0000 0000 0000

Q.0.weight f4 [50, 50, 5]
0.23521546 -0.65823144 0.31377456 -0.3435435 0.32200724 -0.31180117 1.0539043 0.9837574
0.52644056 0.60463744 0.0718748 -0.25209802 -0.1016193 1.7350243 -1.0769839 -0.1387566
0.122930154 1.7689333 -1.3671561 1.1047276 0.42808813 -1.7434567 0.3718429 0.8465647
1.6728967 -0.83869135 -0.958712 -0.5494964 0.15272558 -0.48580614 0.3038439 1.06375
0.071275994 -0.372652 -0.65218806 0.9494525 2.7549005 0.07005945 1.2134567 1.4540043
0.64314216 0.8009908 -1.544473 0.4427418 1.3507193 -0.5257063 0.7253848 1.2238026
0.02070676 -1.3791336 0.2527339 -0.46732914 0.6964701 0.12829655 0.008370721 -0.27630943
1.0422393 -1.2482369 1.47801 0.5432657 -0.8719213 -0.85465443 0.34924778 0.8319007
-0.067744434 0.8846864 0.012603508 1.1564783 0.705357 1.7277553 0.80849457 0.47405213
0.8482043 1.3360184 -0.4527051 -0.030913174 -1.049591 1.0164707 -0.21994078 -0.32305336
-0.5984465 -1.8730671 -0.74767846 1.2968863 -1.8629876 -0.5303421 0.31201324 -1.1933191
-0.13873895 -0.38156155 -1.8109841 0.52581257 0.5233422 1.0393724 1.5295589 -0.20432615
-0.76018983 0.34338355 0.49226204 -0.5677374 0.31333932 1.0929911 -1.0469686 0.17475267
0.2866726 1.9754587 -0.6067977 -0.36716434 -0.4042891 0.15208104 -0.43709162 -1.3028339
1.669616 1.0356627 -1.2354383 0.91845405 0.77705735 1.06935 0.8199544 0.20187326
1.2803138 0.41936234 -0.09030736 0.30009332 2.0430546 0.55308306 0.77230483 1.6906842
0.7694294 0.3719253 0.49997377 1.9504732 -1.3832756 0.61941355 1.0702693 0.9003707
-0.28146636 -0.58052224 0.45681423 -0.77482074 -1.5141559 0.41069564 0.4176575 -0.52174264
1.3531103 -0.2842222 0.4249923 -0.7166019 0.11762988 -0.030198978 1.8803445 -0.19651699
0.06910421 -0.38834062 -0.6685659 1.837973 1.0697213 0.25772634 -0.3638476 -0.26441815
0.8757234 0.2843482 -1.1686095 0.08575235 1.2561386 0.2580074 0.45923668 -0.71331125
0.17734383 0.5881618 0.21591854 -0.91627544 -1.2217048 -0.31023356 -1.6830064 -1.3810492
-1.0109484 0.04873437 0.2679556 0.9875728 -0.77085716 -0.077365175 -0.7466998 -0.09757981
-0.9512991 -0.4923904 -0.7937502 0.99805665 -0.90542805 1.7036203 0.022537947 1.6612434
-0.7577794 0.27091232 -0.5830612 0.37346286 -2.0167284 -0.6865074 0.9653583 0.87761897
1.4983085 0.04486034 0.71314013 2.3611906 0.96507204 -0.22170946 -1.3318846 -1.6464757
-1.1235977 0.4928266 -0.5502477 -0.20431696 0.30155975 1.2192711 1.7273858 2.2943726
1.0826455 -0.75560594 -0.7622244 -1.2090883 -0.95956385 0.15565446 0.5766771 -1.1652339
0.012260722 0.4389107 1.1464958 -1.0307019 0.3886364 -1.1164659 -0.74055517 0.6312397
-1.1545008 0.8963334 0.11275224 -1.1405759 -1.1372651 -0.52806884 -1.0152082 -0.09466115
0.060351443 0.5296304 -1.583767 -0.6075185 -0.64392805 -0.18062787 -0.17001596 1.118112
0.46947697 1.048718 -0.32128188 1.3393068 -1.6563797 1.2144289 -1.0133686 -0.21495062
00000000: 52dc 703e db81 28bf 0fa7 a03e efe4 afbe
00000010: 22de a43e 67a4 9fbe 56e6 863f 86d7 7b3f
00000020: cfc4 063f 85c9 1a3f 1833 933d fe12 81be
00000030: c81d d0bd 4715 de3f 9cda 89bf 3616 0ebe
00000040: cec2 fb3d 686c e23f f9fe aebf b767 8d3f
00000050: 5e2e db3e 9729 dfbf 3162 be3e 77b8 583f
00000060: 7b21 d63f 7ab4 56bf 266e 75bf ccab 0cbf
00000070: 1864 1c3e 95bb f8be 6d91 9b3e f628 883f
00000080: 26f9 913d 3ecc bebe ccf5 26bf 520f 733f
00000090: 4a50 3040 547b 8f3d 8d52 9b3f d01c ba3f
000000a0: f7a4 243f bc0d 4d3f 4bb1 c5bf 0eaf e23e
000000b0: 5fe4 ac3f b094 06bf d1b2 393f 90a5 9c3f
000000c0: 39a1 a93c 7387 b0bf 5666 813e c445 efbe
000000d0: dd4b 323f 2c60 033e 5925 093c 6e78 8dbe
000000e0: 1968 853f 3ac6 9fbf 6f2f bd3f 7613 0b3f
000000f0: 3c36 5fbf a2ca 5abf 9bd0 b23e 72f7 543f
00000100: 98bd 8abd cf7a 623f f27e 4e3c 7b07 943f
00000110: 4792 343f 1627 dd3f 80f9 4e3f f6b6 f23e
00000120: eb23 593f a702 ab3f f6c8 e7be a03d fdbc
00000130: ff58 86bf b61b 823f 2838 61be 4067 a5be
00000140: ca33 19bf aac0 efbf db67 3fbf 5f00 a63f
00000150: 6176 eebf 80c4 07bf 33c0 9f3e aebe 98bf
00000160: 9511 0ebe 095c c3be 54ce e7bf a79b 063f
00000170: c1f9 053f 280a 853f 96c8 c33f e03a 51be
00000180: cd9b 42bf f8cf af3e c509 fc3e 3d57 11bf
00000190: 036e a03e 22e7 8b3f 1103 86bf 5df2 323e
000001a0: c0c6 923e d5db fc3f 1857 1bbf f7fc bbbe
000001b0: fbfe cebe 22bb 1b3e 79ca dfbe 43c3 a6bf
000001c0: fab5 d53f 9890 843f d822 9ebf ce1f 6b3f
000001d0: 3bed 463f 76e0 883f 88e8 513f ddb7 4e3e
000001e0: 53e1 a33f a9b6 d63e 11f3 b8bd d5a5 993e
000001f0: 68c1 0240 da96 0d3f c5b5 453f 5768 d83f
00000200: 53f9 443f fe6c be3e 90fc ff3e 1ba9 f93f
00000210: 2d0f b1bf e391 1e3f 96fe 883f b27e 663f
00000220: 5c1c 90be 1b9d 14bf 8ee3 e93e a75a 46bf
00000230: dccf c1bf b346 d23e 34d7 d53e ed90 05bf
00000240: b832 ad3f 9285 91be 9798 d93e 3973 37bf
00000250: efe7 f03d d963 f7bc 21af f03f c03b 49be
00000260: 8286 8d3d 95d4 c6be 2327 2bbf b342 eb3f
00000270: a1ec 883f b5f4 833e 3c4a babe d161 87be
00000280: 692f 603f 1696 913e ff94 95bf ee9e af3d
00000290: 26c9 a03f 8c19 843e 1221 eb3e 919b 36bf
000002a0: 9f99 353e c691 163f c019 5d3e 0791 6abf
000002b0: d360 9cbf efd6 9ebe c16c d7bf 38c6 b0bf
000002c0: c266 81bf b19d 473d 7a31 893e 92d1 7c3f
000002d0: e556 45bf a271 9ebd b827 3fbf ecd7 c7bd
000002e0: 5688 73bf 981a fcbe 3733 4bbf a480 7f3f
000002f0: 22ca 67bf 3b10 da3f 80a1 b83c a0a3 d43f
00000300: d5fd 41bf 05b5 8a3e 8043 15bf 8636 bf3e
00000310: 1412 01c0 f3be 2fbf b921 773f a3ab 603f
00000320: 93c8 bf3f 7abf 373d 5a90 363f bf1d 1740
00000330: f60e 773f ce07 63be 327b aabf b7bf d2bf
00000340: 0dd2 8fbf c553 fc3e 09dd 0cbf 7738 51be
00000350: 0a66 9a3e 1311 9c3f fa1a dd3f 00d7 1240
00000360: 2194 8a3f 646f 41bf 2321 43bf 68c3 9abf
00000370: faa5 75bf e263 1f3e 1ca1 133f 6226 95bf
00000380: 32e1 483c e7b8 e03e 60c0 923f 0aee 83bf
00000390: 5afb c63e 5be8 8ebf 0695 3dbf ed98 213f
000003a0: afc6 93bf 1b76 653f a5ea e63d 64fe 91bf
000003b0: e791 91bf 852f 07bf 58f2 81bf b4dd c1bd
000003c0: 1333 773d dc95 073f e1b8 cabf 5586 1bbf
000003d0: 78d8 24bf 83f6 38be aa18 2ebe 4b1e 8f3f
000003e0: 495f f03e 643c 863f 0f7f a4be 686e ab3f
000003f0: 4004 d4bf 6872 9b3f 10b6 81bf 041c 5cbe

Q.0.bias f4 [50, 5]
0.025929598 0.008583372 0.0059332247 0.0019352745 3.5742643e-05 0.0019875213 -6.7237874e-05 -0.000392872
-0.00018755461 1.7053473e-07 0.002914459 0.0030225015 0.0024928462 0.0007914848 2.1420028e-05 0.0014425775
-0.0008801542 -0.0015039729 -0.0007070121 -1.5815656e-05 0.0027282012 0.00085121446 0.0003016974 1.349364e-05
-9.578376e-07 0.001844665 0.0011977454 0.0011973326 0.00040635787 -1.9535344e-05 -0.00020791417 -0.0001161106
-6.5764994e-05 -1.1879757e-05 -6.986931e-07 -0.0017377515 0.0011700679 0.0010227676 0.00026494934 7.482468e-06
-0.0008987799 -0.00044284333 -0.00021587999 -2.000349e-05 7.564111e-07 -0.009623603 -0.0058239345 -0.004797442
-0.001814297 -5.4356395e-05 -0.003187327 0.0022620116 0.0037069044 0.0015571107 -3.1621217e-05 0.012438895
0.0024088256 -0.0026423112 -0.002111686 -5.4386033e-05 -0.031411804 -0.0072261714 -0.0054049557 -0.0022489135
-5.33604e-05 0.011986257 -0.00025078005 -0.00023441443 0.00025246624 9.338071e-06 0.027188558 0.0054676193
0.003211935 0.0011251144 4.732551e-05 -0.012262351 -0.0032847924 -0.002281747 -0.0008602214 -4.9543112e-05
1.7540591e-05 0.00031737232 0.000256051 7.1155926e-05 1.8540335e-06 -1.161315e-06 1.0060378e-06 8.367587e-07
1.0356147e-07 0.0 0.001475929 -0.0031017014 -0.0037626226 -0.0015306871 -3.8610295e-05 -0.0003838133
-0.0005508262 -0.00039814474 -9.260089e-05 -2.9018486e-06 0.005074344 -3.2000742e-05 -0.00012329 8.815808e-05
8.56951e-06 0.0032853007 0.0057343817 0.0046312828 0.0013704065 3.6252284e-05 -0.00014549661 -2.5991321e-05
-5.1375628e-06 -3.5121198e-10 0.0 -0.00022074544 -2.7515502e-05 3.421302e-05 2.8574374e-05 9.495776e-07
0.0023187208 0.00088514085 0.00036692445 -2.6021974e-06 0.0 0.02241215 -8.863714e-05 -0.0008525324
0.00018788787 6.725625e-05 0.002386011 -0.00062182226 -0.00049458 -6.733459e-05 -4.064971e-06 -0.006220075
-0.0009416114 -0.00036046858 -0.00012591941 -4.306812e-06 -0.002190078 -0.00016994178 7.830159e-05 5.1314557e-05
1.1794792e-05 0.0022649146 0.003657026 0.00083237735 -0.0005229108 -1.150265e-05 -0.004030716 -0.0036420568
-0.003371057 -0.0012475168 -2.9511317e-05 -0.006976255 -0.0013296505 -0.0009822946 -0.00043995725 -1.01349315e-05
0.0072897645 0.0029124143 0.0025698054 0.0010065007 2.5728777e-05 -0.0011160489 -0.0021076314 -0.0012135175
-7.524471e-05 3.831701e-07 -0.00026754278 -8.75437e-05 -3.415159e-05 -2.9896185e-06 0.0 -0.0029284412
-0.0009768468 -0.0010266191 -0.0004869454 -3.873287e-05 0.007952768 0.0032699823 0.0009361495 -0.00031474963
-8.0101534e-05 0.0050996677 0.003362481 0.00362356 0.0015831616 4.420434e-05 0.028330164 0.01597881
0.010632149 0.0026805506 6.2055326e-05 -0.014111345 -0.0059228144 -0.0047863177 -0.0017451991 -4.5835153e-05
0.007538761 0.0009773012 6.690261e-08 -6.605224e-05 -8.177451e-06 -0.00056485436 0.00019862592 0.00017044212
3.0958312e-05 4.1765256e-07 -0.00827066 -0.0041375863 -0.0032968393 -0.0011396529 -2.9707197e-05 -0.011500905
-0.0048128683 -0.002883263 -0.0006271835 4.2922096e-05 -0.0051274486 0.00026570598 0.000447965 4.9547034e-05
-1.0889243e-05 -0.0056834677 -0.0013842749 -0.00038689855 5.655144e-06 6.069614e-07 0.011318927 0.0031192778
0.0020644139 0.0007003246 3.9364545e-06 0.00012923451 8.738397e-05 6.361261e-05 2.010311e-05 2.8905993e-06
-0.0048948075 -0.0014576192 -0.0005087413 -2.3875094e-05 0.0 0.0317315 0.0025286272 0.00023631935
3.186745e-05 5.37188e-06
00000000: 4f6a d43c 46a1 0c3c 7f6b c23b 09a9 fd3a
00000010: 5fea 1538 1341 023b 0f02 8db8 63fa cdb9
00000020: 4faa 44b9 3b1c 3734 8200 3f3b 2915 463b
00000030: 055f 233b a57b 4f3a 29af b337 de14 bd3a
00000040: 26ba 66ba f520 c5ba c756 39ba ddab 84b7
00000050: 9fcb 323b 0924 5f3a 242d 9e39 be62 6237
00000060: 0d8f 80b5 b0c8 f13a abfd 9c3a d1ef 9c3a
00000070: 6e0c d539 d5df a3b7 8903 5ab9 6780 f3b8
00000080: 50eb 89b8 2b4f 47b7 d38d 3bb5 44c5 e3ba
00000090: f75c 993a 630e 863a e6e8 8a39 e911 fb36
000000a0: 199c 6bba 6d2d e8b9 d85d 62b9 2bcd a7b7
000000b0: 2d0c 4b35 51ac 1dbc b4d6 bebb dc33 9dbb
000000c0: b5cd edba bcfc 63b8 79e2 50bb 423e 143b
000000d0: 89ef 723b f717 cc3a 06a1 04b8 82cc 4b3c
000000e0: 63dd 1d3b a02a 2dbb 3664 0abb 8f1c 64b8
000000f0: aaa9 00bd 85c9 ecbb 0e1c b1bb 8262 13bb
00000100: 4bcf 5fb8 0162 443c 217b 83b9 25cd 75b9
00000110: 725d 8439 b6aa 1c37 8aba de3c b729 b33b
00000120: 547f 523b 9378 933a 617f 4638 07e8 48bc
00000130: ac45 57bb 5d89 15bb 7b80 61ba 83cc 4fb8
00000140: 2224 9337 fe64 a639 953e 8639 8c39 9538
00000150: 1bd8 f835 7bde 9bb5 3207 8735 9f9d 6035
00000160: 8565 de33 0000 0000 f673 c13a ea45 4bbb
00000170: 5596 76bb 56a1 c8ba 7df1 21b8 8d3a c9b9
00000180: 5265 10ba 15be d0b9 b932 c2b8 61bd 42b6
00000190: af46 a63b 8938 06b8 6847 01b9 82e1 b838
000001a0: c4c5 0f37 334e 573b 7be7 bb3b 04c2 973b
000001b0: 369f b33a 980d 1838 7390 18b9 f007 dab7
000001c0: 5463 acb6 b114 c1af 0000 0000 e777 67b9
000001d0: 17d1 e6b7 f37f 0f38 00b3 ef37 7ae6 7e35
000001e0: aef5 173b cc08 683a c45f c039 69a1 2eb6
000001f0: 0000 0000 af99 b73c b4e2 b9b8 7b7c 5fba
00000200: c403 4539 ed0b 8d38 9f5e 1c3b c901 23ba
00000210: b4a6 01ba fc35 8db8 d665 88b6 c5d1 cbbb
00000220: 79d6 76ba 46fd bcb9 3c09 04b9 3c83 90b6
00000230: 6987 0fbb 6632 32b9 d935 a438 963a 5738
00000240: 3fe2 4537 f66e 143b b7aa 6f3b e633 5a3a
00000250: f313 09ba 81fb 40b7 1914 84bb 93af 6ebb
00000260: f4ec 5cbb b883 a3ba 128f f7b7 1299 e4bb
00000270: ab47 aeba 56c0 80ba 10aa e6b9 3309 2ab7
00000280: fade ee3b 34de 3e3b 2e6a 283b 8fec 833a
00000290: 21d4 d737 6348 92ba 3020 0abb e40e 9fba
000002a0: b2cc 9db8 7fb6 cd34 fc44 8cb9 ab97 b7b8
000002b0: fe3d 0fb8 41a1 48b6 0000 0000 17eb 3fbb
000002c0: 8a09 80ba 9f8f 86ba b54c ffb9 1a75 22b8
000002d0: 544c 023c 334d 563b ee67 753a fb04 a5b9
000002e0: 2ffc a7b8 1d1b a73b 125d 5c3b 4079 6d3b
000002f0: 1782 cf3a 0c68 3938 a914 e83c fee5 823c
00000300: 7732 2e3c 2dac 2f3b b323 8238 4533 67bc
00000310: 2b14 c2bb 8bd6 9cbb 2abf e4ba 1f3f 40b8
00000320: b607 f73b c918 803a 19ac 8f33 8785 8ab8
00000330: e231 09b7 bc12 14ba 3d46 5039 b5b8 3239
00000340: 3cd9 0138 bb39 e034 aa81 07bc 9794 87bb
00000350: c90f 58bb 6860 95ba b833 f9b7 4b6e 3cbc
00000360: 44b5 9dbb 20f5 3cbb 9269 24ba 4007 3438
00000370: 2804 a8bb 744e 8b39 d8dc ea39 b9d0 4f38
00000380: f1b0 36b7 623c babb 8f70 b5ba a5d8 cab9
00000390: 51c1 bd36 12ee 2235 0573 393c cc6c 4c3b
000003a0: 1e4b 073b fd95 373a e315 8436 2083 0739
000003b0: e941 b738 c367 8538 1aa3 a837 1efc 4136
000003c0: 9f64 a0bb 960d bfba 0d5d 05ba 6047 c8b7
000003d0: 0000 0000 e4f8 013d 53b7 253b 7ecc 7739
000003e0: 6aa9 0538 1940 b436

Q.1.weight f4 [50, 1, 5]
1.5042747 1.0188873 -0.36663467 -0.5274058 0.75583184 0.19920003 -0.7702371 -0.058857135
0.7374226 -1.0336478 -0.12860738 1.2759068 0.32048595 -0.3141931 1.0227668 -0.3126233
-0.98451287 0.7741101 -1.310834 0.01010459 0.77017474 1.4555023 -1.0244429 0.9762854
0.38631573 0.42303523 -0.15131171 0.38723144 0.8541379 1.3201537 0.66184485 -1.095196
0.7358527 -0.1319516 0.34488875 -0.3767401 0.7796342 0.28723365 0.16410485 -0.82696664
-0.32860866 1.1855209 1.4386677 2.2729626 0.5867249 -0.3892911 -1.6548619 -1.5794184
-1.5715466 0.8865022 0.7895997 1.8763059 0.32431066 -0.022857724 -1.1710485 -1.199839
-0.99816674 -1.2277195 -0.81073 -1.2355822 -2.315052 -0.08847306 -0.60527056 -0.4467735
-0.31859887 1.2736512 0.07392677 -0.54501545 0.32476798 1.0774966 2.023237 -0.7400688
0.45517173 0.06161209 -1.0681592 -0.80518484 0.35458615 -0.24557553 -0.25639632 0.68399537
-0.04180886 0.11360533 0.031829327 0.3000006 -0.8712042 -0.81730163 0.2366621 0.110096484
-0.37630832 1.5797075 0.17559047 -1.42178 -2.2230544 0.57789195 -0.11121888 1.393706
0.5472822 -0.31802922 0.90511423 -0.20345122 0.622571 -1.3692467 1.1073773 0.033359267
0.26850846 -0.53123015 2.3812385 0.16528927 1.9063115 1.2110004 -1.2940046 0.21610114
0.5416973 -0.54134953 0.116584174 0.004626151 -0.18674077 0.18403298 -1.3186299 -0.55678415
-0.046049856 0.68960756 0.6819219 -0.5048607 -0.40725031 2.045582 0.36405572 0.12030434
0.90971506 -0.975907 0.42376688 -0.8285679 0.8311548 -2.4932177 0.07072058 -0.54396445
1.474807 -0.8232277 -1.7980647 1.8341836 -1.1731206 -0.67884403 0.01175123 -0.5850697
-0.9254092 -1.2421396 0.305446 0.29050693 0.7134639 3.161546 -0.0021838257 -1.6645361
0.15707898 -2.2295983 0.015945764 -0.5551863 0.019011663 0.072127275 -0.36635688 0.71766794
0.4094302 1.3968058 -0.33187193 -0.50083816 0.5296867 0.4706266 0.61939216 0.49305612
-0.2650853 0.064575486 -0.42474112 0.14294654 -1.0832508 -0.92410266 0.1795732 -0.21063927
-0.5352886 -0.027950063 -0.9397263 -0.20585114 -0.39768672 -0.61067617 -0.9176688 -0.7698854
-0.5229803 0.72046155 1.4797461 0.40896764 -0.29731652 0.26928887 0.7477158 1.0699612
0.8205498 0.9828149 -0.354452 -0.7029337 -1.148924 -1.2025701 -0.36260325 -1.0506895
0.7430347 -1.0851727 -0.30753842 -0.5467385 0.3930026 -0.01613466 -0.7805718 -0.26934576
-0.7582352 -0.94503784 -0.27497986 -1.1414189 -0.2997067 -1.135374 -0.3867304 -0.4570347
-0.21111083 -0.8518101 -0.1228132 -0.090157874 -0.5669265 0.9004774 1.0446572 -0.53635556
1.3002102 -1.139723 0.4059821 -0.45091748 -1.442185 0.26924527 0.73990786 -0.14450735
0.104689494 2.570949 -0.7466488 -0.6571044 -0.81523395 -1.244451 -1.1110836 -0.4626578
-0.41946644 -0.72372925 1.8809859 1.3815688 0.34331822 2.9987485 1.387031 -0.22122058
1.3106769 0.8878992
00000000: 138c c03f e66a 823f 8ab7 bbbe 1104 07bf
00000010: 327e 413f 18fb 4b3e 422e 45bf 2e14 71bd
00000020: bac7 3c3f 924e 84bf a7b1 03be ea50 a33f
00000030: bc16 a43e ebdd a0be 06ea 823f 2910 a0be
00000040: 0909 7cbf 142c 463f 69c9 a7bf b98d 253c
00000050: 2c2a 453f e64d ba3f f220 83bf d7ed 793f
00000060: 2dcb c53e 1398 d83e 75f1 1abe 3343 c63e
00000070: c8a8 5a3f ccfa a83f aa6e 293f 622f 8cbf
00000080: d860 3c3f 521e 07be 4295 b03e 14e4 c0be
00000090: 1b96 473f 4a10 933e 1a0b 283e 16b4 53bf
000000a0: 653f a8be 26bf 973f 4326 b83f 3878 1140
000000b0: 9a33 163f 2a51 c7be 84d2 d3bf 622a cabf
000000c0: 7028 c9bf cff1 623f 3523 4a3f cb2a f03f
000000d0: 0c0c a63e 1f40 bbbc ebe4 95bf 5394 99bf
000000e0: db87 7fbf ea25 9dbf 008c 4fbf 8f27 9ebf
000000f0: d029 14c0 5d31 b5bd 03f3 1abf 7fbf e4be
00000100: 641f a3be 0107 a33f eb66 973d 2286 0bbf
00000110: fd47 a63e 69eb 893f b77c 0140 2675 3dbf
00000120: 450c e93e f55c 7c3d 71b9 88bf 9820 4ebf
00000130: 518c b53e 2778 7bbe 6146 83be 521a 2f3f
00000140: c43f 2bbd e9a9 e83d 785f 023d ae99 993e
00000150: 3d07 5fbf ae3a 51bf 8d57 723e 447a e13d
00000160: 7cab c0be db33 ca3f fdcd 333e e3fc b5bf
00000170: 8646 0ec0 baf0 133f b9c6 e3bd f564 b23f
00000180: b01a 0c3f bad4 a2be 91b5 673f 8455 50be
00000190: d060 1f3f 7a43 afbf 8abe 8d3f baa3 083d
000001a0: f179 893e b3fe 07bf 3666 1840 9741 293e
000001b0: 0402 f43f 1002 9b3f f1a1 a5bf 9e49 5d3e
000001c0: adac 0a3f e295 0abf afc3 ee3d f896 973b
000001d0: f938 3fbe 2473 3c3e ddc8 a8bf 6889 0ebf
000001e0: c69e 3cbd 1f8a 303f 6f92 2e3f 8d3e 01bf
000001f0: 1d83 d0be d1ea 0240 8365 ba3e 1f62 f63d
00000200: 16e3 683f 0bd5 79bf f9f7 d83e 071d 54bf
00000210: 90c6 543f e190 1fc0 f4d5 903d 4141 0bbf
00000220: 7ac6 bc3f 0dbf 52bf fc26 e6bf 87c6 ea3f
00000230: d128 96bf b9c8 2dbf 3b88 403c 21c7 15bf
00000240: 9ee7 6cbf 6efe 9ebf 6b63 9c3e 53bd 943e
00000250: 92a5 363f c556 4a40 841e 0fbb 850f d5bf
00000260: 50d9 203e bdb1 0ec0 b1a0 823c b020 0ebf
00000270: 59be 9b3c 77b7 933d 2193 bbbe 16b9 373f
00000280: d6a0 d13e 88ca b23f 1eeb a9be ee36 00bf
00000290: 8c99 073f f8f5 f03e 7c90 1e3f da71 fc3e
000002a0: 43b9 87be 2740 843d ab77 d9be 9460 123e
000002b0: f6a7 8abf fe91 6cbf 09e2 373e d2b1 57be
000002c0: ac08 09bf 88f7 e4bc e791 70bf a4ca 52be
000002d0: 989d cbbe 4655 1cbf 58ec 6abf 3617 45bf
000002e0: 09e2 05bf 2b70 383f 5268 bd3f 3564 d13e
000002f0: df39 98be 3be0 893e 4d6a 3f3f 7df4 883f
00000300: 8d0f 523f c299 7b3f bc7a b5be 77f3 33bf
00000310: f10f 93bf d1ed 99bf 22a7 b9be fe7c 86bf
00000320: 8637 3e3f f0e6 8abf ad75 9dbe 0ef7 0bbf
00000330: a337 c93e d62c 84bc 8ed3 47bf b0e7 89be
00000340: b41b 42bf 00ee 71bf 29ca 8cbe 041a 92bf
00000350: 2873 99be ef53 91bf 8701 c6be 7400 eabe
00000360: 702d 58be 3a10 5abf 7d85 fbbd b1a4 b8bd
00000370: 1822 11bf b085 663f 54b7 853f 994e 09bf
00000380: 4a6d a63f 71e2 91bf e3dc cf3e a8de e6be
00000390: 8599 b8bf 84da 893e 9a6a 3d3f bcf9 13be
000003a0: 7267 d63d 6e8a 2440 6024 3fbf fe37 28bf
000003b0: 2cb3 50bf 2c4a 9fbf fd37 8ebf 7ce1 ecbe
000003c0: 4ec4 d6be 5246 39bf 25c4 f03f 3fd7 b03f
000003d0: 68c7 af3e 7feb 3f40 3b8a b13f a687 62be
000003e0: 43c4 a73f 5d4d 633f

Q.1.bias f4 [1, 5]
0.012737391 0.0024799027 0.0018353629 0.0008147372 1.7883647e-05
00000000: 7db0 503c dd85 223b 8f90 f03a 1794 553a
00000010: d704 9637
