logs/simu1/eval/Vcnet_tr_ckpt.pth.tar (torch, 70283 bytes, 13 tensors)

feature_weight.weight f4 [50, 6]
0.02170046 0.00057234283 0.0010774027 0.013608131 -0.009350811 -0.0085988175 0.002864374 0.008990117
-0.008713838 0.002841703 -0.0049378145 -0.004191198 -0.024927506 0.0051721972 -0.00950762 0.008515998
-0.0135937305 -0.006863733 -0.008653289 -0.003414547 -0.0031450407 -0.011724103 0.005903564 0.025749613
-0.011829747 -0.0040724287 -0.018951844 0.010507409 -0.005729338 -0.0130078215 0.011359895 0.0061594252
-0.008070457 0.0076778173 0.010393532 -0.002205124 0.014769916 0.0046291603 -0.015055357 0.008115909
0.0007908056 0.018561095 -0.009569508 -0.008373126 -0.011269758 -0.006866251 0.020771058 -0.00946991
0.009587819 -0.009992843 -0.0013185466 -0.008007969 -0.0064379233 0.003774916 0.023366805 -0.010844685
-0.025980694 0.008934855 0.010074711 0.009268774 0.0156019265 0.0025274132 -0.02550838 0.025113624
0.017709855 0.004241996 -0.009225071 0.014815658 0.008389502 -0.014493304 -0.009239925 -0.0068407515
0.002081852 0.000108243556 -0.0012703055 -0.017484562 -0.019789033 -0.0021451006 0.015013298 0.008144872
-0.0016096025 0.035084806 -0.0020166128 0.026494296 0.0121542625 -0.014566896 -0.020866642 0.020282742
0.016739756 0.0047345525 -0.0077064834 7.2101575e-05 0.016259588 -0.01964138 0.0191983 -0.00896813
-0.0048955632 0.008272578 -0.007898772 0.0024589647 0.041731577 0.020463465 0.004343132 0.0005204912
-0.014776952 -0.0018346083 0.0037548838 -0.0005182009 0.005031639 0.005901187 0.017842984 0.010424836
-0.003888693 0.0056173415 -0.014112164 0.0055631124 -0.0032458277 -0.010039456 -0.0115531 0.0014343078
0.007928455 -0.00843783 0.009608898 -0.010394317 -0.01220116 -0.0031407422 0.008820005 -0.0031926772
-0.0068620546 0.0066108317 -0.0067946436 -0.013370136 0.021841507 0.0012175756 -0.005087225 0.016140835
0.014993562 0.009361384 0.01214397 0.0083423555 -0.0047573075 0.015944399 -0.0033069176 -0.006825291
-0.0025091362 -0.023328831 1.7233651e-05 0.010484306 0.007374254 -0.008759835 0.0056582736 -0.0104431305
-0.007380259 0.0049510505 0.024130631 -0.015762081 -0.008271806 0.009105205 0.010003 -0.014057464
-0.0013434136 -0.0024196373 -0.004745937 -0.01373695 -0.0060969894 6.906251e-05 0.03234701 0.010189964
0.005027641 0.012305746 -0.005585885 0.011116412 0.025554858 0.0061448743 0.0021400973 -0.0074957884
0.0016322306 -0.0036439123 -0.0002894627 0.0027457552 -0.0053664683 -0.014922741 0.016095545 0.0010917966
0.005570778 -0.010187606 3.3356613e-05 0.01813079 -0.004605216 -0.0066198786 -0.0017101105 -0.009763403
0.004342744 0.00475647 0.009389488 -0.0043071387 -0.017540392 -0.019013042 0.009579336 -0.007079101
-0.0012477079 -0.008132583 0.008575626 -0.0016152604 8.157125e-05 -0.0016518021 -0.0024138018 -0.02500816
0.010494711 -0.011314964 -0.0003014715 0.008026925 -0.01969724 0.027406534 0.013716662 -0.0035165527
0.02244045 -0.00044583462 -0.028265081 0.024783216 0.035234813 0.05556358 0.00041879292 0.017155385
0.0032637878 0.013548936 0.019333173 0.03591455 -0.007057645 -0.012450915 0.0056434623 -0.014636534
-0.014386033 0.0025748666 -0.006746528 -0.018993549 -0.011884668 -0.0045631207 -0.012214587 0.0022076727
0.015828153 -0.0055780876 0.012844862 -0.026193487 -0.009919627 0.013711528 -0.0014340989 0.015761986
0.00061993214 0.0007777957 0.034711 0.040382896 -0.005583821 0.003608069 0.0059108236 0.010972174
00000000: 2ac5 b13c 4709 163a a337 8d3a a3f4 5e3c
00000010: 2534 19bc 0ee2 0cbc 39b8 3b3b 494b 133c
00000020: 7cc4 0ebc dd3b 3a3b 64cd a1bb 5156 89bb
00000030: c534 ccbc 897b a93b d9c5 1bbc af86 0b3c
00000040: 3db8 5ebc 2ae9 e0bb 86c6 0dbc 98c6 5fbb
00000050: 071d 4ebb 7416 40bc af72 c13b daf0 d23c
00000060: 8ed1 41bc 0272 85bb e640 9bbc 4527 2c3c
00000070: 2cbd bbbb c21e 55bc da1e 3a3c 01d5 c93b
00000080: f339 04bc 3396 fb3b a249 2a3c d783 10bb
00000090: 85fd 713c 36b0 973b beaa 76bc 97f8 043c
000000a0: 114e 4f3a 700d 983c 6dc9 1cbc 702f 09bc
000000b0: cba4 38bc 4afe e0bb 1128 aa3c ae27 1bbc
000000c0: 3a16 1d3c 05b9 23bc 15d3 acba db33 03bc
000000d0: 37f5 d2bb 9564 773b be6b bf3c e8ad 31bc
000000e0: 77d5 d4bc 8063 123c 6710 253c 0edc 173c
000000f0: 399f 7f3c f5a2 253b f3f6 d0bc 16bb cd3c
00000100: 4214 913c 7100 8b3b c124 17bc 60bd 723c
00000110: 1f74 093c 5375 6dbc 0e63 17bc 6228 e0bb
00000120: ae6f 083b d100 e338 6180 a6ba c93b 8fbc
00000130: 9c1c a2bc d194 0cbb 56fa 753c 1272 053c
00000140: 4cf9 d2ba 16b5 0f3d 2629 04bb 910a d93c
00000150: ac22 473c fda9 6ebc 85f0 aabc fe27 a63c
00000160: d021 893c 4e24 9b3b ab86 fcbb 3d35 9738
00000170: d432 853c f6e6 a0bc c145 9d3c 10ef 12bc
00000180: f66a a0bb b589 073c da69 01bc 9526 213b
00000190: bbee 2a3d ffa2 a73c d550 8e3b 9371 083a
000001a0: 071b 72bc 3d77 f0ba 7f14 763b e0d7 07ba
000001b0: 72e0 a43b bf5e c13b 732b 923c eecc 2a3c
000001c0: 71d9 7ebb ad11 b83b b536 67bc c54a b63b
000001d0: f4b7 54bb 887c 24bc 3749 3dbc 62ff bb3a
000001e0: 5ae6 013c d33e 0abc a46e 1d3c ed4c 2abc
000001f0: 60e7 47bc e9d4 4dbb c881 103c 3c3c 51bb
00000200: 16db e0bb ad9f d83b 9aa5 debb 6a0e 5bbc
00000210: f6ec b23c 0f97 9f3a bdb2 a6bb c939 843c
00000220: 8fa7 753c 7e60 193c 80f7 463c 60ae 083c
00000230: 30e3 9bbb d49d 823c dfb8 58bb b1a6 dfbb
00000240: 5270 24bb 1b1c bfbc fc90 9037 5ec6 2b3c
00000250: baa3 f13b 6985 0fbc 0a69 b93b aa19 2bbc
00000260: 1ad6 f1bb 6c3c a23b 9aad c53c 7b1f 81bc
00000270: 7886 07bc ff2d 153c 9fe3 233c 4751 66bc
00000280: 7b15 b0ba c792 1ebb ce83 9bbb f210 61bc
00000290: 41c9 c7bb a7d5 9038 4c7e 043d cff3 263c
000002a0: e9be a43b 0a9e 493c cd09 b7bb 9c21 363c
000002b0: 6c58 d13c f15a c93b e040 0c3b 3b9f f5bb
000002c0: 92f0 d53a b4ce 6ebb 07c3 97b9 21f2 333b
000002d0: 33d9 afbb 837e 74bc ceda 833c 9d1a 8f3a
000002e0: 138b b63b ebe9 26bc 64e8 0b38 0687 943c
000002f0: 5ae7 96bb 91eb d8bb c925 e0ba aef6 1fbc
00000300: 944d 8e3b 2adc 9b3b 5ed6 193c e622 8dbb
00000310: deb0 8fbc 3dc1 9bbc a6f2 1c3c cef7 e7bb
00000320: 218a a3ba 873e 05bc c880 0c3c 25b7 d3ba
00000330: 3b11 ab38 4881 d8ba e030 1ebb eadd ccbc
00000340: 02f2 2b3c 6662 39bc d20e 9eb9 5d83 033c
00000350: 1b5c a1bc ab83 e03c dabb 603c f775 66bb
00000360: 09d5 b73c e9be e9b9 2c8c e7bc 2c06 cb3c
00000370: 6152 103d a396 633d 6f91 db39 7389 8c3c
00000380: 46e5 553b 5bfc 5d3c 9a60 9e3c 231b 133d
00000390: d143 e7bb ecfe 4bbc cbec b83b 13ce 6fbc
000003a0: 65b3 6bbc 18bf 283b fb11 ddbb 5c98 9bbc
000003b0: e9b7 42bc 3b86 95bb b11f 48bc 9aae 103b
000003c0: 0baa 813c 64c8 b6bb 4273 523c b993 d6bc
000003d0: ee85 22bc 51a6 603c 60f8 bbba 481f 813c
000003e0: f182 223a fce4 4b3a 1f2d 0e3d 8968 253d
000003f0: 7cf8 b6bb 5a75 6c3b 95af c13b a2c4 333c

feature_weight.bias f4 [50]
0.003201033 -0.0015759959 -0.0007982275 0.0030916077 0.0 -0.0009388432 0.0048181205 0.0006303162
0.0032341182 0.0030778665 -0.00034027113 0.0022175724 -5.1320174e-05 0.0021029522 0.0054879794 0.0067786346
-0.0009311425 -0.0021535826 0.0009202135 -0.000792371 0.001628469 -0.0031048488 0.0022705065 -0.00067096186
0.003277292 -0.002270168 0.004225359 0.006514732 -0.002718538 0.00043803992 -8.937751e-05 0.0040158606
-0.00014690527 -0.000114518894 0.0003450903 0.0070002363 0.0036529338 0.005423173 0.0 0.0
0.009460018 0.0038548885 -0.0028986554 0.0030262114 -0.0016194531 -0.0012017704 -0.0010677954 0.0050016223
0.00018996741 -0.0037281788
00000000: 6cc8 513b a691 ceba 2440 51ba 929c 4a3b
00000010: 0000 0000 b31c 76ba 53e1 9d3b ce3b 253a
00000020: 80f3 533b 08b6 493b 6b66 b2b9 b154 113b
00000030: 9e40 57b8 afd1 093b 82d4 b33b 4f1f de3b
00000040: ea17 74ba 1f23 0dbb 7c3a 713a 1eb7 4fba
00000050: 5a72 d53a b87a 4bbb c7cc 143b 7de3 2fba
00000060: d6c7 563b 19c7 14bb e174 8a3b 8879 d53b
00000070: 8029 32bb b9a8 e539 2f70 bbb8 7b97 833b
00000080: 950a 1ab9 dd29 f0b8 3ced b439 3d62 e53b
00000090: 0f66 6f3b dfb4 b13b 0000 0000 0000 0000
000000a0: 31fe 1a3c 4ca2 7c3b 5ef7 3dbb 6753 463b
000000b0: d443 d4ba b984 9dba 45f5 8bba a6e4 a33b
000000c0: fd31 4739 7654 74bb

hidden_features.0.weight f4 [50, 6]
0.02170046 0.00057234283 0.0010774027 0.013608131 -0.009350811 -0.0085988175 0.002864374 0.008990117
-0.008713838 0.002841703 -0.0049378145 -0.004191198 -0.024927506 0.0051721972 -0.00950762 0.008515998
-0.0135937305 -0.006863733 -0.008653289 -0.003414547 -0.0031450407 -0.011724103 0.005903564 0.025749613
-0.011829747 -0.0040724287 -0.018951844 0.010507409 -0.005729338 -0.0130078215 0.011359895 0.0061594252
-0.008070457 0.0076778173 0.010393532 -0.002205124 0.014769916 0.0046291603 -0.015055357 0.008115909
0.0007908056 0.018561095 -0.009569508 -0.008373126 -0.011269758 -0.006866251 0.020771058 -0.00946991
0.009587819 -0.009992843 -0.0013185466 -0.008007969 -0.0064379233 0.003774916 0.023366805 -0.010844685
-0.025980694 0.008934855 0.010074711 0.009268774 0.0156019265 0.0025274132 -0.02550838 0.025113624
0.017709855 0.004241996 -0.009225071 0.014815658 0.008389502 -0.014493304 -0.009239925 -0.0068407515
0.002081852 0.000108243556 -0.0012703055 -0.017484562 -0.019789033 -0.0021451006 0.015013298 0.008144872
-0.0016096025 0.035084806 -0.0020166128 0.026494296 0.0121542625 -0.014566896 -0.020866642 0.020282742
0.016739756 0.0047345525 -0.0077064834 7.2101575e-05 0.016259588 -0.01964138 0.0191983 -0.00896813
-0.0048955632 0.008272578 -0.007898772 0.0024589647 0.041731577 0.020463465 0.004343132 0.0005204912
-0.014776952 -0.0018346083 0.0037548838 -0.0005182009 0.005031639 0.005901187 0.017842984 0.010424836
-0.003888693 0.0056173415 -0.014112164 0.0055631124 -0.0032458277 -0.010039456 -0.0115531 0.0014343078
0.007928455 -0.00843783 0.009608898 -0.010394317 -0.01220116 -0.0031407422 0.008820005 -0.0031926772
-0.0068620546 0.0066108317 -0.0067946436 -0.013370136 0.021841507 0.0012175756 -0.005087225 0.016140835
0.014993562 0.009361384 0.01214397 0.0083423555 -0.0047573075 0.015944399 -0.0033069176 -0.006825291
-0.0025091362 -0.023328831 1.7233651e-05 0.010484306 0.007374254 -0.008759835 0.0056582736 -0.0104431305
-0.007380259 0.0049510505 0.024130631 -0.015762081 -0.008271806 0.009105205 0.010003 -0.014057464
-0.0013434136 -0.0024196373 -0.004745937 -0.01373695 -0.0060969894 6.906251e-05 0.03234701 0.010189964
0.005027641 0.012305746 -0.005585885 0.011116412 0.025554858 0.0061448743 0.0021400973 -0.0074957884
0.0016322306 -0.0036439123 -0.0002894627 0.0027457552 -0.0053664683 -0.014922741 0.016095545 0.0010917966
0.005570778 -0.010187606 3.3356613e-05 0.01813079 -0.004605216 -0.0066198786 -0.0017101105 -0.009763403
0.004342744 0.00475647 0.009389488 -0.0043071387 -0.017540392 -0.019013042 0.009579336 -0.007079101
-0.0012477079 -0.008132583 0.008575626 -0.0016152604 8.157125e-05 -0.0016518021 -0.0024138018 -0.02500816
0.010494711 -0.011314964 -0.0003014715 0.008026925 -0.01969724 0.027406534 0.013716662 -0.0035165527
0.02244045 -0.00044583462 -0.028265081 0.024783216 0.035234813 0.05556358 0.00041879292 0.017155385
0.0032637878 0.013548936 0.019333173 0.03591455 -0.007057645 -0.012450915 0.0056434623 -0.014636534
-0.014386033 0.0025748666 -0.006746528 -0.018993549 -0.011884668 -0.0045631207 -0.012214587 0.0022076727
0.015828153 -0.0055780876 0.012844862 -0.026193487 -0.009919627 0.013711528 -0.0014340989 0.015761986
0.00061993214 0.0007777957 0.034711 0.040382896 -0.005583821 0.003608069 0.0059108236 0.010972174
00000000: 2ac5 b13c 4709 163a a337 8d3a a3f4 5e3c
00000010: 2534 19bc 0ee2 0cbc 39b8 3b3b 494b 133c
00000020: 7cc4 0ebc dd3b 3a3b 64cd a1bb 5156 89bb
00000030: c534 ccbc 897b a93b d9c5 1bbc af86 0b3c
00000040: 3db8 5ebc 2ae9 e0bb 86c6 0dbc 98c6 5fbb
00000050: 071d 4ebb 7416 40bc af72 c13b daf0 d23c
00000060: 8ed1 41bc 0272 85bb e640 9bbc 4527 2c3c
00000070: 2cbd bbbb c21e 55bc da1e 3a3c 01d5 c93b
00000080: f339 04bc 3396 fb3b a249 2a3c d783 10bb
00000090: 85fd 713c 36b0 973b beaa 76bc 97f8 043c
000000a0: 114e 4f3a 700d 983c 6dc9 1cbc 702f 09bc
000000b0: cba4 38bc 4afe e0bb 1128 aa3c ae27 1bbc
000000c0: 3a16 1d3c 05b9 23bc 15d3 acba db33 03bc
000000d0: 37f5 d2bb 9564 773b be6b bf3c e8ad 31bc
000000e0: 77d5 d4bc 8063 123c 6710 253c 0edc 173c
000000f0: 399f 7f3c f5a2 253b f3f6 d0bc 16bb cd3c
00000100: 4214 913c 7100 8b3b c124 17bc 60bd 723c
00000110: 1f74 093c 5375 6dbc 0e63 17bc 6228 e0bb
00000120: ae6f 083b d100 e338 6180 a6ba c93b 8fbc
00000130: 9c1c a2bc d194 0cbb 56fa 753c 1272 053c
00000140: 4cf9 d2ba 16b5 0f3d 2629 04bb 910a d93c
00000150: ac22 473c fda9 6ebc 85f0 aabc fe27 a63c
00000160: d021 893c 4e24 9b3b ab86 fcbb 3d35 9738
00000170: d432 853c f6e6 a0bc c145 9d3c 10ef 12bc
00000180: f66a a0bb b589 073c da69 01bc 9526 213b
00000190: bbee 2a3d ffa2 a73c d550 8e3b 9371 083a
000001a0: 071b 72bc 3d77 f0ba 7f14 763b e0d7 07ba
000001b0: 72e0 a43b bf5e c13b 732b 923c eecc 2a3c
000001c0: 71d9 7ebb ad11 b83b b536 67bc c54a b63b
000001d0: f4b7 54bb 887c 24bc 3749 3dbc 62ff bb3a
000001e0: 5ae6 013c d33e 0abc a46e 1d3c ed4c 2abc
000001f0: 60e7 47bc e9d4 4dbb c881 103c 3c3c 51bb
00000200: 16db e0bb ad9f d83b 9aa5 debb 6a0e 5bbc
00000210: f6ec b23c 0f97 9f3a bdb2 a6bb c939 843c
00000220: 8fa7 753c 7e60 193c 80f7 463c 60ae 083c
00000230: 30e3 9bbb d49d 823c dfb8 58bb b1a6 dfbb
00000240: 5270 24bb 1b1c bfbc fc90 9037 5ec6 2b3c
00000250: baa3 f13b 6985 0fbc 0a69 b93b aa19 2bbc
00000260: 1ad6 f1bb 6c3c a23b 9aad c53c 7b1f 81bc
00000270: 7886 07bc ff2d 153c 9fe3 233c 4751 66bc
00000280: 7b15 b0ba c792 1ebb ce83 9bbb f210 61bc
00000290: 41c9 c7bb a7d5 9038 4c7e 043d cff3 263c
000002a0: e9be a43b 0a9e 493c cd09 b7bb 9c21 363c
000002b0: 6c58 d13c f15a c93b e040 0c3b 3b9f f5bb
000002c0: 92f0 d53a b4ce 6ebb 07c3 97b9 21f2 333b
000002d0: 33d9 afbb 837e 74bc ceda 833c 9d1a 8f3a
000002e0: 138b b63b ebe9 26bc 64e8 0b38 0687 943c
000002f0: 5ae7 96bb 91eb d8bb c925 e0ba aef6 1fbc
00000300: 944d 8e3b 2adc 9b3b 5ed6 193c e622 8dbb
00000310: deb0 8fbc 3dc1 9bbc a6f2 1c3c cef7 e7bb
00000320: 218a a3ba 873e 05bc c880 0c3c 25b7 d3ba
00000330: 3b11 ab38 4881 d8ba e030 1ebb eadd ccbc
00000340: 02f2 2b3c 6662 39bc d20e 9eb9 5d83 033c
00000350: 1b5c a1bc ab83 e03c dabb 603c f775 66bb
00000360: 09d5 b73c e9be e9b9 2c8c e7bc 2c06 cb3c
00000370: 6152 103d a396 633d 6f91 db39 7389 8c3c
00000380: 46e5 553b 5bfc 5d3c 9a60 9e3c 231b 133d
00000390: d143 e7bb ecfe 4bbc cbec b83b 13ce 6fbc
000003a0: 65b3 6bbc 18bf 283b fb11 ddbb 5c98 9bbc
000003b0: e9b7 42bc 3b86 95bb b11f 48bc 9aae 103b
000003c0: 0baa 813c 64c8 b6bb 4273 523c b993 d6bc
000003d0: ee85 22bc 51a6 603c 60f8 bbba 481f 813c
000003e0: f182 223a fce4 4b3a 1f2d 0e3d 8968 253d
000003f0: 7cf8 b6bb 5a75 6c3b 95af c13b a2c4 333c

hidden_features.0.bias f4 [50]
0.003201033 -0.0015759959 -0.0007982275 0.0030916077 0.0 -0.0009388432 0.0048181205 0.0006303162
0.0032341182 0.0030778665 -0.00034027113 0.0022175724 -5.1320174e-05 0.0021029522 0.0054879794 0.0067786346
-0.0009311425 -0.0021535826 0.0009202135 -0.000792371 0.001628469 -0.0031048488 0.0022705065 -0.00067096186
0.003277292 -0.002270168 0.004225359 0.006514732 -0.002718538 0.00043803992 -8.937751e-05 0.0040158606
-0.00014690527 -0.000114518894 0.0003450903 0.0070002363 0.0036529338 0.005423173 0.0 0.0
0.009460018 0.0038548885 -0.0028986554 0.0030262114 -0.0016194531 -0.0012017704 -0.0010677954 0.0050016223
0.00018996741 -0.0037281788
00000000: 6cc8 513b a691 ceba 2440 51ba 929c 4a3b
00000010: 0000 0000 b31c 76ba 53e1 9d3b ce3b 253a
00000020: 80f3 533b 08b6 493b 6b66 b2b9 b154 113b
00000030: 9e40 57b8 afd1 093b 82d4 b33b 4f1f de3b
00000040: ea17 74ba 1f23 0dbb 7c3a 713a 1eb7 4fba
00000050: 5a72 d53a b87a 4bbb c7cc 143b 7de3 2fba
00000060: d6c7 563b 19c7 14bb e174 8a3b 8879 d53b
00000070: 8029 32bb b9a8 e539 2f70 bbb8 7b97 833b
00000080: 950a 1ab9 dd29 f0b8 3ced b439 3d62 e53b
00000090: 0f66 6f3b dfb4 b13b 0000 0000 0000 0000
000000a0: 31fe 1a3c 4ca2 7c3b 5ef7 3dbb 6753 463b
000000b0: d443 d4ba b984 9dba 45f5 8bba a6e4 a33b
000000c0: fd31 4739 7654 74bb

hidden_features.2.weight f4 [50, 50]
-0.005563066 0.0046830727 0.01044781 0.004894701 0.022573581 -0.005463158 0.007204975 0.016786966
-0.002264993 -0.011539967 0.009400174 0.0028377129 0.01662848 0.0066374205 0.0061902143 0.009683271
-0.0134456605 0.0080926595 0.006537739 0.0091474205 -0.012526652 0.019872101 -0.0016086549 0.0018242344
0.013254729 0.015723756 -0.0035159313 -0.013260429 -0.014376066 0.008963046 0.009784993 0.003456334
0.0056490973 -0.0068567153 -0.0117094945 0.0009021288 0.0012153579 -0.006461834 0.0021144107 0.03125974
-0.016698405 -0.006633189 0.015165918 0.010169717 -0.0031283707 -0.002972768 0.0055924584 -0.0051838653
0.011752568 0.006109638 -0.0044154446 0.005174842 0.004928449 -0.022464572 -0.012289814 0.004163407
0.0005868277 -0.0062218322 -0.0020376074 0.010535374 -0.004112607 -0.003444435 0.0022140557 0.008614089
0.0027542755 0.008724899 0.0040381397 -0.01118942 -0.015746927 -0.0020922534 0.017440792 -0.012708559
-0.005013648 0.012728131 -0.012203812 -0.001887834 0.0061763516 0.0058715665 0.016499925 0.001729537
0.00067214563 -0.006702668 0.008428705 -0.003816282 -0.0046391054 6.5137756e-05 -0.0077442015 0.01005846
0.012278587 0.004214402 -0.005017175 0.006657039 0.009514996 -0.002436366 0.003593347 -0.010277697
-0.0035642437 0.013932841 -0.013670422 0.0015129481 0.0020758281 -0.008708268 0.0014342412 -0.02028165
0.009649189 -0.0016734137 -0.0033763524 -0.0069375536 -0.0019385496 0.029663643 0.0072313277 -0.0011950135
0.021756858 -0.0029840095 0.00963297 0.010402669 0.007262677 0.0079872515 0.0043351445 -0.0010845603
-0.0011722001 0.016351921 -0.0013094703 -0.011474306 -0.010427071 0.0076195216 -0.008146289 -0.009644947
0.003357428 0.0012011435 -0.006382846 -0.018719707 0.0036829275 -0.0013283059 -0.012717675 0.014311674
0.013507345 0.0011655862 -0.0035334746 -0.0023616748 0.008706363 -0.007074083 -0.0006424452 0.0017503442
0.009509585 -0.0069936677 -0.0017517828 -0.011067661 0.012826557 0.0113196485 -0.0146329785 -0.00466427
-0.008872241 -2.148004e-05 0.025603492 -0.016905034 -0.005938238 -0.007589248 0.005172614 0.0025585652
-0.002388096 -0.010268842 0.0057017617 0.0026546575 0.0005022793 -0.007168436 -0.0035604315 0.0033521063
-0.020191787 -0.0038840764 0.0058380202 0.0030968569 0.0063653453 0.0010889773 0.030535612 -0.013405998
0.018373566 -0.008154183 -0.0006029288 0.016095601 -0.010717575 0.0031403925 0.0023024278 0.008102028
0.0015520658 0.008042247 0.015293915 0.00980674 0.015175272 0.0013390647 -0.0022662075 0.019786704
-0.0024470654 -7.436071e-05 -0.0013423219 -0.021825556 0.012319976 -0.0034801676 -0.0034453105 -0.018232595
0.0027978125 -0.01588205 -0.0027303337 -0.012326047 0.0072987895 0.01970792 -0.020082884 -0.0013751879
-0.003815221 -0.00019499758 -0.02000059 -0.002014207 -0.011633645 0.0057407436 0.004712976 -0.007084671
-0.0051477924 0.0028962751 0.008093388 0.0053283353 -0.006937463 0.0038201625 0.019478204 -0.0033590046
0.004553169 0.004137583 0.00776765 -0.009759846 0.01474308 -0.0051604183 0.0021473083 0.000569568
-0.0066920654 -0.007440281 0.004033018 0.005950718 -0.005245158 0.0036564341 0.0137795415 0.0052429573
0.0005229236 -0.0230342 -0.0011905085 0.012479567 -0.005781276 -0.0048345095 -0.009527609 0.008534161
0.0052853865 0.023872446 -0.003769467 0.012390849 -5.77842e-06 0.0074556675 -0.0022730536 0.0014395518
00000000: 614a b6bb 7674 993b 4b2d 2b3c ba63 a03b
00000010: 3bec b83c 4a04 b3bb b617 ec3b d284 893c
00000020: 4770 14bb 2112 3dbc 3003 1a3c ecf8 393b
00000030: 7338 883c b87e d93b 48d7 ca3b 95a6 1e3c
00000040: 304b 5cbc 1397 043c 883a d63b 10df 153c
00000050: 963c 4dbc d1ca a23c 80d9 d2ba 261b ef3a
00000060: 5d2a 593c 1bcf 803c 8a6b 66bb 4542 59bc
00000070: 9789 6bbc bdd9 123c 3c51 203c a983 623b
00000080: 101c b93b 4cae e0bb 2ed9 3fbc d77c 6c3a
00000090: a54c 9f3a cbbd d3bb ed91 0a3b 370a 003d
000000a0: 18cb 88bc 395b d9bb 787a 783c e29e 263c
000000b0: 5a05 4dbb c5d2 42bb f140 b73b 6add a9bb
000000c0: d88d 403c 5c33 c83b 6faf 90bb b991 a93b
000000d0: d47e a13b 9f07 b8bc 375b 49bc 306d 883b
000000e0: 57d5 193a 83e0 cbbb 6189 05bb 909c 2c3c
000000f0: 0cc3 86bb 08bc 61bb b119 113b 1c22 0d3c
00000100: 1381 343b e1f2 0e3c 5f52 843b d453 37bc
00000110: b3ff 80bc 301e 09bb fedf 8e3c 8f37 50bc
00000120: 8749 a4bb a789 503c 7ff2 47bc 3371 f7ba
00000130: fe62 ca3b 4566 c03b da2a 873c a2b1 e23a
00000140: ee32 303a 0ea2 dbbb 8d18 0a3c 961a 7abb
00000150: a303 98bb 919a 8838 12c3 fdbb 3dcc 243c
00000160: 202c 493c f718 8a3b 1d67 a4bb 4a23 da3b
00000170: c9e4 1b3c 70ab 1fbb 5c7e 6b3b c963 28bc
00000180: 1696 69bb 9246 643c e8f9 5fbc 1d4e c63a
00000190: 9e0a 083b 20ad 0ebc 26fd bb3a b425 a6bc
000001a0: a217 1e3c 7256 dbba cb45 5dbb 6b54 e3bb
000001b0: ee16 feba 2b01 f33c c6f4 ec3b 00a2 9cba
000001c0: 703b b23c 5f8f 43bb 9bd3 1d3c f56f 2a3c
000001d0: c0fb ed3b f6dc 023c d40d 8e3b ce27 8eba
000001e0: 82a4 99ba 77f4 853c 88a2 abba bafe 3bbc
000001f0: 4ed6 2abc 2ead f93b 0378 05bc d705 1ebc
00000200: 4b08 5c3b b06f 9d3a 3127 d1bb 125a 99bc
00000210: 455d 713b 8d1a aeba cc5d 50bc 837b 6a3c
00000220: e94d 5d3c 95c6 983a de91 67bb 54c6 1abb
00000230: 22a5 0e3c b6cd e7bb c469 28ba ce6b e53a
00000240: 17ce 1b3c 232b e5bb 149c e5ba 2355 35bc
00000250: 7b26 523c 0c76 393c 29bf 6fbc bcd6 98bb
00000260: e05c 11bc 0930 b4b7 6abe d13c 6d7c 8abc
00000270: 8d95 c2bb 3aaf f8bb 087f a93b 9aad 273b
00000280: 9a81 1cbb a53e 28bc d8d5 ba3b c3f9 2d3b
00000290: 65ab 033a 33e5 eabb 2156 69bb 03af 5b3b
000002a0: 3f69 a5bc fd8b 7ebb dd4c bf3b a3f4 4a3b
000002b0: 6394 d03b 04bc 8e3a d225 fa3c d5a4 5bbc
000002c0: 2984 963c 1f99 05bc de0d 1eba ecda 833c
000002d0: c598 2fbc 0bcf 4d3b 54e4 163b 5ebe 043c
000002e0: b06e cb3a a1c3 033c 5493 7a3c 73ac 203c
000002f0: b4a1 783c 8e83 af3a a784 14bb ba17 a23c
00000300: f25e 20bb 1af2 9bb8 d9f0 afba 82cb b2bc
00000310: bad9 493c 8613 64bb b8ca 61bb 865c 95bc
00000320: 815b 373b 131b 82bc 66ef 32bb 30f3 49bc
00000330: af2a ef3b 8172 a13c dc84 a4bc a63f b4ba
00000340: c908 7abb 4478 4cb9 47d8 a3bc c900 04bb
00000350: 0b9b 3ebc d91c bc3b 4f6f 9a3b 8726 e8bb
00000360: d0ae a8bb 6fcf 3d3b 219a 043c 5199 ae3b
00000370: a853 e3bb b15b 7a3b c190 9f3c bf22 5cbb
00000380: c032 953b 9094 873b c587 fe3b c3e7 1fbc
00000390: f68c 713c ba18 a9bb dbb9 0c3b 104f 153a
000003a0: 1d49 dbbb 9acd f3bb 6827 843b 3efe c23b
000003b0: 93df abbb c9a0 6f3b 96c3 613c 1dcd ab3b
000003c0: cf14 093a 38b2 bcbc d60a 9cba 1977 4c3c
000003d0: dc70 bdbb ce6a 9ebb b019 1cbc ded2 0b3c
000003e0: 0931 ad3b 2690 c33c 2909 77bb fd02 4b3c
000003f0: 40e4 c1b6 ac4e f43b 83f7 14bb 58af bc3a

hidden_features.2.bias f4 [50]
-0.001449704 -0.0024750663 -0.005024558 -0.00334786 -0.002404766 -0.007235725 0.055531945 -0.009622302
0.053609695 -0.0051283482 -0.0021948817 0.003967054 -0.003028235 -0.00031641766 -0.005780707 -0.0079169925
-0.006092349 -0.005478876 0.038722947 0.05416375 0.041910507 0.062501915 0.0 -0.006258505
0.00411377 -0.003670539 -0.0034996667 -0.00090569316 0.055576276 -0.0029256798 0.07720862 -6.755536e-05
-0.0045688697 -0.013037377 0.02273567 0.11375619 0.028344018 0.107192114 -0.00082759483 -0.011912271
0.029902706 0.0 0.0 -0.0053067496 0.0055935336 -0.0064165043 -0.006725792 0.028569158
-0.0031787115 -0.0012591789
00000000: ff03 beba b934 22bb 0ca5 a4bb c567 5bbb
00000010: 4799 1dbb a919 edbb 7775 633d dca6 1dbc
00000020: d795 5b3d b40b a8bb 01d8 0fbb 10fe 813b
00000030: 5a75 46bb dce4 a5b9 166c bdbb 46b6 01bc
00000040: 54a2 c7bb 2588 b3bb f49b 1e3d cfda 5d3d
00000050: 5aaa 2b3d 0101 803d 0000 0000 2514 cdbb
00000060: cecc 863b 6d8d 70bb aa5a 65bb 0a6c 6dba
00000070: f3a3 633d c3bc 3fbb 8e1f 9e3d 82ac 8db8
00000080: 75b6 95bb b99a 55bc 2840 ba3c 01f9 e83d
00000090: b731 e83c 8a87 db3d f3f2 58ba b02b 43bc
000000a0: 85f6 f43c 0000 0000 0000 0000 3ee4 adbb
000000b0: f649 b73b 8a41 d2bb 0864 dcbb de09 ea3c
000000c0: ee51 50bb 080b a5ba

density_estimator_head.weight f4 [50, 11]
0.007348361 0.013330053 -0.0025336563 0.015368603 -0.0068238825 -0.0116070565 -0.0003709145 0.003266761
-0.010430079 -0.0064303605 -0.0023379063 0.0025021282 0.007227862 -8.674566e-05 -0.009514257 -0.005043299
-0.004179131 0.0069748363 -0.0050719706 0.017066266 0.009263475 -0.012469258 -0.0092064245 -0.0133398725
0.0014209368 -0.008430294 -0.0064848065 0.0039325003 -0.009679668 -0.013041259 0.0010966422 0.004180343
-0.0036601103 0.017256571 0.0020216927 -0.0014364874 0.010773827 0.032812137 -0.0050164266 0.0059153177
-0.01155052 -0.012243841 -0.018109545 0.0012910529 0.0014423901 0.0028347138 -0.0015264447 -0.007050181
-0.00023374816 0.01852373 0.0024854213 0.012494269 -0.0048190155 0.0070258267 -0.0012574887 0.0020855223
-0.010080054 -0.012458971 0.0013023437 -0.012162504 -0.0060968753 0.0066239554 0.022308066 -0.012456501
0.013525594 0.007893274 0.01218536 -0.004215484 -0.00778201 -0.01158014 0.010165875 -3.5094054e-05
-0.0035728023 -0.005620071 -0.0018833694 0.002280269 -0.0026173536 0.0064298664 0.0055787326 0.0050742463
0.0038989694 -0.002690539 -3.0505347e-05 -0.0026381677 -0.008740989 0.012602736 -0.0069891214 0.0097214915
0.011949305 -0.015465843 -0.011860073 -0.012245838 0.0027150447 0.007311277 0.025039148 0.0024244406
0.006070482 -0.013587576 -0.0032325103 0.018673534 -0.0027998495 0.019504521 -0.009997176 0.0057501686
0.011361976 -0.0018458395 -0.013708716 -0.008925217 0.0066001858 -0.0025282272 -0.002767299 -0.010274303
0.002898577 -0.032358613 -0.008854165 0.014778822 0.0055144746 -0.0025138415 -0.0010259239 -0.0030101626
0.012820336 -0.0010106849 0.002267333 0.017481899 0.010111533 -0.014205063 -0.004223359 0.008123863
0.007823539 0.015051611 -0.002599682 0.016457776 0.008442126 -0.0049119173 0.015444615 0.01177039
0.013378168 0.011025511 -0.0033309816 0.0028066903 0.003946233 -0.0020141057 -0.012801416 0.00076349627
-0.0036614768 -0.0010556383 0.0028917186 -0.0073121167 -0.014282232 -0.00034562038 -0.002552953 0.006885399
-0.006220597 -0.0059744474 -0.0035359552 -0.018602448 -0.011746016 -0.013621619 -0.013221575 -0.006354707
0.009948307 0.016499413 0.0011387834 0.0031260736 -0.019440096 -0.0020697087 -0.002541338 -0.00074112543
-0.019181548 -0.0040454846 0.010429315 -0.0029806115 -0.0069768718 0.0038268347 0.017792882 0.013365991
0.005323405 -0.0010839402 -0.0037594356 -0.006778519 -0.00057009445 0.0023520798 0.0029387076 -0.012590564
-0.013873929 -0.0028806832 0.014615224 -0.008215792 0.0022629916 0.014766285 0.008916056 -0.011608348
-0.002867908 -0.0051234635 0.002133804 -0.013460711 0.009957678 -0.0019192025 -0.0042333035 -0.0055155554
0.011495869 -0.00025060264 -0.02059598 -0.008698945 -0.0058425623 -0.010458082 0.009627412 0.00046940058
-0.02212376 -0.020391125 0.011781006 -0.005577603 0.008663454 -0.0020360078 0.015919661 0.0006840046
0.021138238 -0.003963726 0.00049650023 0.0130772665 -0.010932851 0.00832132 -0.014306712 -0.012023885
-0.0008663423 0.00064019003 -0.0063063106 0.009276405 -0.016168708 -0.0031592473 0.011491232 -0.014039538
0.0016324597 0.0004391458 0.017192211 0.0061713317 0.0016033328 -0.011324454 -0.011234973 0.0066758273
-0.013841371 -0.00504871 -0.008488502 -0.018969823 0.016225057 -0.019007422 0.0060716732 -0.011315194
-0.025608126 -0.0059730764 -0.004442797 -0.00559429 0.010531415 -0.013138601 -0.007843255 0.011975691
00000000: 85ca f03b 4b66 5a3c b30b 26bb 98cc 7b3c
00000010: e09a dfbb 862b 3ebc 4d77 c2b9 2817 563b
00000020: ece2 2abc c6b5 d2bb 8f37 19bb bffa 233b
00000030: b3d7 ec3b 39eb b5b8 b0e1 1bbc 4242 a5bb
00000040: 17f1 88bb 2b8d e43b c632 a6bb 8ece 8b3c
00000050: d5c5 173c dc4b 4cbc 8bd6 16bc 7b8f 5abc
00000060: ba3e ba3a 371f 0abc 807e d4bb 34dc 803b
00000070: 7897 1ebc 01ab 55bc 35bd 8f3a 42fb 883b
00000080: 76de 6fbb a75d 8d3c 607e 043b 8548 bcba
00000090: b584 303c 0566 063d d660 a4bb 48d5 c13b
000000a0: 643e 3dbc 649a 48bc 785a 94bc 8c38 a93a
000000b0: 950e bd3a 9bc6 393b fc12 c8ba 3405 e7bb
000000c0: 4b1a 75b9 14bf 973c 73e2 223b c3b4 4c3c
000000d0: d5e8 9dbb e838 e63b 52d2 a4ba 42ad 083b
000000e0: d026 25bc b620 4cbc 67b3 aa3a 3d45 47bc
000000f0: 4cc8 c7bb c40d d93b 68bf b63c 5a16 4cbc
00000100: 749a 5d3c ca52 013c 1ba5 473c 0b22 8abb
00000110: 3b00 ffbb a1ba 3dbc c58e 263c f431 13b8
00000120: ad25 6abb 9328 b8bb 64db f6ba 9170 153b
00000130: e887 2bbb a1b1 d23b cdcd b63b dd45 a63b
00000140: da85 7f3b c153 30bb bce5 ffb7 1ce5 2cbb
00000150: 5d36 0fbc b57b 4e3c 0005 e5bb e446 1f3c
00000160: 05c7 433c 7264 7dbc c050 42bc c4a2 48bc
00000170: e4ee 313b 7093 ef3b e61e cd3c 5de3 1e3b
00000180: e5ea c63b 6d9e 5ebc 86d8 53bb 3df9 983c
00000190: ae7d 37bb f2c7 9f3c 32cb 23bc e96b bc3b
000001a0: 9527 3a3c 19f0 f1ba 869a 60bc 133b 12bc
000001b0: 5f46 d83b 9db0 25bb 935b 35bb 8d55 28bc
000001c0: 0df6 3d3b 778a 04bd 0f11 11bc df22 723c
000001d0: c4b2 b43b 43bf 24bb 4b78 86ba 2646 45bb
000001e0: 630c 523c f578 84ba 8997 143b 3336 8f3c
000001f0: d8aa 253c 5abc 68bc 1a64 8abb f319 053c
00000200: 4d2e 003c 089b 763c 6d5f 2abb 75d2 863c
00000210: d850 0a3c 26f4 a0bb 690b 7d3c 98d8 403c
00000220: 1b30 5b3c 58a4 343c 994c 5abb 73f0 373b
00000230: 674f 813b 16ff 03bb 08bd 51bc 5e25 483a
00000240: 63f5 6fbb 585d 8aba fd82 3d3b 7b9a efbb
00000250: 0600 6abc 6234 b5b9 724f 27bb ea9e e13b
00000260: 26d6 cbbb 4cc5 c3bb 7cbb 67bb 2964 98bc
00000270: 5d72 40bc 362d 5fbc 4e9f 58bc 253b d0bb
00000280: 39fe 223c c729 873c 3b43 953a d0de 4c3b
00000290: d640 9fbc f3a3 07bb 948c 26bb 1648 42ba
000002a0: 9f22 9dbc fc8f 84bb b8df 2a3c 5d56 43bb
000002b0: 3e9e e4bb a2cb 7a3b 61c2 913c 08fd 5a3c
000002c0: f56f ae3b ff12 8eba dd60 76bb 571e debb
000002d0: 6472 15ba 5a25 1a3b 5597 403b a748 4ebc
000002e0: 7a4f 63bc d8c9 3cbb b174 6f3c 879b 06bc
000002f0: b34e 143b 4aee 713c a614 123c f130 3ebc
00000300: 83f3 3bbb bae2 a7bb 4ad7 0b3b 508a 5cbc
00000310: 8725 233c c08d fbba 86b7 8abb d5bb b4bb
00000320: 2b59 3c3c 5163 83b9 e7b8 a8bc 0586 0ebc
00000330: f772 bfbb 6058 2bbc 4bbc 1d3c e119 f639
00000340: e33c b5bc 4a0b a7bc 1f05 413c 53c4 b6bb
00000350: 29f1 0d3c 8b6e 05bb f369 823c c64e 333a
00000360: 192a ad3c 25e2 81bb 9127 023a 0842 563c
00000370: b31f 33bc 2556 083c b366 6abc d4ff 44bc
00000380: 3f1b 63ba 6dd2 273a 2ba5 cebb 10fc 173c
00000390: 3d74 84bc 600b 4fbb b845 3c3c 1706 66bc
000003a0: 42f8 d53a 273d e639 aed6 8c3c e238 ca3b
000003b0: ec26 d23a 348a 39bc e412 38bc e6c0 da3b
000003c0: ebc6 62bc a66f a5bb 5c13 0bbc 9a66 9bbc
000003d0: 69ea 843c 74b5 9bbc e3f4 c63b 5d63 39bc
000003e0: 22c8 d1bc ccb9 c3bb e294 91bb 4e50 b7bb
000003f0: f58b 2c3c 4943 57bc ff80 00bc b035 443c

density_estimator_head.bias f4 [11]
-0.02477085 0.011539572 0.014610368 0.0104991 0.0062149116 0.007301467 -0.0020976432 -0.006518228
-0.007697998 0.0018619745 -0.010942669
00000000: 3dec cabc 7910 3d3c 5360 6f3c 6b04 2c3c
00000010: 75a6 cb3b 2541 ef3b 9d78 09bb dc96 d5bb
00000020: 7d3f fcbb 7f0d f43a e148 33bc

Q.0.weight f4 [50, 50, 5]
-0.39838007 0.75927526 -1.6653831 -1.069457 1.3960073 0.50704134 -1.5785009 0.6416784
0.26809645 -0.6816214 -0.09396771 -0.4550256 -2.1827877 1.8811516 0.22323163 -1.0831447
-0.28784323 0.91937405 -1.9984305 0.32865468 0.31301898 1.0522144 -0.25791255 -0.26604426
1.91842 0.2774251 -0.05030144 -1.432875 -0.6387428 0.36114964 1.2409204 -0.23085131
-1.1195545 -0.77635306 0.5122889 0.2848036 -0.5297802 0.17060651 1.8515545 1.426853
0.76641494 0.45350432 0.3179524 -1.156812 -0.008134664 0.06129495 1.9088148 2.0253668
-0.61825633 1.4326828 0.27550507 0.14868218 -0.6920283 -0.5964424 0.09855319 1.0970379
0.109427996 0.7787512 1.0827247 1.2837995 0.7798921 0.34595832 0.5182245 0.73783594
0.9819068 -0.35106373 -1.6146432 1.6181272 -0.25972098 0.6148092 1.7352121 -1.5806596
1.6463189 0.57998323 -0.35403487 -0.706355 0.29720896 -0.44047752 0.39931488 0.6877192
0.5192838 -0.19943814 -0.7523622 -1.4079304 -1.0208662 0.01803739 1.3251741 0.8080527
-0.08239965 0.6432027 -1.2668767 -1.1083474 -1.8215847 1.0931478 -0.8038152 0.6815387
-0.6682611 -0.90362585 0.5706187 -1.2349155 0.14098668 1.1042403 -1.3303179 -1.1441743
-0.5560237 1.2063204 0.25111365 -2.626843 0.5117826 -0.58056253 -0.08399113 1.6434773
-0.9912412 -0.7061285 -0.45231315 1.1398833 0.9692689 -0.23571956 -1.1943806 -1.3482056
-0.5888312 -2.0948336 -0.78470135 -0.172893 -1.1759537 0.40639335 0.8558346 -1.1734904
1.12089 -0.89939636 -0.7774457 -0.5183234 -0.85852027 0.88398314 1.8926055 -0.504689
0.173606 0.14929616 -0.751121 -1.0147158 2.3428276 1.3459489 2.0530052 1.2728814
-0.04280758 0.17740682 -0.65187764 0.39987913 -1.9386033 1.6543573 1.6349453 -0.44731364
-0.8644332 -0.008543125 0.30989802 -0.22717327 -0.9241106 0.4822078 -0.20623237 0.6239576
-0.52454567 1.53804 -1.8150285 0.7603349 0.36923367 0.6926887 0.52553546 0.5811958
-0.18504423 -0.35676873 0.14189531 -1.3426464 0.6636429 -0.0481037 -0.52791095 -1.0536685
0.4764381 0.5501654 -0.37871632 -0.34990755 0.7766728 -0.15999743 -1.0353953 -0.24893259
1.0305476 -0.95815384 0.12854828 1.1902688 0.86654973 0.548505 0.15964939 -0.48728064
1.3300601 1.3965759 0.9318833 -1.1130635 1.0934608 0.8596247 -0.49819273 0.0005771038
-2.1806386 0.7107955 1.3403574 -0.48292106 1.2564868 1.8633991 -0.46539226 1.5365657
-0.7443884 0.36337057 -1.4252163 0.30054206 2.350429 0.55469805 1.6413639 1.4693706
1.0339204 -0.18079789 -0.38527015 -0.6313176 -2.1094677 -0.52429104 0.0045710457 -1.2159892
-0.46252656 -1.2391163 0.4428673 1.9161745 -0.14240044 0.7615584 -1.8710678 -1.6213406
-2.1078966 -0.5204718 -0.6494493 0.105793685 2.249896 0.8890261 0.45556068 -0.6929487
1.2146952 -0.40715322 -2.0561337 0.88040596 -0.12623988 1.480242 0.52567846 -1.2716745
0.1444893 0.42126447 0.9555409 -0.4405004 0.979211 0.9392475 0.17182775 1.5728202
00000000: 79f8 cbbe dd5f 423f 462b d5bf f8e3 88bf
00000010: 5eb0 b23f 76cd 013f 510c cabf 0945 243f
00000020: f043 893e bd7e 2ebf 2572 c0bd 1ef9 e8be
00000030: cbb2 0bc0 93c9 f03f d596 643e 7ca4 8abf
00000040: 3060 93be 195c 6b3f 92cc ffbf 6d45 a83e
00000050: 0644 a03e f6ae 863f 1d0d 84be f436 88be
00000060: c98e f53f aa0a 8e3e e208 4ebd 7368 b7bf
00000070: a684 23bf 9be8 b83e 7bd6 9e3f 4964 6cbe
00000080: 904d 8fbf 13bf 46bf 5e25 033f c7d1 913e
00000090: ad9f 07bf 79b3 2e3e bdff ec3f 1ea3 b63f
000000a0: c533 443f b831 e83e a8ca a23e 6a12 94bf
000000b0: 4147 05bc 6a10 7b3d 0b54 f43f 9c9f 0140
000000c0: 0c46 1ebf 2662 b73f 000f 8d3e 2440 183e
000000d0: c428 31bf 73b0 18bf 41d6 c93d bd6b 8c3f
000000e0: c91b e03d 3d5c 473f b996 8a3f 8b53 a43f
000000f0: 02a7 473f 7321 b13e 5caa 043f d1e2 3c3f
00000100: 3e5e 7b3f a0be b3be a1ac cebf cb1e cf3f
00000110: 26fa 84be 2364 1d3f 6e1b de3f 0e53 cabf
00000120: 94ba d23f c879 143f 0f44 b5be aed3 34bf
00000130: c62b 983e 4586 e1be 0073 cc3e 5e0e 303f
00000140: c8ef 043f 8339 4cbe cf9a 40bf 1037 b4bf
00000150: beab 82bf 26c3 933c 4e9f a93f 8bdc 4e3f
00000160: 26c1 a8bd efa8 243f 0429 a2bf 54de 8dbf
00000170: b029 e9bf 44ec 8b3f d5c6 4dbf 5279 2e3f
00000180: 2913 2bbf 0654 67bf 1114 123f b611 9ebf
00000190: d05e 103e bf57 8d3f db47 aabf 4e74 92bf
000001a0: 9257 0ebf b568 9a3f f891 803e 321e 28c0
000001b0: 2f04 033f bf9f 14bf 8b03 acbd 775d d23f
000001c0: fcc1 7dbf d6c4 34bf 9795 e7be b2e7 913f
000001d0: 0222 783f 7860 71be 77e1 98bf 0092 acbf
000001e0: a4bd 16bf c111 06c0 30e2 48bf dd0a 31be
000001f0: a785 96bf ca12 d03e fa17 5b3f ef34 96bf
00000200: 5379 8f3f d73e 66bf ae06 47bf d8b0 04bf
00000210: fcc7 5bbf b84c 623f e640 f23f 4c33 01bf
00000220: c5c5 313e 18e1 183e 7749 40bf 35e2 81bf
00000230: e3f0 1540 0e48 ac3f 7064 0340 c7ed a23f
00000240: 0057 2fbd 22aa 353e 74e1 26bf f5bc cc3e
00000250: 2724 f8bf fbc1 d33f e345 d13f 4b06 e5be
00000260: 7f4b 5dbf 77f8 0bbc f4aa 9e3e 1ca0 68be
00000270: 8392 6cbf f1e3 f63e 942e 53be afbb 1f3f
00000280: a048 06bf 7fde c43f db52 e8bf 4fa5 423f
00000290: 320c bd3e 0c54 313f 7e89 063f 3fc9 143f
000002a0: 3c7c 3dbe 64aa b6be 014d 113e d6db abbf
000002b0: 80e4 293f 6308 45bd 2c25 07bf 9cde 86bf
000002c0: b2ef f33e a4d7 0c3f 1be7 c1be 1527 b3be
000002d0: 07d4 463f 5ed6 23be d587 84bf 2fe8 7ebe
000002e0: fce8 833f 9249 75bf 29a2 033e ba5a 983f
000002f0: 34d6 5d3f d36a 0c3f 217b 233e d97c f9be
00000300: 693f aa3f 00c3 b23f e78f 6e3f dd78 8ebf
00000310: 86f6 8b3f 5d10 5c3f 1e13 ffbe c848 173a
00000320: 958f 0bc0 b2f6 353f d590 ab3f 6e41 f7be
00000330: 8fd4 a03f dd83 ee3f e547 eebe 2fae c43f
00000340: 3d90 3ebf b50b ba3e 7d6d b6bf a6e0 993e
00000350: 6e6d 1640 b100 0e3f 3618 d23f 5614 bc3f
00000360: 8157 843f 1523 39be 2142 c5be 089e 21bf
00000370: 8501 07c0 f037 06bf b6c8 953b 89a5 9bbf
00000380: 48d0 ecbe 5d9b 9ebf 81bf e23e 3545 f53f
00000390: 6cd1 11be 7ef5 423f 267f efbf 1788 cfbf
000003a0: c7e7 06c0 a43d 05bf 4f42 26bf 5caa d83d
000003b0: 4cfe 0f40 3797 633f 403f e93e 1665 31bf
000003c0: 227b 9b3f 6376 d0be b297 03c0 4962 613f
000003d0: 0745 01be 9278 bd3f dd92 063f 3bc6 a2bf
000003e0: 01f5 133e faaf d73e 549e 743f 4589 e1be
000003f0: 92ad 7a3f 8672 703f 9df3 2f3e 2c52 c93f

Q.0.bias f4 [50, 5]
-0.0072502196 0.004783561 0.009037872 0.0050902176 0.00017652851 0.01678509 0.0022545382 0.0036171104
0.0048307218 0.0013325362 0.0 0.0 0.0 0.0 0.0 -0.00056551304
-0.00065140385 -0.00062085787 -0.00026066662 -5.5283304e-05 4.5656247e-07 5.544484e-07 9.6157464e-08 0.0
0.0 -0.0005272148 -7.670152e-06 0.00036516058 0.00029080783 7.393945e-05 -7.6066804e-05 -0.0021094251
-0.0011521011 5.529731e-06 5.1463678e-05 -0.00034456604 -0.00019740469 -8.045117e-05 4.66426e-06 3.631215e-06
0.014730037 -0.008617415 -0.009195309 -0.00063168514 0.00010929154 0.014100585 0.0035899521 0.0005885009
-6.036815e-05 -9.410156e-06 -0.0034468877 -0.011338642 -0.0063885953 0.0026165198 0.0006082817 0.010429268
-0.0034589344 -0.0027344401 -0.0011346226 -0.00025418124 0.006472751 -0.008224577 -0.013600467 -0.005663422
-0.0018028142 0.0056424118 0.01397893 0.007306554 -0.0032977136 -0.00044047067 0.00029978147 0.0002313623
5.7784793e-05 -4.8100865e-06 -2.5822226e-06 1.1602922e-05 1.4141259e-05 2.2999016e-05 1.36439885e-05 3.1096727e-06
5.2360946e-07 -7.5411925e-05 -9.9658726e-05 -5.1197963e-05 -1.1456379e-05 0.0050032204 -0.012042982 -0.009733583
0.0012082686 -0.00041179382 -0.024840351 -0.014756865 -0.0033684617 0.0020679731 -0.0029866013 0.008116101
0.0071743457 0.004382317 0.00052569964 -0.0013262343 0.0009451261 0.0002811504 0.0013271117 0.0026366985
0.0016790936 0.031131843 0.016816389 0.007180758 0.00021019952 0.0031906557 0.007980471 0.00863899
0.009237304 0.00440463 0.0013103952 -1.9154226e-05 -0.0025060293 -0.0025716582 -0.0010812633 -0.00023304307
-0.004200401 -0.001482694 0.0008426886 0.0013766409 0.001022374 0.012734958 0.022216456 0.015412717
-0.00017584638 0.0019065662 -0.0019512909 0.00048790307 0.0021762531 0.0013709827 0.00042772474 0.003193939
-0.003008399 -0.007485488 -0.0045971284 -0.00043771561 -0.00490541 0.00040593487 -0.00087301346 -0.0015430517
-0.0016163521 0.0 0.0 0.0 0.0 0.0 0.00764499 0.0048067677
0.0025402922 -0.00018703695 0.00038549613 0.015482766 0.020225825 0.012432921 -0.0007321584 0.002804139
0.00043888524 -0.0004634293 0.0025891254 0.0017463604 0.00041574557 -0.003923067 -0.006754398 -0.0018092685
-0.00018188082 -4.020239e-05 -0.00018089004 -0.0001249031 -9.419162e-05 -3.171338e-05 -6.1085134e-06 -0.017013015
-0.015362627 -0.009836787 -0.0009329447 4.1284988e-05 0.020911265 0.023078425 0.012944486 -0.0012129393
0.0013815268 -0.00025381843 -0.00027756556 -0.0002796193 -0.00012382003 -2.5504589e-05 0.012216096 0.005300368
0.0032858101 0.0020102446 0.0011057619 0.0 0.0 0.0 0.0 0.0
-0.0107355565 -0.010684348 -0.005456653 0.0010230008 -0.0014134225 0.023986991 0.009070389 -0.0029258577
-0.006181765 -0.0010289993 -0.0067942385 -0.0062641655 -0.010700467 -0.008067601 -0.0012489656 -0.021263601
-0.003031389 -0.00042975796 -4.332417e-05 -1.0766179e-05 -0.017171139 -0.024346977 -0.013973867 0.0025305946
-0.001513584 0.00017709758 0.00023844809 0.00028016878 0.00013842492 3.0508305e-05 -0.0034222803 -0.0007041829
-4.383468e-06 0.00022590689 -0.00042990272 0.0049814056 -0.0005814239 -0.0017468944 -0.00030783901 1.6899872e-06
7.516085e-05 7.2470946e-05 6.993132e-05 3.0285099e-05 7.00899e-06 -0.0065807607 0.013516223 0.015859209
0.006204196 -0.0033989851
00000000: 4093 edbb 6bbf 9c3b 9513 143c d7cb a63b
00000010: 831a 3939 e380 893c e0c0 133b 0b0d 6d3b
00000020: 084b 9e3b 7fa8 ae3a 0000 0000 0000 0000
00000030: 0000 0000 0000 0000 0000 0000 f03e 14ba
00000040: f9c2 2aba 11c1 22ba 15aa 88b9 ffdf 67b8
00000050: 781d f534 67d5 1435 207f ce33 0000 0000
00000060: 0000 0000 c934 0aba 0daf 00b7 0673 bf39
00000070: 9177 9839 f10f 9b38 0e86 9fb8 483e 0abb
00000080: 1902 97ba 078c b936 b4da 5738 dfa6 b4b9
00000090: 6bfe 4eb9 e5b7 a8b8 b081 9c36 ccaf 7336
000000a0: 4156 713c 0f30 0dbc eca7 16bc ac97 25ba
000000b0: 7333 e538 2406 673c 6745 6b3b a045 1a3a
000000c0: cf33 7db8 50e0 1db7 2ee5 61bb b6c5 39bc
000000d0: 6c57 d1bb eb79 2b3b 1875 1f3a 85df 2a3c
000000e0: 4aaf 62bb 4b34 33bb 9eb7 94ba a143 85b9
000000f0: 5f19 d43b 60c0 06bc 7ed4 5ebc 3a94 b9bb
00000100: 684c ecba fbe3 b83b e207 653c d16b ef3b
00000110: 741e 58bb f9ee e6b9 fd2b 9d39 d899 7239
00000120: f35d 7238 5466 a1b6 3f4a 2db6 2caa 4237
00000130: 3f40 6d37 03ee c037 7ce8 6437 c5af 5036
00000140: 2b8e 0c35 7826 9eb8 dfff d0b8 65bd 56b8
00000150: c634 40b7 0ef2 a33b ed4f 45bc 9b79 1fbc
00000160: c45e 9e3a 08e6 d7b9 fe7d cbbc c7c6 71bc
00000170: 69c1 5cbb d586 073b dbba 43bb 65f9 043c
00000180: c616 eb3b 8a99 8f3b 1bcf 093a 0ad5 adba
00000190: 57c2 773a 5e67 9339 7bf2 ad3a 76cc 2c3b
000001a0: 0815 dc3a 3508 ff3c 86c2 893c 904c eb3b
000001b0: 0169 5c39 521a 513b 85c0 023c 8d8a 0d3c
000001c0: 1058 173c b754 903b 91c1 ab3a 63ad a0b7
000001d0: 323c 24bb 4489 28bb 2db9 8dba 065d 74b9
000001e0: 84a3 89bb f456 c2ba e0e7 5c3a 6770 b43a
000001f0: 2e01 863a 49a6 503c 49ff b53c 9f85 7c3c
00000200: 6763 38b9 bfe5 f93a 75c2 ffba 3ecd ff39
00000210: 789f 0e3b 8cb2 b33a 3e40 e039 6851 513b
00000220: 8f28 45bb d348 f5bb 82a3 96bb 327d e5b9
00000230: 90bd a0bb a8d3 d439 f1da 64ba 3940 caba
00000240: c7db d3ba 0000 0000 0000 0000 0000 0000
00000250: 0000 0000 0000 0000 d382 fa3b 1782 9d3b
00000260: 087b 263b 591f 44b9 6a1c ca39 6dab 7d3c
00000270: a1b0 a53c 73b3 4b3c 52ee 3fba a5c5 373b
00000280: 2e1a e639 6ef8 f2b9 51ae 293b 22e6 e43a
00000290: 6df8 d939 128d 80bb ff53 ddbb fa24 edba
000002a0: 43b7 3eb9 fd9e 28b8 4dad 3db9 6cf8 02b9
000002b0: be88 c5b8 fc03 05b8 bbf7 ccb6 e15e 8bbc
000002c0: 87b3 7bbc 7a2a 21bc dc90 74ba 6b29 2d38
000002d0: 1a4e ab3c f70e bd3c 1c15 543c 7dfb 9eba
000002e0: 5914 b53a ef12 85b9 3886 91b9 de99 92b9
000002f0: b0d5 01b9 b0f2 d5b7 0526 483c b6ae ad3b
00000300: bf56 573b 4fbe 033b 36ef 903a 0000 0000
00000310: 0000 0000 0000 0000 0000 0000 0000 0000
00000320: 30e4 2fbc 670d 2fbc b9cd b2bb 3616 863a
00000330: 9742 b9ba 5e80 c43c f89b 143c bfbf 3fbb
00000340: 6790 cabb 7ddf 86ba 34a2 debb a143 cdbb
00000350: 0351 2fbc f92d 04bc 55b4 a3ba 0131 aebc
00000360: 45aa 46bb 2351 e1b9 f9b6 35b8 63a0 34b7
00000370: 7daa 8cbc 5073 c7bc a5f2 64bc 55d8 253b
00000380: 7463 c6ba 45b3 3939 ec07 7a39 9ee3 9239
00000390: 2826 1139 16ec ff37 5648 60bb ea98 38ba
000003a0: b415 93b6 6be1 6c39 9164 e1b9 0f3b a33b
000003b0: b36a 18ba 0df8 e4ba 7465 a1b9 85d3 e235
000003c0: ad9f 9d38 8bfb 9738 17a8 9238 c10c fe37
000003d0: c42e eb36 6ca3 d7bb 2673 5d3c 2ceb 813c
000003e0: 914c cb3b 82c1 5ebb

Q.1.weight f4 [50, 1, 5]
-1.3099966 -0.5448929 0.7852316 0.9424134 0.80997247 -0.7236657 -1.6082637 -1.3399928
1.7802175 0.46158344 0.66266155 -1.5230497 -0.25461578 0.15904616 -0.05359785 -0.7454679
0.80746067 1.4692186 -0.95340085 0.6145317 1.5033395 1.9307946 1.0847695 -0.47324353
1.4026073 -0.6929547 -0.07438068 -1.1830515 -0.9145495 0.9697227 -0.28124562 -0.7151841
0.6763123 1.0159663 -2.1391006 -1.1119051 0.76057583 0.99944496 -1.2811706 -0.9561197
-1.2538326 -0.23774903 0.43657213 0.59189636 0.11102428 -0.15174809 -0.5957607 1.3214104
0.24678034 0.050156597 -1.6182545 1.1515974 -0.3663292 1.7947603 0.21328124 0.66077423
1.4041059 1.1931194 1.6075945 1.610245 -1.0271096 -0.26921558 0.39103392 0.1672318
-0.39169827 1.7727194 -0.59797835 -0.31733668 -0.9832154 -0.9664192 -0.25624296 0.8914108
0.98183805 0.7277612 -0.49887496 -0.114963934 0.08401729 -0.02522282 -0.040865924 -0.055952936
-0.40626732 1.6708044 -0.98801637 -0.09933753 -0.35668385 -2.062933 1.0328132 0.5613442
-0.4199668 -0.96891 -1.8519543 -0.44245785 -0.6966706 -0.60769635 -1.025191 -0.1648196
-1.1084101 0.49574828 -0.56801873 -2.1259162 -0.7478033 0.8049628 0.47600967 1.5813112
-1.6831983 -0.13023464 2.419501 1.0257484 -0.67510647 0.61731654 -0.7297157 1.1554178
-0.032259718 0.48725778 0.72977304 -0.30707029 -0.3662283 1.615832 1.0174159 -0.1054464
1.0064063 -0.078369305 -0.3007365 0.3834582 0.8839417 2.1137083 -0.43538767 0.0039861505
0.80741614 0.07991639 0.16105591 -0.522523 0.26015705 0.30301547 1.6533595 -0.23591836
1.2560807 0.46677536 -0.057080135 0.7854604 0.11877843 -0.071667925 -0.60822564 -1.6833397
0.0131028965 0.38085395 0.8749636 -1.1048169 -0.5523573 -0.0034064746 0.30495754 -0.15779975
0.60682225 -0.8498515 0.71874106 1.609661 0.8619821 -0.4105631 2.2432675 -0.16208883
0.6251258 -1.8499552 -0.9600121 0.5915055 0.018419474 1.050021 -0.2724067 0.09125272
0.8874077 0.7592596 -0.8392858 0.63483316 0.29539663 0.54433393 1.5235666 -0.60297763
0.20627837 -0.87129754 -0.8227913 -0.11629755 1.3574293 1.2646824 -0.97236824 -0.02749106
0.37553895 0.11112833 -0.31800804 1.4556417 1.19992 -0.11981049 -0.59198344 1.2332264
-0.026397686 -0.47525635 2.748413 0.54802036 0.011253233 1.8329157 0.46269235 0.0045786058
-0.72987896 -0.6838536 0.08830954 -0.86118823 0.578319 0.1825434 1.0643564 1.0822294
-1.3631024 1.4445732 0.7597936 0.028797498 0.20829178 0.31570163 -0.6768938 0.8236817
0.90358645 0.35282207 2.1143172 0.3455657 -2.2411945 -0.03792512 0.06454282 0.25146335
-0.6347745 -0.38941994 0.18213168 -0.56970495 0.27200097 0.80312276 -0.09626791 -0.041966766
-0.2600492 -0.28529546 0.64831686 -0.39200884 0.72531396 -1.3853099 -0.93944955 0.18778633
-2.3017793 -0.5563359 0.13882445 1.3480253 -0.091619425 -2.722914 -0.96173006 -0.32754436
0.2548832 -1.2015392
00000000: f8ad a7bf 1a7e 0bbf f004 493f 0142 713f
00000010: 5b5a 4f3f 2842 39bf 96db cdbf e284 abbf
00000020: 2bde e33f aa54 ec3e 30a4 293f 4bf3 c2bf
00000030: 005d 82be ffdc 223e 6b89 5bbd fcd6 3ebf
00000040: beb5 4e3f 5b0f bc3f 1412 74bf f351 1d3f
00000050: 6e6d c03f 4724 f73f bad9 8a3f fa4c f2be
00000060: a388 b33f 7b65 31bf e654 98bd 3b6e 97bf
00000070: eb1f 6abf bf3f 783f 6dff 8fbe 4e16 37bf
00000080: ce22 2d3f 2f0b 823f 06e7 08c0 e852 8ebf
00000090: 19b5 423f a0db 7f3f 66fd a3bf 43c4 74bf
000000a0: 967d a0bf 7b74 73be 6286 df3e 8586 173f
000000b0: b360 e33d da63 1bbe c683 18bf fa23 a93f
000000c0: fcb3 7c3e 0171 4d3d f722 cfbf 8b67 933f
000000d0: 808f bbbe b5ba e53f 6666 5a3e 8028 293f
000000e0: beb9 b33f 23b8 983f a8c5 cd3f 821c ce3f
000000f0: 5478 83bf a0d6 89be 9935 c83e d03e 2b3e
00000100: ad8c c8be 78e8 e23f 1c15 19bf f479 a2be
00000110: 01b4 7bbf 4067 77bf 4732 83be 8033 643f
00000120: bd59 7b3f 8f4e 3a3f 8a6c ffbe 3672 ebbd
00000130: 4211 ac3d 16a0 cebc 0763 27bd e82e 65bd
00000140: 4502 d0be ebdc d53f a4ee 7cbf 7a71 cbbd
00000150: 449f b6be 1807 04c0 3933 843f 41b4 0f3f
00000160: e305 d7be 7c0a 78bf d70c edbf d689 e2be
00000170: 0159 32bf fd91 1bbf 7539 83bf 78c6 28be
00000180: 62e0 8dbf b8d2 fd3e ad69 11bf 030f 08c0
00000190: 0970 3fbf 0b12 4e3f 8ab7 f33e 6868 ca3f
000001a0: 0b73 d7bf 3b5c 05be 1bd9 1a40 b94b 833f
000001b0: c7d3 2cbf 7508 1e3f a6ce 3abf bbe4 933f
000001c0: c422 04bd da79 f93e 68d2 3a3f 5138 9dbe
000001d0: 4782 bbbe 95d3 ce3f af3a 823f 48f4 d7bd
000001e0: ecd1 803f 1680 a0bd 22fa 99be a254 c43e
000001f0: 014a 623f ff46 0740 22eb debe 419e 823b
00000200: d3b2 4e3f 34ab a33d d7eb 243e 11c4 05bf
00000210: 4e33 853e d824 9b3e 49a1 d33f 9594 71be
00000220: 41c7 a03f 2efd ee3e dccc 69bd ef13 493f
00000230: 1b42 f33d a2c6 92bd adb4 1bbf ad77 d7bf
00000240: 88ad 563c 4aff c23e 9dfd 5f3f a46a 8dbf
00000250: 4a67 0dbf 293f 5fbb 6523 9c3e 4296 21be
00000260: b458 1b3f de8f 59bf 6aff 373f 5f09 ce3f
00000270: dcaa 5c3f 5435 d2be b291 0f40 9dfa 25be
00000280: 3f08 203f 55cb ecbf 5ac3 75bf e86c 173f
00000290: 70e4 963c 1767 863f e478 8bbe b5e2 ba3d
000002a0: 272d 633f d65e 423f 6fdb 56bf 6d84 223f
000002b0: 3a3e 973e 7859 0b3f 3b04 c33f be5c 1abf
000002c0: a33a 533e 5b0d 5fbf 73a2 52bf 692d eebd
000002d0: 3ec0 ad3f 1de1 a13f 20ed 78bf ee34 e1bc
000002e0: a446 c03e 4097 e33d f3d1 a2be 7852 ba3f
000002f0: fb96 993f 345f f5bd 3a8c 17bf 5dda 9d3f
00000300: f63f d8bc cd54 f3be 00e6 2f40 104b 0c3f
00000310: 7b5f 383c fb9c ea3f 03e6 ec3e 2108 963b
00000320: 59d9 3abf 0811 2fbf a2db b43d d576 5cbf
00000330: b70c 143f a8ec 3a3e d53c 883f 7e86 8a3f
00000340: 247a aebf c6e7 b83f d581 423f bbe8 eb3c
00000350: 714a 553e a5a3 a13e e948 2dbf cedc 523f
00000360: 7151 673f 18a5 b43e f950 0740 fded b03e
00000370: bb6f 0fc0 5f57 1bbd 072f 843d cebf 803e
00000380: 9580 22bf 0d62 c7be ba80 3a3e 2fd8 11bf
00000390: b643 8b3e 7499 4d3f 1c28 c5bd 58e5 2bbd
000003a0: 2b25 85be 3f12 92be 18f8 253f 62b5 c8be
000003b0: 2dae 393f d651 b1bf c47f 70bf 0f4b 403e
000003c0: 5a50 13c0 086c 0ebf ff27 0e3e 188c ac3f
000003d0: f7a2 bbbd 3944 2ec0 f133 76bf e5b3 a7be
000003e0: 0d80 823e 09cc 99bf

Q.1.bias f4 [1, 5]
0.0072962316 0.0104008205 0.0058364794 -0.0012586255 0.0006813384
00000000: 3a15 ef3b 3468 2a3c f03f bf3b 77f8 a4ba
00000010: d99b 323a

weight f4 [12]
-0.0018843614 0.006575192 0.0033214274 0.0013297996 -0.0046809306 -0.010090357 -0.008915011 -0.0028213877
0.002897182 0.005342983 0.0037963896 0.0013056934
00000000: adfc f6ba b574 d73b 4eac 593b ac4c ae3a
00000010: 7e62 99bb 0652 25bc 4410 12bc 08e7 38bb
00000020: a6de 3d3b 3114 af3b d9cc 783b cd23 ab3a
